{"modelTopology": {"keras_version": "2.1.6", "backend": "tensorflow", "model_config": {"config": {"output_layers": [["dense_1", 0, 0]], "layers": [{"class_name": "InputLayer", "inbound_nodes": [], "config": {"batch_input_shape": [null, 299, 299, 3], "sparse": false, "dtype": "float32", "name": "input_1"}, "name": "input_1"}, {"class_name": "Conv2D", "inbound_nodes": [[["input_1", 0, 0, {}]]], "config": {"activity_regularizer": null, "kernel_initializer": {"class_name": "VarianceScaling", "config": {"scale": 1.0, "mode": "fan_avg", "distribution": "uniform", "seed": null}}, "bias_constraint": null, "padding": "valid", "filters": 32, "kernel_size": [3, 3], "bias_initializer": {"class_name": "Zeros", "config": {}}, "use_bias": false, "trainable": false, "strides": [2, 2], "data_format": "channels_last", "dilation_rate": [1, 1], "bias_regularizer": null, "kernel_constraint": null, "activation": "linear", "name": "conv2d_1", "kernel_regularizer": null}, "name": "conv2d_1"}, {"class_name": "BatchNormalization", "inbound_nodes": [[["conv2d_1", 0, 0, {}]]], "config": {"scale": false, "gamma_regularizer": null, "moving_mean_initializer": {"class_name": "Zeros", "config": {}}, "gamma_constraint": null, "axis": 3, "beta_constraint": null, "beta_regularizer": null, "epsilon": 0.001, "trainable": false, "moving_variance_initializer": {"class_name": "Ones", "config": {}}, "gamma_initializer": {"class_name": "Ones", "config": {}}, "beta_initializer": {"class_name": "Zeros", "config": {}}, "center": true, "momentum": 0.99, "name": "batch_normalization_1"}, "name": "batch_normalization_1"}, {"class_name": "Activation", "inbound_nodes": [[["batch_normalization_1", 0, 0, {}]]], "config": {"activation": "relu", "trainable": false, "name": "activation_1"}, "name": "activation_1"}, {"class_name": "Conv2D", "inbound_nodes": [[["activation_1", 0, 0, {}]]], "config": {"activity_regularizer": null, "kernel_initializer": {"class_name": "VarianceScaling", "config": {"scale": 1.0, "mode": "fan_avg", "distribution": "uniform", "seed": null}}, "bias_constraint": null, "padding": "valid", "filters": 32, "kernel_size": [3, 3], "bias_initializer": {"class_name": "Zeros", "config": {}}, "use_bias": false, "trainable": false, "strides": [1, 1], "data_format": "channels_last", "dilation_rate": [1, 1], "bias_regularizer": null, "kernel_constraint": null, "activation": "linear", "name": "conv2d_2", "kernel_regularizer": null}, "name": "conv2d_2"}, {"class_name": "BatchNormalization", "inbound_nodes": [[["conv2d_2", 0, 0, {}]]], "config": {"scale": false, "gamma_regularizer": null, "moving_mean_initializer": {"class_name": "Zeros", "config": {}}, "gamma_constraint": null, "axis": 3, "beta_constraint": null, "beta_regularizer": null, "epsilon": 0.001, "trainable": false, "moving_variance_initializer": {"class_name": "Ones", "config": {}}, "gamma_initializer": {"class_name": "Ones", "config": {}}, "beta_initializer": {"class_name": "Zeros", "config": {}}, "center": true, "momentum": 0.99, "name": "batch_normalization_2"}, "name": "batch_normalization_2"}, {"class_name": "Activation", "inbound_nodes": [[["batch_normalization_2", 0, 0, {}]]], "config": {"activation": "relu", "trainable": false, "name": "activation_2"}, "name": "activation_2"}, {"class_name": "Conv2D", "inbound_nodes": [[["activation_2", 0, 0, {}]]], "config": {"activity_regularizer": null, "kernel_initializer": {"class_name": "VarianceScaling", "config": {"scale": 1.0, "mode": "fan_avg", "distribution": "uniform", "seed": null}}, "bias_constraint": null, "padding": "same", "filters": 64, "kernel_size": [3, 3], "bias_initializer": {"class_name": "Zeros", "config": {}}, "use_bias": false, "trainable": false, "strides": [1, 1], "data_format": "channels_last", "dilation_rate": [1, 1], "bias_regularizer": null, "kernel_constraint": null, "activation": "linear", "name": "conv2d_3", "kernel_regularizer": null}, "name": "conv2d_3"}, {"class_name": "BatchNormalization", "inbound_nodes": [[["conv2d_3", 0, 0, {}]]], "config": {"scale": false, "gamma_regularizer": null, "moving_mean_initializer": {"class_name": "Zeros", "config": {}}, "gamma_constraint": null, "axis": 3, "beta_constraint": null, "beta_regularizer": null, "epsilon": 0.001, "trainable": false, "moving_variance_initializer": {"class_name": "Ones", "config": {}}, "gamma_initializer": {"class_name": "Ones", "config": {}}, "beta_initializer": {"class_name": "Zeros", "config": {}}, "center": true, "momentum": 0.99, "name": "batch_normalization_3"}, "name": "batch_normalization_3"}, {"class_name": "Activation", "inbound_nodes": [[["batch_normalization_3", 0, 0, {}]]], "config": {"activation": "relu", "trainable": false, "name": "activation_3"}, "name": "activation_3"}, {"class_name": "MaxPooling2D", "inbound_nodes": [[["activation_3", 0, 0, {}]]], "config": {"pool_size": [3, 3], "trainable": false, "name": "max_pooling2d_1", "data_format": "channels_last", "strides": [2, 2], "padding": "valid"}, "name": "max_pooling2d_1"}, {"class_name": "Conv2D", "inbound_nodes": [[["max_pooling2d_1", 0, 0, {}]]], "config": {"activity_regularizer": null, "kernel_initializer": {"class_name": "VarianceScaling", "config": {"scale": 1.0, "mode": "fan_avg", "distribution": "uniform", "seed": null}}, "bias_constraint": null, "padding": "valid", "filters": 80, "kernel_size": [1, 1], "bias_initializer": {"class_name": "Zeros", "config": {}}, "use_bias": false, "trainable": false, "strides": [1, 1], "data_format": "channels_last", "dilation_rate": [1, 1], "bias_regularizer": null, "kernel_constraint": null, "activation": "linear", "name": "conv2d_4", "kernel_regularizer": null}, "name": "conv2d_4"}, {"class_name": "BatchNormalization", "inbound_nodes": [[["conv2d_4", 0, 0, {}]]], "config": {"scale": false, "gamma_regularizer": null, "moving_mean_initializer": {"class_name": "Zeros", "config": {}}, "gamma_constraint": null, "axis": 3, "beta_constraint": null, "beta_regularizer": null, "epsilon": 0.001, "trainable": false, "moving_variance_initializer": {"class_name": "Ones", "config": {}}, "gamma_initializer": {"class_name": "Ones", "config": {}}, "beta_initializer": {"class_name": "Zeros", "config": {}}, "center": true, "momentum": 0.99, "name": "batch_normalization_4"}, "name": "batch_normalization_4"}, {"class_name": "Activation", "inbound_nodes": [[["batch_normalization_4", 0, 0, {}]]], "config": {"activation": "relu", "trainable": false, "name": "activation_4"}, "name": "activation_4"}, {"class_name": "Conv2D", "inbound_nodes": [[["activation_4", 0, 0, {}]]], "config": {"activity_regularizer": null, "kernel_initializer": {"class_name": "VarianceScaling", "config": {"scale": 1.0, "mode": "fan_avg", "distribution": "uniform", "seed": null}}, "bias_constraint": null, "padding": "valid", "filters": 192, "kernel_size": [3, 3], "bias_initializer": {"class_name": "Zeros", "config": {}}, "use_bias": false, "trainable": false, "strides": [1, 1], "data_format": "channels_last", "dilation_rate": [1, 1], "bias_regularizer": null, "kernel_constraint": null, "activation": "linear", "name": "conv2d_5", "kernel_regularizer": null}, "name": "conv2d_5"}, {"class_name": "BatchNormalization", "inbound_nodes": [[["conv2d_5", 0, 0, {}]]], "config": {"scale": false, "gamma_regularizer": null, "moving_mean_initializer": {"class_name": "Zeros", "config": {}}, "gamma_constraint": null, "axis": 3, "beta_constraint": null, "beta_regularizer": null, "epsilon": 0.001, "trainable": false, "moving_variance_initializer": {"class_name": "Ones", "config": {}}, "gamma_initializer": {"class_name": "Ones", "config": {}}, "beta_initializer": {"class_name": "Zeros", "config": {}}, "center": true, "momentum": 0.99, "name": "batch_normalization_5"}, "name": "batch_normalization_5"}, {"class_name": "Activation", "inbound_nodes": [[["batch_normalization_5", 0, 0, {}]]], "config": {"activation": "relu", "trainable": false, "name": "activation_5"}, "name": "activation_5"}, {"class_name": "MaxPooling2D", "inbound_nodes": [[["activation_5", 0, 0, {}]]], "config": {"pool_size": [3, 3], "trainable": false, "name": "max_pooling2d_2", "data_format": "channels_last", "strides": [2, 2], "padding": "valid"}, "name": "max_pooling2d_2"}, {"class_name": "Conv2D", "inbound_nodes": [[["max_pooling2d_2", 0, 0, {}]]], "config": {"activity_regularizer": null, "kernel_initializer": {"class_name": "VarianceScaling", "config": {"scale": 1.0, "mode": "fan_avg", "distribution": "uniform", "seed": null}}, "bias_constraint": null, "padding": "same", "filters": 64, "kernel_size": [1, 1], "bias_initializer": {"class_name": "Zeros", "config": {}}, "use_bias": false, "trainable": false, "strides": [1, 1], "data_format": "channels_last", "dilation_rate": [1, 1], "bias_regularizer": null, "kernel_constraint": null, "activation": "linear", "name": "conv2d_9", "kernel_regularizer": null}, "name": "conv2d_9"}, {"class_name": "BatchNormalization", "inbound_nodes": [[["conv2d_9", 0, 0, {}]]], "config": {"scale": false, "gamma_regularizer": null, "moving_mean_initializer": {"class_name": "Zeros", "config": {}}, "gamma_constraint": null, "axis": 3, "beta_constraint": null, "beta_regularizer": null, "epsilon": 0.001, "trainable": false, "moving_variance_initializer": {"class_name": "Ones", "config": {}}, "gamma_initializer": {"class_name": "Ones", "config": {}}, "beta_initializer": {"class_name": "Zeros", "config": {}}, "center": true, "momentum": 0.99, "name": "batch_normalization_9"}, "name": "batch_normalization_9"}, {"class_name": "Activation", "inbound_nodes": [[["batch_normalization_9", 0, 0, {}]]], "config": {"activation": "relu", "trainable": false, "name": "activation_9"}, "name": "activation_9"}, {"class_name": "Conv2D", "inbound_nodes": [[["max_pooling2d_2", 0, 0, {}]]], "config": {"activity_regularizer": null, "kernel_initializer": {"class_name": "VarianceScaling", "config": {"scale": 1.0, "mode": "fan_avg", "distribution": "uniform", "seed": null}}, "bias_constraint": null, "padding": "same", "filters": 48, "kernel_size": [1, 1], "bias_initializer": {"class_name": "Zeros", "config": {}}, "use_bias": false, "trainable": false, "strides": [1, 1], "data_format": "channels_last", "dilation_rate": [1, 1], "bias_regularizer": null, "kernel_constraint": null, "activation": "linear", "name": "conv2d_7", "kernel_regularizer": null}, "name": "conv2d_7"}, {"class_name": "Conv2D", "inbound_nodes": [[["activation_9", 0, 0, {}]]], "config": {"activity_regularizer": null, "kernel_initializer": {"class_name": "VarianceScaling", "config": {"scale": 1.0, "mode": "fan_avg", "distribution": "uniform", "seed": null}}, "bias_constraint": null, "padding": "same", "filters": 96, "kernel_size": [3, 3], "bias_initializer": {"class_name": "Zeros", "config": {}}, "use_bias": false, "trainable": false, "strides": [1, 1], "data_format": "channels_last", "dilation_rate": [1, 1], "bias_regularizer": null, "kernel_constraint": null, "activation": "linear", "name": "conv2d_10", "kernel_regularizer": null}, "name": "conv2d_10"}, {"class_name": "BatchNormalization", "inbound_nodes": [[["conv2d_7", 0, 0, {}]]], "config": {"scale": false, "gamma_regularizer": null, "moving_mean_initializer": {"class_name": "Zeros", "config": {}}, "gamma_constraint": null, "axis": 3, "beta_constraint": null, "beta_regularizer": null, "epsilon": 0.001, "trainable": false, "moving_variance_initializer": {"class_name": "Ones", "config": {}}, "gamma_initializer": {"class_name": "Ones", "config": {}}, "beta_initializer": {"class_name": "Zeros", "config": {}}, "center": true, "momentum": 0.99, "name": "batch_normalization_7"}, "name": "batch_normalization_7"}, {"class_name": "BatchNormalization", "inbound_nodes": [[["conv2d_10", 0, 0, {}]]], "config": {"scale": false, "gamma_regularizer": null, "moving_mean_initializer": {"class_name": "Zeros", "config": {}}, "gamma_constraint": null, "axis": 3, "beta_constraint": null, "beta_regularizer": null, "epsilon": 0.001, "trainable": false, "moving_variance_initializer": {"class_name": "Ones", "config": {}}, "gamma_initializer": {"class_name": "Ones", "config": {}}, "beta_initializer": {"class_name": "Zeros", "config": {}}, "center": true, "momentum": 0.99, "name": "batch_normalization_10"}, "name": "batch_normalization_10"}, {"class_name": "Activation", "inbound_nodes": [[["batch_normalization_7", 0, 0, {}]]], "config": {"activation": "relu", "trainable": false, "name": "activation_7"}, "name": "activation_7"}, {"class_name": "Activation", "inbound_nodes": [[["batch_normalization_10", 0, 0, {}]]], "config": {"activation": "relu", "trainable": false, "name": "activation_10"}, "name": "activation_10"}, {"class_name": "AveragePooling2D", "inbound_nodes": [[["max_pooling2d_2", 0, 0, {}]]], "config": {"pool_size": [3, 3], "trainable": false, "name": "average_pooling2d_1", "data_format": "channels_last", "strides": [1, 1], "padding": "same"}, "name": "average_pooling2d_1"}, {"class_name": "Conv2D", "inbound_nodes": [[["max_pooling2d_2", 0, 0, {}]]], "config": {"activity_regularizer": null, "kernel_initializer": {"class_name": "VarianceScaling", "config": {"scale": 1.0, "mode": "fan_avg", "distribution": "uniform", "seed": null}}, "bias_constraint": null, "padding": "same", "filters": 64, "kernel_size": [1, 1], "bias_initializer": {"class_name": "Zeros", "config": {}}, "use_bias": false, "trainable": false, "strides": [1, 1], "data_format": "channels_last", "dilation_rate": [1, 1], "bias_regularizer": null, "kernel_constraint": null, "activation": "linear", "name": "conv2d_6", "kernel_regularizer": null}, "name": "conv2d_6"}, {"class_name": "Conv2D", "inbound_nodes": [[["activation_7", 0, 0, {}]]], "config": {"activity_regularizer": null, "kernel_initializer": {"class_name": "VarianceScaling", "config": {"scale": 1.0, "mode": "fan_avg", "distribution": "uniform", "seed": null}}, "bias_constraint": null, "padding": "same", "filters": 64, "kernel_size": [5, 5], "bias_initializer": {"class_name": "Zeros", "config": {}}, "use_bias": false, "trainable": false, "strides": [1, 1], "data_format": "channels_last", "dilation_rate": [1, 1], "bias_regularizer": null, "kernel_constraint": null, "activation": "linear", "name": "conv2d_8", "kernel_regularizer": null}, "name": "conv2d_8"}, {"class_name": "Conv2D", "inbound_nodes": [[["activation_10", 0, 0, {}]]], "config": {"activity_regularizer": null, "kernel_initializer": {"class_name": "VarianceScaling", "config": {"scale": 1.0, "mode": "fan_avg", "distribution": "uniform", "seed": null}}, "bias_constraint": null, "padding": "same", "filters": 96, "kernel_size": [3, 3], "bias_initializer": {"class_name": "Zeros", "config": {}}, "use_bias": false, "trainable": false, "strides": [1, 1], "data_format": "channels_last", "dilation_rate": [1, 1], "bias_regularizer": null, "kernel_constraint": null, "activation": "linear", "name": "conv2d_11", "kernel_regularizer": null}, "name": "conv2d_11"}, {"class_name": "Conv2D", "inbound_nodes": [[["average_pooling2d_1", 0, 0, {}]]], "config": {"activity_regularizer": null, "kernel_initializer": {"class_name": "VarianceScaling", "config": {"scale": 1.0, "mode": "fan_avg", "distribution": "uniform", "seed": null}}, "bias_constraint": null, "padding": "same", "filters": 32, "kernel_size": [1, 1], "bias_initializer": {"class_name": "Zeros", "config": {}}, "use_bias": false, "trainable": false, "strides": [1, 1], "data_format": "channels_last", "dilation_rate": [1, 1], "bias_regularizer": null, "kernel_constraint": null, "activation": "linear", "name": "conv2d_12", "kernel_regularizer": null}, "name": "conv2d_12"}, {"class_name": "BatchNormalization", "inbound_nodes": [[["conv2d_6", 0, 0, {}]]], "config": {"scale": false, "gamma_regularizer": null, "moving_mean_initializer": {"class_name": "Zeros", "config": {}}, "gamma_constraint": null, "axis": 3, "beta_constraint": null, "beta_regularizer": null, "epsilon": 0.001, "trainable": false, "moving_variance_initializer": {"class_name": "Ones", "config": {}}, "gamma_initializer": {"class_name": "Ones", "config": {}}, "beta_initializer": {"class_name": "Zeros", "config": {}}, "center": true, "momentum": 0.99, "name": "batch_normalization_6"}, "name": "batch_normalization_6"}, {"class_name": "BatchNormalization", "inbound_nodes": [[["conv2d_8", 0, 0, {}]]], "config": {"scale": false, "gamma_regularizer": null, "moving_mean_initializer": {"class_name": "Zeros", "config": {}}, "gamma_constraint": null, "axis": 3, "beta_constraint": null, "beta_regularizer": null, "epsilon": 0.001, "trainable": false, "moving_variance_initializer": {"class_name": "Ones", "config": {}}, "gamma_initializer": {"class_name": "Ones", "config": {}}, "beta_initializer": {"class_name": "Zeros", "config": {}}, "center": true, "momentum": 0.99, "name": "batch_normalization_8"}, "name": "batch_normalization_8"}, {"class_name": "BatchNormalization", "inbound_nodes": [[["conv2d_11", 0, 0, {}]]], "config": {"scale": false, "gamma_regularizer": null, "moving_mean_initializer": {"class_name": "Zeros", "config": {}}, "gamma_constraint": null, "axis": 3, "beta_constraint": null, "beta_regularizer": null, "epsilon": 0.001, "trainable": false, "moving_variance_initializer": {"class_name": "Ones", "config": {}}, "gamma_initializer": {"class_name": "Ones", "config": {}}, "beta_initializer": {"class_name": "Zeros", "config": {}}, "center": true, "momentum": 0.99, "name": "batch_normalization_11"}, "name": "batch_normalization_11"}, {"class_name": "BatchNormalization", "inbound_nodes": [[["conv2d_12", 0, 0, {}]]], "config": {"scale": false, "gamma_regularizer": null, "moving_mean_initializer": {"class_name": "Zeros", "config": {}}, "gamma_constraint": null, "axis": 3, "beta_constraint": null, "beta_regularizer": null, "epsilon": 0.001, "trainable": false, "moving_variance_initializer": {"class_name": "Ones", "config": {}}, "gamma_initializer": {"class_name": "Ones", "config": {}}, "beta_initializer": {"class_name": "Zeros", "config": {}}, "center": true, "momentum": 0.99, "name": "batch_normalization_12"}, "name": "batch_normalization_12"}, {"class_name": "Activation", "inbound_nodes": [[["batch_normalization_6", 0, 0, {}]]], "config": {"activation": "relu", "trainable": false, "name": "activation_6"}, "name": "activation_6"}, {"class_name": "Activation", "inbound_nodes": [[["batch_normalization_8", 0, 0, {}]]], "config": {"activation": "relu", "trainable": false, "name": "activation_8"}, "name": "activation_8"}, {"class_name": "Activation", "inbound_nodes": [[["batch_normalization_11", 0, 0, {}]]], "config": {"activation": "relu", "trainable": false, "name": "activation_11"}, "name": "activation_11"}, {"class_name": "Activation", "inbound_nodes": [[["batch_normalization_12", 0, 0, {}]]], "config": {"activation": "relu", "trainable": false, "name": "activation_12"}, "name": "activation_12"}, {"class_name": "Concatenate", "inbound_nodes": [[["activation_6", 0, 0, {}], ["activation_8", 0, 0, {}], ["activation_11", 0, 0, {}], ["activation_12", 0, 0, {}]]], "config": {"axis": 3, "trainable": false, "name": "mixed0"}, "name": "mixed0"}, {"class_name": "Conv2D", "inbound_nodes": [[["mixed0", 0, 0, {}]]], "config": {"activity_regularizer": null, "kernel_initializer": {"class_name": "VarianceScaling", "config": {"scale": 1.0, "mode": "fan_avg", "distribution": "uniform", "seed": null}}, "bias_constraint": null, "padding": "same", "filters": 64, "kernel_size": [1, 1], "bias_initializer": {"class_name": "Zeros", "config": {}}, "use_bias": false, "trainable": false, "strides": [1, 1], "data_format": "channels_last", "dilation_rate": [1, 1], "bias_regularizer": null, "kernel_constraint": null, "activation": "linear", "name": "conv2d_16", "kernel_regularizer": null}, "name": "conv2d_16"}, {"class_name": "BatchNormalization", "inbound_nodes": [[["conv2d_16", 0, 0, {}]]], "config": {"scale": false, "gamma_regularizer": null, "moving_mean_initializer": {"class_name": "Zeros", "config": {}}, "gamma_constraint": null, "axis": 3, "beta_constraint": null, "beta_regularizer": null, "epsilon": 0.001, "trainable": false, "moving_variance_initializer": {"class_name": "Ones", "config": {}}, "gamma_initializer": {"class_name": "Ones", "config": {}}, "beta_initializer": {"class_name": "Zeros", "config": {}}, "center": true, "momentum": 0.99, "name": "batch_normalization_16"}, "name": "batch_normalization_16"}, {"class_name": "Activation", "inbound_nodes": [[["batch_normalization_16", 0, 0, {}]]], "config": {"activation": "relu", "trainable": false, "name": "activation_16"}, "name": "activation_16"}, {"class_name": "Conv2D", "inbound_nodes": [[["mixed0", 0, 0, {}]]], "config": {"activity_regularizer": null, "kernel_initializer": {"class_name": "VarianceScaling", "config": {"scale": 1.0, "mode": "fan_avg", "distribution": "uniform", "seed": null}}, "bias_constraint": null, "padding": "same", "filters": 48, "kernel_size": [1, 1], "bias_initializer": {"class_name": "Zeros", "config": {}}, "use_bias": false, "trainable": false, "strides": [1, 1], "data_format": "channels_last", "dilation_rate": [1, 1], "bias_regularizer": null, "kernel_constraint": null, "activation": "linear", "name": "conv2d_14", "kernel_regularizer": null}, "name": "conv2d_14"}, {"class_name": "Conv2D", "inbound_nodes": [[["activation_16", 0, 0, {}]]], "config": {"activity_regularizer": null, "kernel_initializer": {"class_name": "VarianceScaling", "config": {"scale": 1.0, "mode": "fan_avg", "distribution": "uniform", "seed": null}}, "bias_constraint": null, "padding": "same", "filters": 96, "kernel_size": [3, 3], "bias_initializer": {"class_name": "Zeros", "config": {}}, "use_bias": false, "trainable": false, "strides": [1, 1], "data_format": "channels_last", "dilation_rate": [1, 1], "bias_regularizer": null, "kernel_constraint": null, "activation": "linear", "name": "conv2d_17", "kernel_regularizer": null}, "name": "conv2d_17"}, {"class_name": "BatchNormalization", "inbound_nodes": [[["conv2d_14", 0, 0, {}]]], "config": {"scale": false, "gamma_regularizer": null, "moving_mean_initializer": {"class_name": "Zeros", "config": {}}, "gamma_constraint": null, "axis": 3, "beta_constraint": null, "beta_regularizer": null, "epsilon": 0.001, "trainable": false, "moving_variance_initializer": {"class_name": "Ones", "config": {}}, "gamma_initializer": {"class_name": "Ones", "config": {}}, "beta_initializer": {"class_name": "Zeros", "config": {}}, "center": true, "momentum": 0.99, "name": "batch_normalization_14"}, "name": "batch_normalization_14"}, {"class_name": "BatchNormalization", "inbound_nodes": [[["conv2d_17", 0, 0, {}]]], "config": {"scale": false, "gamma_regularizer": null, "moving_mean_initializer": {"class_name": "Zeros", "config": {}}, "gamma_constraint": null, "axis": 3, "beta_constraint": null, "beta_regularizer": null, "epsilon": 0.001, "trainable": false, "moving_variance_initializer": {"class_name": "Ones", "config": {}}, "gamma_initializer": {"class_name": "Ones", "config": {}}, "beta_initializer": {"class_name": "Zeros", "config": {}}, "center": true, "momentum": 0.99, "name": "batch_normalization_17"}, "name": "batch_normalization_17"}, {"class_name": "Activation", "inbound_nodes": [[["batch_normalization_14", 0, 0, {}]]], "config": {"activation": "relu", "trainable": false, "name": "activation_14"}, "name": "activation_14"}, {"class_name": "Activation", "inbound_nodes": [[["batch_normalization_17", 0, 0, {}]]], "config": {"activation": "relu", "trainable": false, "name": "activation_17"}, "name": "activation_17"}, {"class_name": "AveragePooling2D", "inbound_nodes": [[["mixed0", 0, 0, {}]]], "config": {"pool_size": [3, 3], "trainable": false, "name": "average_pooling2d_2", "data_format": "channels_last", "strides": [1, 1], "padding": "same"}, "name": "average_pooling2d_2"}, {"class_name": "Conv2D", "inbound_nodes": [[["mixed0", 0, 0, {}]]], "config": {"activity_regularizer": null, "kernel_initializer": {"class_name": "VarianceScaling", "config": {"scale": 1.0, "mode": "fan_avg", "distribution": "uniform", "seed": null}}, "bias_constraint": null, "padding": "same", "filters": 64, "kernel_size": [1, 1], "bias_initializer": {"class_name": "Zeros", "config": {}}, "use_bias": false, "trainable": false, "strides": [1, 1], "data_format": "channels_last", "dilation_rate": [1, 1], "bias_regularizer": null, "kernel_constraint": null, "activation": "linear", "name": "conv2d_13", "kernel_regularizer": null}, "name": "conv2d_13"}, {"class_name": "Conv2D", "inbound_nodes": [[["activation_14", 0, 0, {}]]], "config": {"activity_regularizer": null, "kernel_initializer": {"class_name": "VarianceScaling", "config": {"scale": 1.0, "mode": "fan_avg", "distribution": "uniform", "seed": null}}, "bias_constraint": null, "padding": "same", "filters": 64, "kernel_size": [5, 5], "bias_initializer": {"class_name": "Zeros", "config": {}}, "use_bias": false, "trainable": false, "strides": [1, 1], "data_format": "channels_last", "dilation_rate": [1, 1], "bias_regularizer": null, "kernel_constraint": null, "activation": "linear", "name": "conv2d_15", "kernel_regularizer": null}, "name": "conv2d_15"}, {"class_name": "Conv2D", "inbound_nodes": [[["activation_17", 0, 0, {}]]], "config": {"activity_regularizer": null, "kernel_initializer": {"class_name": "VarianceScaling", "config": {"scale": 1.0, "mode": "fan_avg", "distribution": "uniform", "seed": null}}, "bias_constraint": null, "padding": "same", "filters": 96, "kernel_size": [3, 3], "bias_initializer": {"class_name": "Zeros", "config": {}}, "use_bias": false, "trainable": false, "strides": [1, 1], "data_format": "channels_last", "dilation_rate": [1, 1], "bias_regularizer": null, "kernel_constraint": null, "activation": "linear", "name": "conv2d_18", "kernel_regularizer": null}, "name": "conv2d_18"}, {"class_name": "Conv2D", "inbound_nodes": [[["average_pooling2d_2", 0, 0, {}]]], "config": {"activity_regularizer": null, "kernel_initializer": {"class_name": "VarianceScaling", "config": {"scale": 1.0, "mode": "fan_avg", "distribution": "uniform", "seed": null}}, "bias_constraint": null, "padding": "same", "filters": 64, "kernel_size": [1, 1], "bias_initializer": {"class_name": "Zeros", "config": {}}, "use_bias": false, "trainable": false, "strides": [1, 1], "data_format": "channels_last", "dilation_rate": [1, 1], "bias_regularizer": null, "kernel_constraint": null, "activation": "linear", "name": "conv2d_19", "kernel_regularizer": null}, "name": "conv2d_19"}, {"class_name": "BatchNormalization", "inbound_nodes": [[["conv2d_13", 0, 0, {}]]], "config": {"scale": false, "gamma_regularizer": null, "moving_mean_initializer": {"class_name": "Zeros", "config": {}}, "gamma_constraint": null, "axis": 3, "beta_constraint": null, "beta_regularizer": null, "epsilon": 0.001, "trainable": false, "moving_variance_initializer": {"class_name": "Ones", "config": {}}, "gamma_initializer": {"class_name": "Ones", "config": {}}, "beta_initializer": {"class_name": "Zeros", "config": {}}, "center": true, "momentum": 0.99, "name": "batch_normalization_13"}, "name": "batch_normalization_13"}, {"class_name": "BatchNormalization", "inbound_nodes": [[["conv2d_15", 0, 0, {}]]], "config": {"scale": false, "gamma_regularizer": null, "moving_mean_initializer": {"class_name": "Zeros", "config": {}}, "gamma_constraint": null, "axis": 3, "beta_constraint": null, "beta_regularizer": null, "epsilon": 0.001, "trainable": false, "moving_variance_initializer": {"class_name": "Ones", "config": {}}, "gamma_initializer": {"class_name": "Ones", "config": {}}, "beta_initializer": {"class_name": "Zeros", "config": {}}, "center": true, "momentum": 0.99, "name": "batch_normalization_15"}, "name": "batch_normalization_15"}, {"class_name": "BatchNormalization", "inbound_nodes": [[["conv2d_18", 0, 0, {}]]], "config": {"scale": false, "gamma_regularizer": null, "moving_mean_initializer": {"class_name": "Zeros", "config": {}}, "gamma_constraint": null, "axis": 3, "beta_constraint": null, "beta_regularizer": null, "epsilon": 0.001, "trainable": false, "moving_variance_initializer": {"class_name": "Ones", "config": {}}, "gamma_initializer": {"class_name": "Ones", "config": {}}, "beta_initializer": {"class_name": "Zeros", "config": {}}, "center": true, "momentum": 0.99, "name": "batch_normalization_18"}, "name": "batch_normalization_18"}, {"class_name": "BatchNormalization", "inbound_nodes": [[["conv2d_19", 0, 0, {}]]], "config": {"scale": false, "gamma_regularizer": null, "moving_mean_initializer": {"class_name": "Zeros", "config": {}}, "gamma_constraint": null, "axis": 3, "beta_constraint": null, "beta_regularizer": null, "epsilon": 0.001, "trainable": false, "moving_variance_initializer": {"class_name": "Ones", "config": {}}, "gamma_initializer": {"class_name": "Ones", "config": {}}, "beta_initializer": {"class_name": "Zeros", "config": {}}, "center": true, "momentum": 0.99, "name": "batch_normalization_19"}, "name": "batch_normalization_19"}, {"class_name": "Activation", "inbound_nodes": [[["batch_normalization_13", 0, 0, {}]]], "config": {"activation": "relu", "trainable": false, "name": "activation_13"}, "name": "activation_13"}, {"class_name": "Activation", "inbound_nodes": [[["batch_normalization_15", 0, 0, {}]]], "config": {"activation": "relu", "trainable": false, "name": "activation_15"}, "name": "activation_15"}, {"class_name": "Activation", "inbound_nodes": [[["batch_normalization_18", 0, 0, {}]]], "config": {"activation": "relu", "trainable": false, "name": "activation_18"}, "name": "activation_18"}, {"class_name": "Activation", "inbound_nodes": [[["batch_normalization_19", 0, 0, {}]]], "config": {"activation": "relu", "trainable": false, "name": "activation_19"}, "name": "activation_19"}, {"class_name": "Concatenate", "inbound_nodes": [[["activation_13", 0, 0, {}], ["activation_15", 0, 0, {}], ["activation_18", 0, 0, {}], ["activation_19", 0, 0, {}]]], "config": {"axis": 3, "trainable": false, "name": "mixed1"}, "name": "mixed1"}, {"class_name": "Conv2D", "inbound_nodes": [[["mixed1", 0, 0, {}]]], "config": {"activity_regularizer": null, "kernel_initializer": {"class_name": "VarianceScaling", "config": {"scale": 1.0, "mode": "fan_avg", "distribution": "uniform", "seed": null}}, "bias_constraint": null, "padding": "same", "filters": 64, "kernel_size": [1, 1], "bias_initializer": {"class_name": "Zeros", "config": {}}, "use_bias": false, "trainable": false, "strides": [1, 1], "data_format": "channels_last", "dilation_rate": [1, 1], "bias_regularizer": null, "kernel_constraint": null, "activation": "linear", "name": "conv2d_23", "kernel_regularizer": null}, "name": "conv2d_23"}, {"class_name": "BatchNormalization", "inbound_nodes": [[["conv2d_23", 0, 0, {}]]], "config": {"scale": false, "gamma_regularizer": null, "moving_mean_initializer": {"class_name": "Zeros", "config": {}}, "gamma_constraint": null, "axis": 3, "beta_constraint": null, "beta_regularizer": null, "epsilon": 0.001, "trainable": false, "moving_variance_initializer": {"class_name": "Ones", "config": {}}, "gamma_initializer": {"class_name": "Ones", "config": {}}, "beta_initializer": {"class_name": "Zeros", "config": {}}, "center": true, "momentum": 0.99, "name": "batch_normalization_23"}, "name": "batch_normalization_23"}, {"class_name": "Activation", "inbound_nodes": [[["batch_normalization_23", 0, 0, {}]]], "config": {"activation": "relu", "trainable": false, "name": "activation_23"}, "name": "activation_23"}, {"class_name": "Conv2D", "inbound_nodes": [[["mixed1", 0, 0, {}]]], "config": {"activity_regularizer": null, "kernel_initializer": {"class_name": "VarianceScaling", "config": {"scale": 1.0, "mode": "fan_avg", "distribution": "uniform", "seed": null}}, "bias_constraint": null, "padding": "same", "filters": 48, "kernel_size": [1, 1], "bias_initializer": {"class_name": "Zeros", "config": {}}, "use_bias": false, "trainable": false, "strides": [1, 1], "data_format": "channels_last", "dilation_rate": [1, 1], "bias_regularizer": null, "kernel_constraint": null, "activation": "linear", "name": "conv2d_21", "kernel_regularizer": null}, "name": "conv2d_21"}, {"class_name": "Conv2D", "inbound_nodes": [[["activation_23", 0, 0, {}]]], "config": {"activity_regularizer": null, "kernel_initializer": {"class_name": "VarianceScaling", "config": {"scale": 1.0, "mode": "fan_avg", "distribution": "uniform", "seed": null}}, "bias_constraint": null, "padding": "same", "filters": 96, "kernel_size": [3, 3], "bias_initializer": {"class_name": "Zeros", "config": {}}, "use_bias": false, "trainable": false, "strides": [1, 1], "data_format": "channels_last", "dilation_rate": [1, 1], "bias_regularizer": null, "kernel_constraint": null, "activation": "linear", "name": "conv2d_24", "kernel_regularizer": null}, "name": "conv2d_24"}, {"class_name": "BatchNormalization", "inbound_nodes": [[["conv2d_21", 0, 0, {}]]], "config": {"scale": false, "gamma_regularizer": null, "moving_mean_initializer": {"class_name": "Zeros", "config": {}}, "gamma_constraint": null, "axis": 3, "beta_constraint": null, "beta_regularizer": null, "epsilon": 0.001, "trainable": false, "moving_variance_initializer": {"class_name": "Ones", "config": {}}, "gamma_initializer": {"class_name": "Ones", "config": {}}, "beta_initializer": {"class_name": "Zeros", "config": {}}, "center": true, "momentum": 0.99, "name": "batch_normalization_21"}, "name": "batch_normalization_21"}, {"class_name": "BatchNormalization", "inbound_nodes": [[["conv2d_24", 0, 0, {}]]], "config": {"scale": false, "gamma_regularizer": null, "moving_mean_initializer": {"class_name": "Zeros", "config": {}}, "gamma_constraint": null, "axis": 3, "beta_constraint": null, "beta_regularizer": null, "epsilon": 0.001, "trainable": false, "moving_variance_initializer": {"class_name": "Ones", "config": {}}, "gamma_initializer": {"class_name": "Ones", "config": {}}, "beta_initializer": {"class_name": "Zeros", "config": {}}, "center": true, "momentum": 0.99, "name": "batch_normalization_24"}, "name": "batch_normalization_24"}, {"class_name": "Activation", "inbound_nodes": [[["batch_normalization_21", 0, 0, {}]]], "config": {"activation": "relu", "trainable": false, "name": "activation_21"}, "name": "activation_21"}, {"class_name": "Activation", "inbound_nodes": [[["batch_normalization_24", 0, 0, {}]]], "config": {"activation": "relu", "trainable": false, "name": "activation_24"}, "name": "activation_24"}, {"class_name": "AveragePooling2D", "inbound_nodes": [[["mixed1", 0, 0, {}]]], "config": {"pool_size": [3, 3], "trainable": false, "name": "average_pooling2d_3", "data_format": "channels_last", "strides": [1, 1], "padding": "same"}, "name": "average_pooling2d_3"}, {"class_name": "Conv2D", "inbound_nodes": [[["mixed1", 0, 0, {}]]], "config": {"activity_regularizer": null, "kernel_initializer": {"class_name": "VarianceScaling", "config": {"scale": 1.0, "mode": "fan_avg", "distribution": "uniform", "seed": null}}, "bias_constraint": null, "padding": "same", "filters": 64, "kernel_size": [1, 1], "bias_initializer": {"class_name": "Zeros", "config": {}}, "use_bias": false, "trainable": false, "strides": [1, 1], "data_format": "channels_last", "dilation_rate": [1, 1], "bias_regularizer": null, "kernel_constraint": null, "activation": "linear", "name": "conv2d_20", "kernel_regularizer": null}, "name": "conv2d_20"}, {"class_name": "Conv2D", "inbound_nodes": [[["activation_21", 0, 0, {}]]], "config": {"activity_regularizer": null, "kernel_initializer": {"class_name": "VarianceScaling", "config": {"scale": 1.0, "mode": "fan_avg", "distribution": "uniform", "seed": null}}, "bias_constraint": null, "padding": "same", "filters": 64, "kernel_size": [5, 5], "bias_initializer": {"class_name": "Zeros", "config": {}}, "use_bias": false, "trainable": false, "strides": [1, 1], "data_format": "channels_last", "dilation_rate": [1, 1], "bias_regularizer": null, "kernel_constraint": null, "activation": "linear", "name": "conv2d_22", "kernel_regularizer": null}, "name": "conv2d_22"}, {"class_name": "Conv2D", "inbound_nodes": [[["activation_24", 0, 0, {}]]], "config": {"activity_regularizer": null, "kernel_initializer": {"class_name": "VarianceScaling", "config": {"scale": 1.0, "mode": "fan_avg", "distribution": "uniform", "seed": null}}, "bias_constraint": null, "padding": "same", "filters": 96, "kernel_size": [3, 3], "bias_initializer": {"class_name": "Zeros", "config": {}}, "use_bias": false, "trainable": false, "strides": [1, 1], "data_format": "channels_last", "dilation_rate": [1, 1], "bias_regularizer": null, "kernel_constraint": null, "activation": "linear", "name": "conv2d_25", "kernel_regularizer": null}, "name": "conv2d_25"}, {"class_name": "Conv2D", "inbound_nodes": [[["average_pooling2d_3", 0, 0, {}]]], "config": {"activity_regularizer": null, "kernel_initializer": {"class_name": "VarianceScaling", "config": {"scale": 1.0, "mode": "fan_avg", "distribution": "uniform", "seed": null}}, "bias_constraint": null, "padding": "same", "filters": 64, "kernel_size": [1, 1], "bias_initializer": {"class_name": "Zeros", "config": {}}, "use_bias": false, "trainable": false, "strides": [1, 1], "data_format": "channels_last", "dilation_rate": [1, 1], "bias_regularizer": null, "kernel_constraint": null, "activation": "linear", "name": "conv2d_26", "kernel_regularizer": null}, "name": "conv2d_26"}, {"class_name": "BatchNormalization", "inbound_nodes": [[["conv2d_20", 0, 0, {}]]], "config": {"scale": false, "gamma_regularizer": null, "moving_mean_initializer": {"class_name": "Zeros", "config": {}}, "gamma_constraint": null, "axis": 3, "beta_constraint": null, "beta_regularizer": null, "epsilon": 0.001, "trainable": false, "moving_variance_initializer": {"class_name": "Ones", "config": {}}, "gamma_initializer": {"class_name": "Ones", "config": {}}, "beta_initializer": {"class_name": "Zeros", "config": {}}, "center": true, "momentum": 0.99, "name": "batch_normalization_20"}, "name": "batch_normalization_20"}, {"class_name": "BatchNormalization", "inbound_nodes": [[["conv2d_22", 0, 0, {}]]], "config": {"scale": false, "gamma_regularizer": null, "moving_mean_initializer": {"class_name": "Zeros", "config": {}}, "gamma_constraint": null, "axis": 3, "beta_constraint": null, "beta_regularizer": null, "epsilon": 0.001, "trainable": false, "moving_variance_initializer": {"class_name": "Ones", "config": {}}, "gamma_initializer": {"class_name": "Ones", "config": {}}, "beta_initializer": {"class_name": "Zeros", "config": {}}, "center": true, "momentum": 0.99, "name": "batch_normalization_22"}, "name": "batch_normalization_22"}, {"class_name": "BatchNormalization", "inbound_nodes": [[["conv2d_25", 0, 0, {}]]], "config": {"scale": false, "gamma_regularizer": null, "moving_mean_initializer": {"class_name": "Zeros", "config": {}}, "gamma_constraint": null, "axis": 3, "beta_constraint": null, "beta_regularizer": null, "epsilon": 0.001, "trainable": false, "moving_variance_initializer": {"class_name": "Ones", "config": {}}, "gamma_initializer": {"class_name": "Ones", "config": {}}, "beta_initializer": {"class_name": "Zeros", "config": {}}, "center": true, "momentum": 0.99, "name": "batch_normalization_25"}, "name": "batch_normalization_25"}, {"class_name": "BatchNormalization", "inbound_nodes": [[["conv2d_26", 0, 0, {}]]], "config": {"scale": false, "gamma_regularizer": null, "moving_mean_initializer": {"class_name": "Zeros", "config": {}}, "gamma_constraint": null, "axis": 3, "beta_constraint": null, "beta_regularizer": null, "epsilon": 0.001, "trainable": false, "moving_variance_initializer": {"class_name": "Ones", "config": {}}, "gamma_initializer": {"class_name": "Ones", "config": {}}, "beta_initializer": {"class_name": "Zeros", "config": {}}, "center": true, "momentum": 0.99, "name": "batch_normalization_26"}, "name": "batch_normalization_26"}, {"class_name": "Activation", "inbound_nodes": [[["batch_normalization_20", 0, 0, {}]]], "config": {"activation": "relu", "trainable": false, "name": "activation_20"}, "name": "activation_20"}, {"class_name": "Activation", "inbound_nodes": [[["batch_normalization_22", 0, 0, {}]]], "config": {"activation": "relu", "trainable": false, "name": "activation_22"}, "name": "activation_22"}, {"class_name": "Activation", "inbound_nodes": [[["batch_normalization_25", 0, 0, {}]]], "config": {"activation": "relu", "trainable": false, "name": "activation_25"}, "name": "activation_25"}, {"class_name": "Activation", "inbound_nodes": [[["batch_normalization_26", 0, 0, {}]]], "config": {"activation": "relu", "trainable": false, "name": "activation_26"}, "name": "activation_26"}, {"class_name": "Concatenate", "inbound_nodes": [[["activation_20", 0, 0, {}], ["activation_22", 0, 0, {}], ["activation_25", 0, 0, {}], ["activation_26", 0, 0, {}]]], "config": {"axis": 3, "trainable": false, "name": "mixed2"}, "name": "mixed2"}, {"class_name": "Conv2D", "inbound_nodes": [[["mixed2", 0, 0, {}]]], "config": {"activity_regularizer": null, "kernel_initializer": {"class_name": "VarianceScaling", "config": {"scale": 1.0, "mode": "fan_avg", "distribution": "uniform", "seed": null}}, "bias_constraint": null, "padding": "same", "filters": 64, "kernel_size": [1, 1], "bias_initializer": {"class_name": "Zeros", "config": {}}, "use_bias": false, "trainable": false, "strides": [1, 1], "data_format": "channels_last", "dilation_rate": [1, 1], "bias_regularizer": null, "kernel_constraint": null, "activation": "linear", "name": "conv2d_28", "kernel_regularizer": null}, "name": "conv2d_28"}, {"class_name": "BatchNormalization", "inbound_nodes": [[["conv2d_28", 0, 0, {}]]], "config": {"scale": false, "gamma_regularizer": null, "moving_mean_initializer": {"class_name": "Zeros", "config": {}}, "gamma_constraint": null, "axis": 3, "beta_constraint": null, "beta_regularizer": null, "epsilon": 0.001, "trainable": false, "moving_variance_initializer": {"class_name": "Ones", "config": {}}, "gamma_initializer": {"class_name": "Ones", "config": {}}, "beta_initializer": {"class_name": "Zeros", "config": {}}, "center": true, "momentum": 0.99, "name": "batch_normalization_28"}, "name": "batch_normalization_28"}, {"class_name": "Activation", "inbound_nodes": [[["batch_normalization_28", 0, 0, {}]]], "config": {"activation": "relu", "trainable": false, "name": "activation_28"}, "name": "activation_28"}, {"class_name": "Conv2D", "inbound_nodes": [[["activation_28", 0, 0, {}]]], "config": {"activity_regularizer": null, "kernel_initializer": {"class_name": "VarianceScaling", "config": {"scale": 1.0, "mode": "fan_avg", "distribution": "uniform", "seed": null}}, "bias_constraint": null, "padding": "same", "filters": 96, "kernel_size": [3, 3], "bias_initializer": {"class_name": "Zeros", "config": {}}, "use_bias": false, "trainable": false, "strides": [1, 1], "data_format": "channels_last", "dilation_rate": [1, 1], "bias_regularizer": null, "kernel_constraint": null, "activation": "linear", "name": "conv2d_29", "kernel_regularizer": null}, "name": "conv2d_29"}, {"class_name": "BatchNormalization", "inbound_nodes": [[["conv2d_29", 0, 0, {}]]], "config": {"scale": false, "gamma_regularizer": null, "moving_mean_initializer": {"class_name": "Zeros", "config": {}}, "gamma_constraint": null, "axis": 3, "beta_constraint": null, "beta_regularizer": null, "epsilon": 0.001, "trainable": false, "moving_variance_initializer": {"class_name": "Ones", "config": {}}, "gamma_initializer": {"class_name": "Ones", "config": {}}, "beta_initializer": {"class_name": "Zeros", "config": {}}, "center": true, "momentum": 0.99, "name": "batch_normalization_29"}, "name": "batch_normalization_29"}, {"class_name": "Activation", "inbound_nodes": [[["batch_normalization_29", 0, 0, {}]]], "config": {"activation": "relu", "trainable": false, "name": "activation_29"}, "name": "activation_29"}, {"class_name": "Conv2D", "inbound_nodes": [[["mixed2", 0, 0, {}]]], "config": {"activity_regularizer": null, "kernel_initializer": {"class_name": "VarianceScaling", "config": {"scale": 1.0, "mode": "fan_avg", "distribution": "uniform", "seed": null}}, "bias_constraint": null, "padding": "valid", "filters": 384, "kernel_size": [3, 3], "bias_initializer": {"class_name": "Zeros", "config": {}}, "use_bias": false, "trainable": false, "strides": [2, 2], "data_format": "channels_last", "dilation_rate": [1, 1], "bias_regularizer": null, "kernel_constraint": null, "activation": "linear", "name": "conv2d_27", "kernel_regularizer": null}, "name": "conv2d_27"}, {"class_name": "Conv2D", "inbound_nodes": [[["activation_29", 0, 0, {}]]], "config": {"activity_regularizer": null, "kernel_initializer": {"class_name": "VarianceScaling", "config": {"scale": 1.0, "mode": "fan_avg", "distribution": "uniform", "seed": null}}, "bias_constraint": null, "padding": "valid", "filters": 96, "kernel_size": [3, 3], "bias_initializer": {"class_name": "Zeros", "config": {}}, "use_bias": false, "trainable": false, "strides": [2, 2], "data_format": "channels_last", "dilation_rate": [1, 1], "bias_regularizer": null, "kernel_constraint": null, "activation": "linear", "name": "conv2d_30", "kernel_regularizer": null}, "name": "conv2d_30"}, {"class_name": "BatchNormalization", "inbound_nodes": [[["conv2d_27", 0, 0, {}]]], "config": {"scale": false, "gamma_regularizer": null, "moving_mean_initializer": {"class_name": "Zeros", "config": {}}, "gamma_constraint": null, "axis": 3, "beta_constraint": null, "beta_regularizer": null, "epsilon": 0.001, "trainable": false, "moving_variance_initializer": {"class_name": "Ones", "config": {}}, "gamma_initializer": {"class_name": "Ones", "config": {}}, "beta_initializer": {"class_name": "Zeros", "config": {}}, "center": true, "momentum": 0.99, "name": "batch_normalization_27"}, "name": "batch_normalization_27"}, {"class_name": "BatchNormalization", "inbound_nodes": [[["conv2d_30", 0, 0, {}]]], "config": {"scale": false, "gamma_regularizer": null, "moving_mean_initializer": {"class_name": "Zeros", "config": {}}, "gamma_constraint": null, "axis": 3, "beta_constraint": null, "beta_regularizer": null, "epsilon": 0.001, "trainable": false, "moving_variance_initializer": {"class_name": "Ones", "config": {}}, "gamma_initializer": {"class_name": "Ones", "config": {}}, "beta_initializer": {"class_name": "Zeros", "config": {}}, "center": true, "momentum": 0.99, "name": "batch_normalization_30"}, "name": "batch_normalization_30"}, {"class_name": "Activation", "inbound_nodes": [[["batch_normalization_27", 0, 0, {}]]], "config": {"activation": "relu", "trainable": false, "name": "activation_27"}, "name": "activation_27"}, {"class_name": "Activation", "inbound_nodes": [[["batch_normalization_30", 0, 0, {}]]], "config": {"activation": "relu", "trainable": false, "name": "activation_30"}, "name": "activation_30"}, {"class_name": "MaxPooling2D", "inbound_nodes": [[["mixed2", 0, 0, {}]]], "config": {"pool_size": [3, 3], "trainable": false, "name": "max_pooling2d_3", "data_format": "channels_last", "strides": [2, 2], "padding": "valid"}, "name": "max_pooling2d_3"}, {"class_name": "Concatenate", "inbound_nodes": [[["activation_27", 0, 0, {}], ["activation_30", 0, 0, {}], ["max_pooling2d_3", 0, 0, {}]]], "config": {"axis": 3, "trainable": false, "name": "mixed3"}, "name": "mixed3"}, {"class_name": "Conv2D", "inbound_nodes": [[["mixed3", 0, 0, {}]]], "config": {"activity_regularizer": null, "kernel_initializer": {"class_name": "VarianceScaling", "config": {"scale": 1.0, "mode": "fan_avg", "distribution": "uniform", "seed": null}}, "bias_constraint": null, "padding": "same", "filters": 128, "kernel_size": [1, 1], "bias_initializer": {"class_name": "Zeros", "config": {}}, "use_bias": false, "trainable": false, "strides": [1, 1], "data_format": "channels_last", "dilation_rate": [1, 1], "bias_regularizer": null, "kernel_constraint": null, "activation": "linear", "name": "conv2d_35", "kernel_regularizer": null}, "name": "conv2d_35"}, {"class_name": "BatchNormalization", "inbound_nodes": [[["conv2d_35", 0, 0, {}]]], "config": {"scale": false, "gamma_regularizer": null, "moving_mean_initializer": {"class_name": "Zeros", "config": {}}, "gamma_constraint": null, "axis": 3, "beta_constraint": null, "beta_regularizer": null, "epsilon": 0.001, "trainable": false, "moving_variance_initializer": {"class_name": "Ones", "config": {}}, "gamma_initializer": {"class_name": "Ones", "config": {}}, "beta_initializer": {"class_name": "Zeros", "config": {}}, "center": true, "momentum": 0.99, "name": "batch_normalization_35"}, "name": "batch_normalization_35"}, {"class_name": "Activation", "inbound_nodes": [[["batch_normalization_35", 0, 0, {}]]], "config": {"activation": "relu", "trainable": false, "name": "activation_35"}, "name": "activation_35"}, {"class_name": "Conv2D", "inbound_nodes": [[["activation_35", 0, 0, {}]]], "config": {"activity_regularizer": null, "kernel_initializer": {"class_name": "VarianceScaling", "config": {"scale": 1.0, "mode": "fan_avg", "distribution": "uniform", "seed": null}}, "bias_constraint": null, "padding": "same", "filters": 128, "kernel_size": [7, 1], "bias_initializer": {"class_name": "Zeros", "config": {}}, "use_bias": false, "trainable": false, "strides": [1, 1], "data_format": "channels_last", "dilation_rate": [1, 1], "bias_regularizer": null, "kernel_constraint": null, "activation": "linear", "name": "conv2d_36", "kernel_regularizer": null}, "name": "conv2d_36"}, {"class_name": "BatchNormalization", "inbound_nodes": [[["conv2d_36", 0, 0, {}]]], "config": {"scale": false, "gamma_regularizer": null, "moving_mean_initializer": {"class_name": "Zeros", "config": {}}, "gamma_constraint": null, "axis": 3, "beta_constraint": null, "beta_regularizer": null, "epsilon": 0.001, "trainable": false, "moving_variance_initializer": {"class_name": "Ones", "config": {}}, "gamma_initializer": {"class_name": "Ones", "config": {}}, "beta_initializer": {"class_name": "Zeros", "config": {}}, "center": true, "momentum": 0.99, "name": "batch_normalization_36"}, "name": "batch_normalization_36"}, {"class_name": "Activation", "inbound_nodes": [[["batch_normalization_36", 0, 0, {}]]], "config": {"activation": "relu", "trainable": false, "name": "activation_36"}, "name": "activation_36"}, {"class_name": "Conv2D", "inbound_nodes": [[["mixed3", 0, 0, {}]]], "config": {"activity_regularizer": null, "kernel_initializer": {"class_name": "VarianceScaling", "config": {"scale": 1.0, "mode": "fan_avg", "distribution": "uniform", "seed": null}}, "bias_constraint": null, "padding": "same", "filters": 128, "kernel_size": [1, 1], "bias_initializer": {"class_name": "Zeros", "config": {}}, "use_bias": false, "trainable": false, "strides": [1, 1], "data_format": "channels_last", "dilation_rate": [1, 1], "bias_regularizer": null, "kernel_constraint": null, "activation": "linear", "name": "conv2d_32", "kernel_regularizer": null}, "name": "conv2d_32"}, {"class_name": "Conv2D", "inbound_nodes": [[["activation_36", 0, 0, {}]]], "config": {"activity_regularizer": null, "kernel_initializer": {"class_name": "VarianceScaling", "config": {"scale": 1.0, "mode": "fan_avg", "distribution": "uniform", "seed": null}}, "bias_constraint": null, "padding": "same", "filters": 128, "kernel_size": [1, 7], "bias_initializer": {"class_name": "Zeros", "config": {}}, "use_bias": false, "trainable": false, "strides": [1, 1], "data_format": "channels_last", "dilation_rate": [1, 1], "bias_regularizer": null, "kernel_constraint": null, "activation": "linear", "name": "conv2d_37", "kernel_regularizer": null}, "name": "conv2d_37"}, {"class_name": "BatchNormalization", "inbound_nodes": [[["conv2d_32", 0, 0, {}]]], "config": {"scale": false, "gamma_regularizer": null, "moving_mean_initializer": {"class_name": "Zeros", "config": {}}, "gamma_constraint": null, "axis": 3, "beta_constraint": null, "beta_regularizer": null, "epsilon": 0.001, "trainable": false, "moving_variance_initializer": {"class_name": "Ones", "config": {}}, "gamma_initializer": {"class_name": "Ones", "config": {}}, "beta_initializer": {"class_name": "Zeros", "config": {}}, "center": true, "momentum": 0.99, "name": "batch_normalization_32"}, "name": "batch_normalization_32"}, {"class_name": "BatchNormalization", "inbound_nodes": [[["conv2d_37", 0, 0, {}]]], "config": {"scale": false, "gamma_regularizer": null, "moving_mean_initializer": {"class_name": "Zeros", "config": {}}, "gamma_constraint": null, "axis": 3, "beta_constraint": null, "beta_regularizer": null, "epsilon": 0.001, "trainable": false, "moving_variance_initializer": {"class_name": "Ones", "config": {}}, "gamma_initializer": {"class_name": "Ones", "config": {}}, "beta_initializer": {"class_name": "Zeros", "config": {}}, "center": true, "momentum": 0.99, "name": "batch_normalization_37"}, "name": "batch_normalization_37"}, {"class_name": "Activation", "inbound_nodes": [[["batch_normalization_32", 0, 0, {}]]], "config": {"activation": "relu", "trainable": false, "name": "activation_32"}, "name": "activation_32"}, {"class_name": "Activation", "inbound_nodes": [[["batch_normalization_37", 0, 0, {}]]], "config": {"activation": "relu", "trainable": false, "name": "activation_37"}, "name": "activation_37"}, {"class_name": "Conv2D", "inbound_nodes": [[["activation_32", 0, 0, {}]]], "config": {"activity_regularizer": null, "kernel_initializer": {"class_name": "VarianceScaling", "config": {"scale": 1.0, "mode": "fan_avg", "distribution": "uniform", "seed": null}}, "bias_constraint": null, "padding": "same", "filters": 128, "kernel_size": [1, 7], "bias_initializer": {"class_name": "Zeros", "config": {}}, "use_bias": false, "trainable": false, "strides": [1, 1], "data_format": "channels_last", "dilation_rate": [1, 1], "bias_regularizer": null, "kernel_constraint": null, "activation": "linear", "name": "conv2d_33", "kernel_regularizer": null}, "name": "conv2d_33"}, {"class_name": "Conv2D", "inbound_nodes": [[["activation_37", 0, 0, {}]]], "config": {"activity_regularizer": null, "kernel_initializer": {"class_name": "VarianceScaling", "config": {"scale": 1.0, "mode": "fan_avg", "distribution": "uniform", "seed": null}}, "bias_constraint": null, "padding": "same", "filters": 128, "kernel_size": [7, 1], "bias_initializer": {"class_name": "Zeros", "config": {}}, "use_bias": false, "trainable": false, "strides": [1, 1], "data_format": "channels_last", "dilation_rate": [1, 1], "bias_regularizer": null, "kernel_constraint": null, "activation": "linear", "name": "conv2d_38", "kernel_regularizer": null}, "name": "conv2d_38"}, {"class_name": "BatchNormalization", "inbound_nodes": [[["conv2d_33", 0, 0, {}]]], "config": {"scale": false, "gamma_regularizer": null, "moving_mean_initializer": {"class_name": "Zeros", "config": {}}, "gamma_constraint": null, "axis": 3, "beta_constraint": null, "beta_regularizer": null, "epsilon": 0.001, "trainable": false, "moving_variance_initializer": {"class_name": "Ones", "config": {}}, "gamma_initializer": {"class_name": "Ones", "config": {}}, "beta_initializer": {"class_name": "Zeros", "config": {}}, "center": true, "momentum": 0.99, "name": "batch_normalization_33"}, "name": "batch_normalization_33"}, {"class_name": "BatchNormalization", "inbound_nodes": [[["conv2d_38", 0, 0, {}]]], "config": {"scale": false, "gamma_regularizer": null, "moving_mean_initializer": {"class_name": "Zeros", "config": {}}, "gamma_constraint": null, "axis": 3, "beta_constraint": null, "beta_regularizer": null, "epsilon": 0.001, "trainable": false, "moving_variance_initializer": {"class_name": "Ones", "config": {}}, "gamma_initializer": {"class_name": "Ones", "config": {}}, "beta_initializer": {"class_name": "Zeros", "config": {}}, "center": true, "momentum": 0.99, "name": "batch_normalization_38"}, "name": "batch_normalization_38"}, {"class_name": "Activation", "inbound_nodes": [[["batch_normalization_33", 0, 0, {}]]], "config": {"activation": "relu", "trainable": false, "name": "activation_33"}, "name": "activation_33"}, {"class_name": "Activation", "inbound_nodes": [[["batch_normalization_38", 0, 0, {}]]], "config": {"activation": "relu", "trainable": false, "name": "activation_38"}, "name": "activation_38"}, {"class_name": "AveragePooling2D", "inbound_nodes": [[["mixed3", 0, 0, {}]]], "config": {"pool_size": [3, 3], "trainable": false, "name": "average_pooling2d_4", "data_format": "channels_last", "strides": [1, 1], "padding": "same"}, "name": "average_pooling2d_4"}, {"class_name": "Conv2D", "inbound_nodes": [[["mixed3", 0, 0, {}]]], "config": {"activity_regularizer": null, "kernel_initializer": {"class_name": "VarianceScaling", "config": {"scale": 1.0, "mode": "fan_avg", "distribution": "uniform", "seed": null}}, "bias_constraint": null, "padding": "same", "filters": 192, "kernel_size": [1, 1], "bias_initializer": {"class_name": "Zeros", "config": {}}, "use_bias": false, "trainable": false, "strides": [1, 1], "data_format": "channels_last", "dilation_rate": [1, 1], "bias_regularizer": null, "kernel_constraint": null, "activation": "linear", "name": "conv2d_31", "kernel_regularizer": null}, "name": "conv2d_31"}, {"class_name": "Conv2D", "inbound_nodes": [[["activation_33", 0, 0, {}]]], "config": {"activity_regularizer": null, "kernel_initializer": {"class_name": "VarianceScaling", "config": {"scale": 1.0, "mode": "fan_avg", "distribution": "uniform", "seed": null}}, "bias_constraint": null, "padding": "same", "filters": 192, "kernel_size": [7, 1], "bias_initializer": {"class_name": "Zeros", "config": {}}, "use_bias": false, "trainable": false, "strides": [1, 1], "data_format": "channels_last", "dilation_rate": [1, 1], "bias_regularizer": null, "kernel_constraint": null, "activation": "linear", "name": "conv2d_34", "kernel_regularizer": null}, "name": "conv2d_34"}, {"class_name": "Conv2D", "inbound_nodes": [[["activation_38", 0, 0, {}]]], "config": {"activity_regularizer": null, "kernel_initializer": {"class_name": "VarianceScaling", "config": {"scale": 1.0, "mode": "fan_avg", "distribution": "uniform", "seed": null}}, "bias_constraint": null, "padding": "same", "filters": 192, "kernel_size": [1, 7], "bias_initializer": {"class_name": "Zeros", "config": {}}, "use_bias": false, "trainable": false, "strides": [1, 1], "data_format": "channels_last", "dilation_rate": [1, 1], "bias_regularizer": null, "kernel_constraint": null, "activation": "linear", "name": "conv2d_39", "kernel_regularizer": null}, "name": "conv2d_39"}, {"class_name": "Conv2D", "inbound_nodes": [[["average_pooling2d_4", 0, 0, {}]]], "config": {"activity_regularizer": null, "kernel_initializer": {"class_name": "VarianceScaling", "config": {"scale": 1.0, "mode": "fan_avg", "distribution": "uniform", "seed": null}}, "bias_constraint": null, "padding": "same", "filters": 192, "kernel_size": [1, 1], "bias_initializer": {"class_name": "Zeros", "config": {}}, "use_bias": false, "trainable": false, "strides": [1, 1], "data_format": "channels_last", "dilation_rate": [1, 1], "bias_regularizer": null, "kernel_constraint": null, "activation": "linear", "name": "conv2d_40", "kernel_regularizer": null}, "name": "conv2d_40"}, {"class_name": "BatchNormalization", "inbound_nodes": [[["conv2d_31", 0, 0, {}]]], "config": {"scale": false, "gamma_regularizer": null, "moving_mean_initializer": {"class_name": "Zeros", "config": {}}, "gamma_constraint": null, "axis": 3, "beta_constraint": null, "beta_regularizer": null, "epsilon": 0.001, "trainable": false, "moving_variance_initializer": {"class_name": "Ones", "config": {}}, "gamma_initializer": {"class_name": "Ones", "config": {}}, "beta_initializer": {"class_name": "Zeros", "config": {}}, "center": true, "momentum": 0.99, "name": "batch_normalization_31"}, "name": "batch_normalization_31"}, {"class_name": "BatchNormalization", "inbound_nodes": [[["conv2d_34", 0, 0, {}]]], "config": {"scale": false, "gamma_regularizer": null, "moving_mean_initializer": {"class_name": "Zeros", "config": {}}, "gamma_constraint": null, "axis": 3, "beta_constraint": null, "beta_regularizer": null, "epsilon": 0.001, "trainable": false, "moving_variance_initializer": {"class_name": "Ones", "config": {}}, "gamma_initializer": {"class_name": "Ones", "config": {}}, "beta_initializer": {"class_name": "Zeros", "config": {}}, "center": true, "momentum": 0.99, "name": "batch_normalization_34"}, "name": "batch_normalization_34"}, {"class_name": "BatchNormalization", "inbound_nodes": [[["conv2d_39", 0, 0, {}]]], "config": {"scale": false, "gamma_regularizer": null, "moving_mean_initializer": {"class_name": "Zeros", "config": {}}, "gamma_constraint": null, "axis": 3, "beta_constraint": null, "beta_regularizer": null, "epsilon": 0.001, "trainable": false, "moving_variance_initializer": {"class_name": "Ones", "config": {}}, "gamma_initializer": {"class_name": "Ones", "config": {}}, "beta_initializer": {"class_name": "Zeros", "config": {}}, "center": true, "momentum": 0.99, "name": "batch_normalization_39"}, "name": "batch_normalization_39"}, {"class_name": "BatchNormalization", "inbound_nodes": [[["conv2d_40", 0, 0, {}]]], "config": {"scale": false, "gamma_regularizer": null, "moving_mean_initializer": {"class_name": "Zeros", "config": {}}, "gamma_constraint": null, "axis": 3, "beta_constraint": null, "beta_regularizer": null, "epsilon": 0.001, "trainable": false, "moving_variance_initializer": {"class_name": "Ones", "config": {}}, "gamma_initializer": {"class_name": "Ones", "config": {}}, "beta_initializer": {"class_name": "Zeros", "config": {}}, "center": true, "momentum": 0.99, "name": "batch_normalization_40"}, "name": "batch_normalization_40"}, {"class_name": "Activation", "inbound_nodes": [[["batch_normalization_31", 0, 0, {}]]], "config": {"activation": "relu", "trainable": false, "name": "activation_31"}, "name": "activation_31"}, {"class_name": "Activation", "inbound_nodes": [[["batch_normalization_34", 0, 0, {}]]], "config": {"activation": "relu", "trainable": false, "name": "activation_34"}, "name": "activation_34"}, {"class_name": "Activation", "inbound_nodes": [[["batch_normalization_39", 0, 0, {}]]], "config": {"activation": "relu", "trainable": false, "name": "activation_39"}, "name": "activation_39"}, {"class_name": "Activation", "inbound_nodes": [[["batch_normalization_40", 0, 0, {}]]], "config": {"activation": "relu", "trainable": false, "name": "activation_40"}, "name": "activation_40"}, {"class_name": "Concatenate", "inbound_nodes": [[["activation_31", 0, 0, {}], ["activation_34", 0, 0, {}], ["activation_39", 0, 0, {}], ["activation_40", 0, 0, {}]]], "config": {"axis": 3, "trainable": false, "name": "mixed4"}, "name": "mixed4"}, {"class_name": "Conv2D", "inbound_nodes": [[["mixed4", 0, 0, {}]]], "config": {"activity_regularizer": null, "kernel_initializer": {"class_name": "VarianceScaling", "config": {"scale": 1.0, "mode": "fan_avg", "distribution": "uniform", "seed": null}}, "bias_constraint": null, "padding": "same", "filters": 160, "kernel_size": [1, 1], "bias_initializer": {"class_name": "Zeros", "config": {}}, "use_bias": false, "trainable": false, "strides": [1, 1], "data_format": "channels_last", "dilation_rate": [1, 1], "bias_regularizer": null, "kernel_constraint": null, "activation": "linear", "name": "conv2d_45", "kernel_regularizer": null}, "name": "conv2d_45"}, {"class_name": "BatchNormalization", "inbound_nodes": [[["conv2d_45", 0, 0, {}]]], "config": {"scale": false, "gamma_regularizer": null, "moving_mean_initializer": {"class_name": "Zeros", "config": {}}, "gamma_constraint": null, "axis": 3, "beta_constraint": null, "beta_regularizer": null, "epsilon": 0.001, "trainable": false, "moving_variance_initializer": {"class_name": "Ones", "config": {}}, "gamma_initializer": {"class_name": "Ones", "config": {}}, "beta_initializer": {"class_name": "Zeros", "config": {}}, "center": true, "momentum": 0.99, "name": "batch_normalization_45"}, "name": "batch_normalization_45"}, {"class_name": "Activation", "inbound_nodes": [[["batch_normalization_45", 0, 0, {}]]], "config": {"activation": "relu", "trainable": false, "name": "activation_45"}, "name": "activation_45"}, {"class_name": "Conv2D", "inbound_nodes": [[["activation_45", 0, 0, {}]]], "config": {"activity_regularizer": null, "kernel_initializer": {"class_name": "VarianceScaling", "config": {"scale": 1.0, "mode": "fan_avg", "distribution": "uniform", "seed": null}}, "bias_constraint": null, "padding": "same", "filters": 160, "kernel_size": [7, 1], "bias_initializer": {"class_name": "Zeros", "config": {}}, "use_bias": false, "trainable": false, "strides": [1, 1], "data_format": "channels_last", "dilation_rate": [1, 1], "bias_regularizer": null, "kernel_constraint": null, "activation": "linear", "name": "conv2d_46", "kernel_regularizer": null}, "name": "conv2d_46"}, {"class_name": "BatchNormalization", "inbound_nodes": [[["conv2d_46", 0, 0, {}]]], "config": {"scale": false, "gamma_regularizer": null, "moving_mean_initializer": {"class_name": "Zeros", "config": {}}, "gamma_constraint": null, "axis": 3, "beta_constraint": null, "beta_regularizer": null, "epsilon": 0.001, "trainable": false, "moving_variance_initializer": {"class_name": "Ones", "config": {}}, "gamma_initializer": {"class_name": "Ones", "config": {}}, "beta_initializer": {"class_name": "Zeros", "config": {}}, "center": true, "momentum": 0.99, "name": "batch_normalization_46"}, "name": "batch_normalization_46"}, {"class_name": "Activation", "inbound_nodes": [[["batch_normalization_46", 0, 0, {}]]], "config": {"activation": "relu", "trainable": false, "name": "activation_46"}, "name": "activation_46"}, {"class_name": "Conv2D", "inbound_nodes": [[["mixed4", 0, 0, {}]]], "config": {"activity_regularizer": null, "kernel_initializer": {"class_name": "VarianceScaling", "config": {"scale": 1.0, "mode": "fan_avg", "distribution": "uniform", "seed": null}}, "bias_constraint": null, "padding": "same", "filters": 160, "kernel_size": [1, 1], "bias_initializer": {"class_name": "Zeros", "config": {}}, "use_bias": false, "trainable": false, "strides": [1, 1], "data_format": "channels_last", "dilation_rate": [1, 1], "bias_regularizer": null, "kernel_constraint": null, "activation": "linear", "name": "conv2d_42", "kernel_regularizer": null}, "name": "conv2d_42"}, {"class_name": "Conv2D", "inbound_nodes": [[["activation_46", 0, 0, {}]]], "config": {"activity_regularizer": null, "kernel_initializer": {"class_name": "VarianceScaling", "config": {"scale": 1.0, "mode": "fan_avg", "distribution": "uniform", "seed": null}}, "bias_constraint": null, "padding": "same", "filters": 160, "kernel_size": [1, 7], "bias_initializer": {"class_name": "Zeros", "config": {}}, "use_bias": false, "trainable": false, "strides": [1, 1], "data_format": "channels_last", "dilation_rate": [1, 1], "bias_regularizer": null, "kernel_constraint": null, "activation": "linear", "name": "conv2d_47", "kernel_regularizer": null}, "name": "conv2d_47"}, {"class_name": "BatchNormalization", "inbound_nodes": [[["conv2d_42", 0, 0, {}]]], "config": {"scale": false, "gamma_regularizer": null, "moving_mean_initializer": {"class_name": "Zeros", "config": {}}, "gamma_constraint": null, "axis": 3, "beta_constraint": null, "beta_regularizer": null, "epsilon": 0.001, "trainable": false, "moving_variance_initializer": {"class_name": "Ones", "config": {}}, "gamma_initializer": {"class_name": "Ones", "config": {}}, "beta_initializer": {"class_name": "Zeros", "config": {}}, "center": true, "momentum": 0.99, "name": "batch_normalization_42"}, "name": "batch_normalization_42"}, {"class_name": "BatchNormalization", "inbound_nodes": [[["conv2d_47", 0, 0, {}]]], "config": {"scale": false, "gamma_regularizer": null, "moving_mean_initializer": {"class_name": "Zeros", "config": {}}, "gamma_constraint": null, "axis": 3, "beta_constraint": null, "beta_regularizer": null, "epsilon": 0.001, "trainable": false, "moving_variance_initializer": {"class_name": "Ones", "config": {}}, "gamma_initializer": {"class_name": "Ones", "config": {}}, "beta_initializer": {"class_name": "Zeros", "config": {}}, "center": true, "momentum": 0.99, "name": "batch_normalization_47"}, "name": "batch_normalization_47"}, {"class_name": "Activation", "inbound_nodes": [[["batch_normalization_42", 0, 0, {}]]], "config": {"activation": "relu", "trainable": false, "name": "activation_42"}, "name": "activation_42"}, {"class_name": "Activation", "inbound_nodes": [[["batch_normalization_47", 0, 0, {}]]], "config": {"activation": "relu", "trainable": false, "name": "activation_47"}, "name": "activation_47"}, {"class_name": "Conv2D", "inbound_nodes": [[["activation_42", 0, 0, {}]]], "config": {"activity_regularizer": null, "kernel_initializer": {"class_name": "VarianceScaling", "config": {"scale": 1.0, "mode": "fan_avg", "distribution": "uniform", "seed": null}}, "bias_constraint": null, "padding": "same", "filters": 160, "kernel_size": [1, 7], "bias_initializer": {"class_name": "Zeros", "config": {}}, "use_bias": false, "trainable": false, "strides": [1, 1], "data_format": "channels_last", "dilation_rate": [1, 1], "bias_regularizer": null, "kernel_constraint": null, "activation": "linear", "name": "conv2d_43", "kernel_regularizer": null}, "name": "conv2d_43"}, {"class_name": "Conv2D", "inbound_nodes": [[["activation_47", 0, 0, {}]]], "config": {"activity_regularizer": null, "kernel_initializer": {"class_name": "VarianceScaling", "config": {"scale": 1.0, "mode": "fan_avg", "distribution": "uniform", "seed": null}}, "bias_constraint": null, "padding": "same", "filters": 160, "kernel_size": [7, 1], "bias_initializer": {"class_name": "Zeros", "config": {}}, "use_bias": false, "trainable": false, "strides": [1, 1], "data_format": "channels_last", "dilation_rate": [1, 1], "bias_regularizer": null, "kernel_constraint": null, "activation": "linear", "name": "conv2d_48", "kernel_regularizer": null}, "name": "conv2d_48"}, {"class_name": "BatchNormalization", "inbound_nodes": [[["conv2d_43", 0, 0, {}]]], "config": {"scale": false, "gamma_regularizer": null, "moving_mean_initializer": {"class_name": "Zeros", "config": {}}, "gamma_constraint": null, "axis": 3, "beta_constraint": null, "beta_regularizer": null, "epsilon": 0.001, "trainable": false, "moving_variance_initializer": {"class_name": "Ones", "config": {}}, "gamma_initializer": {"class_name": "Ones", "config": {}}, "beta_initializer": {"class_name": "Zeros", "config": {}}, "center": true, "momentum": 0.99, "name": "batch_normalization_43"}, "name": "batch_normalization_43"}, {"class_name": "BatchNormalization", "inbound_nodes": [[["conv2d_48", 0, 0, {}]]], "config": {"scale": false, "gamma_regularizer": null, "moving_mean_initializer": {"class_name": "Zeros", "config": {}}, "gamma_constraint": null, "axis": 3, "beta_constraint": null, "beta_regularizer": null, "epsilon": 0.001, "trainable": false, "moving_variance_initializer": {"class_name": "Ones", "config": {}}, "gamma_initializer": {"class_name": "Ones", "config": {}}, "beta_initializer": {"class_name": "Zeros", "config": {}}, "center": true, "momentum": 0.99, "name": "batch_normalization_48"}, "name": "batch_normalization_48"}, {"class_name": "Activation", "inbound_nodes": [[["batch_normalization_43", 0, 0, {}]]], "config": {"activation": "relu", "trainable": false, "name": "activation_43"}, "name": "activation_43"}, {"class_name": "Activation", "inbound_nodes": [[["batch_normalization_48", 0, 0, {}]]], "config": {"activation": "relu", "trainable": false, "name": "activation_48"}, "name": "activation_48"}, {"class_name": "AveragePooling2D", "inbound_nodes": [[["mixed4", 0, 0, {}]]], "config": {"pool_size": [3, 3], "trainable": false, "name": "average_pooling2d_5", "data_format": "channels_last", "strides": [1, 1], "padding": "same"}, "name": "average_pooling2d_5"}, {"class_name": "Conv2D", "inbound_nodes": [[["mixed4", 0, 0, {}]]], "config": {"activity_regularizer": null, "kernel_initializer": {"class_name": "VarianceScaling", "config": {"scale": 1.0, "mode": "fan_avg", "distribution": "uniform", "seed": null}}, "bias_constraint": null, "padding": "same", "filters": 192, "kernel_size": [1, 1], "bias_initializer": {"class_name": "Zeros", "config": {}}, "use_bias": false, "trainable": false, "strides": [1, 1], "data_format": "channels_last", "dilation_rate": [1, 1], "bias_regularizer": null, "kernel_constraint": null, "activation": "linear", "name": "conv2d_41", "kernel_regularizer": null}, "name": "conv2d_41"}, {"class_name": "Conv2D", "inbound_nodes": [[["activation_43", 0, 0, {}]]], "config": {"activity_regularizer": null, "kernel_initializer": {"class_name": "VarianceScaling", "config": {"scale": 1.0, "mode": "fan_avg", "distribution": "uniform", "seed": null}}, "bias_constraint": null, "padding": "same", "filters": 192, "kernel_size": [7, 1], "bias_initializer": {"class_name": "Zeros", "config": {}}, "use_bias": false, "trainable": false, "strides": [1, 1], "data_format": "channels_last", "dilation_rate": [1, 1], "bias_regularizer": null, "kernel_constraint": null, "activation": "linear", "name": "conv2d_44", "kernel_regularizer": null}, "name": "conv2d_44"}, {"class_name": "Conv2D", "inbound_nodes": [[["activation_48", 0, 0, {}]]], "config": {"activity_regularizer": null, "kernel_initializer": {"class_name": "VarianceScaling", "config": {"scale": 1.0, "mode": "fan_avg", "distribution": "uniform", "seed": null}}, "bias_constraint": null, "padding": "same", "filters": 192, "kernel_size": [1, 7], "bias_initializer": {"class_name": "Zeros", "config": {}}, "use_bias": false, "trainable": false, "strides": [1, 1], "data_format": "channels_last", "dilation_rate": [1, 1], "bias_regularizer": null, "kernel_constraint": null, "activation": "linear", "name": "conv2d_49", "kernel_regularizer": null}, "name": "conv2d_49"}, {"class_name": "Conv2D", "inbound_nodes": [[["average_pooling2d_5", 0, 0, {}]]], "config": {"activity_regularizer": null, "kernel_initializer": {"class_name": "VarianceScaling", "config": {"scale": 1.0, "mode": "fan_avg", "distribution": "uniform", "seed": null}}, "bias_constraint": null, "padding": "same", "filters": 192, "kernel_size": [1, 1], "bias_initializer": {"class_name": "Zeros", "config": {}}, "use_bias": false, "trainable": false, "strides": [1, 1], "data_format": "channels_last", "dilation_rate": [1, 1], "bias_regularizer": null, "kernel_constraint": null, "activation": "linear", "name": "conv2d_50", "kernel_regularizer": null}, "name": "conv2d_50"}, {"class_name": "BatchNormalization", "inbound_nodes": [[["conv2d_41", 0, 0, {}]]], "config": {"scale": false, "gamma_regularizer": null, "moving_mean_initializer": {"class_name": "Zeros", "config": {}}, "gamma_constraint": null, "axis": 3, "beta_constraint": null, "beta_regularizer": null, "epsilon": 0.001, "trainable": false, "moving_variance_initializer": {"class_name": "Ones", "config": {}}, "gamma_initializer": {"class_name": "Ones", "config": {}}, "beta_initializer": {"class_name": "Zeros", "config": {}}, "center": true, "momentum": 0.99, "name": "batch_normalization_41"}, "name": "batch_normalization_41"}, {"class_name": "BatchNormalization", "inbound_nodes": [[["conv2d_44", 0, 0, {}]]], "config": {"scale": false, "gamma_regularizer": null, "moving_mean_initializer": {"class_name": "Zeros", "config": {}}, "gamma_constraint": null, "axis": 3, "beta_constraint": null, "beta_regularizer": null, "epsilon": 0.001, "trainable": false, "moving_variance_initializer": {"class_name": "Ones", "config": {}}, "gamma_initializer": {"class_name": "Ones", "config": {}}, "beta_initializer": {"class_name": "Zeros", "config": {}}, "center": true, "momentum": 0.99, "name": "batch_normalization_44"}, "name": "batch_normalization_44"}, {"class_name": "BatchNormalization", "inbound_nodes": [[["conv2d_49", 0, 0, {}]]], "config": {"scale": false, "gamma_regularizer": null, "moving_mean_initializer": {"class_name": "Zeros", "config": {}}, "gamma_constraint": null, "axis": 3, "beta_constraint": null, "beta_regularizer": null, "epsilon": 0.001, "trainable": false, "moving_variance_initializer": {"class_name": "Ones", "config": {}}, "gamma_initializer": {"class_name": "Ones", "config": {}}, "beta_initializer": {"class_name": "Zeros", "config": {}}, "center": true, "momentum": 0.99, "name": "batch_normalization_49"}, "name": "batch_normalization_49"}, {"class_name": "BatchNormalization", "inbound_nodes": [[["conv2d_50", 0, 0, {}]]], "config": {"scale": false, "gamma_regularizer": null, "moving_mean_initializer": {"class_name": "Zeros", "config": {}}, "gamma_constraint": null, "axis": 3, "beta_constraint": null, "beta_regularizer": null, "epsilon": 0.001, "trainable": false, "moving_variance_initializer": {"class_name": "Ones", "config": {}}, "gamma_initializer": {"class_name": "Ones", "config": {}}, "beta_initializer": {"class_name": "Zeros", "config": {}}, "center": true, "momentum": 0.99, "name": "batch_normalization_50"}, "name": "batch_normalization_50"}, {"class_name": "Activation", "inbound_nodes": [[["batch_normalization_41", 0, 0, {}]]], "config": {"activation": "relu", "trainable": false, "name": "activation_41"}, "name": "activation_41"}, {"class_name": "Activation", "inbound_nodes": [[["batch_normalization_44", 0, 0, {}]]], "config": {"activation": "relu", "trainable": false, "name": "activation_44"}, "name": "activation_44"}, {"class_name": "Activation", "inbound_nodes": [[["batch_normalization_49", 0, 0, {}]]], "config": {"activation": "relu", "trainable": false, "name": "activation_49"}, "name": "activation_49"}, {"class_name": "Activation", "inbound_nodes": [[["batch_normalization_50", 0, 0, {}]]], "config": {"activation": "relu", "trainable": false, "name": "activation_50"}, "name": "activation_50"}, {"class_name": "Concatenate", "inbound_nodes": [[["activation_41", 0, 0, {}], ["activation_44", 0, 0, {}], ["activation_49", 0, 0, {}], ["activation_50", 0, 0, {}]]], "config": {"axis": 3, "trainable": false, "name": "mixed5"}, "name": "mixed5"}, {"class_name": "Conv2D", "inbound_nodes": [[["mixed5", 0, 0, {}]]], "config": {"activity_regularizer": null, "kernel_initializer": {"class_name": "VarianceScaling", "config": {"scale": 1.0, "mode": "fan_avg", "distribution": "uniform", "seed": null}}, "bias_constraint": null, "padding": "same", "filters": 160, "kernel_size": [1, 1], "bias_initializer": {"class_name": "Zeros", "config": {}}, "use_bias": false, "trainable": false, "strides": [1, 1], "data_format": "channels_last", "dilation_rate": [1, 1], "bias_regularizer": null, "kernel_constraint": null, "activation": "linear", "name": "conv2d_55", "kernel_regularizer": null}, "name": "conv2d_55"}, {"class_name": "BatchNormalization", "inbound_nodes": [[["conv2d_55", 0, 0, {}]]], "config": {"scale": false, "gamma_regularizer": null, "moving_mean_initializer": {"class_name": "Zeros", "config": {}}, "gamma_constraint": null, "axis": 3, "beta_constraint": null, "beta_regularizer": null, "epsilon": 0.001, "trainable": false, "moving_variance_initializer": {"class_name": "Ones", "config": {}}, "gamma_initializer": {"class_name": "Ones", "config": {}}, "beta_initializer": {"class_name": "Zeros", "config": {}}, "center": true, "momentum": 0.99, "name": "batch_normalization_55"}, "name": "batch_normalization_55"}, {"class_name": "Activation", "inbound_nodes": [[["batch_normalization_55", 0, 0, {}]]], "config": {"activation": "relu", "trainable": false, "name": "activation_55"}, "name": "activation_55"}, {"class_name": "Conv2D", "inbound_nodes": [[["activation_55", 0, 0, {}]]], "config": {"activity_regularizer": null, "kernel_initializer": {"class_name": "VarianceScaling", "config": {"scale": 1.0, "mode": "fan_avg", "distribution": "uniform", "seed": null}}, "bias_constraint": null, "padding": "same", "filters": 160, "kernel_size": [7, 1], "bias_initializer": {"class_name": "Zeros", "config": {}}, "use_bias": false, "trainable": false, "strides": [1, 1], "data_format": "channels_last", "dilation_rate": [1, 1], "bias_regularizer": null, "kernel_constraint": null, "activation": "linear", "name": "conv2d_56", "kernel_regularizer": null}, "name": "conv2d_56"}, {"class_name": "BatchNormalization", "inbound_nodes": [[["conv2d_56", 0, 0, {}]]], "config": {"scale": false, "gamma_regularizer": null, "moving_mean_initializer": {"class_name": "Zeros", "config": {}}, "gamma_constraint": null, "axis": 3, "beta_constraint": null, "beta_regularizer": null, "epsilon": 0.001, "trainable": false, "moving_variance_initializer": {"class_name": "Ones", "config": {}}, "gamma_initializer": {"class_name": "Ones", "config": {}}, "beta_initializer": {"class_name": "Zeros", "config": {}}, "center": true, "momentum": 0.99, "name": "batch_normalization_56"}, "name": "batch_normalization_56"}, {"class_name": "Activation", "inbound_nodes": [[["batch_normalization_56", 0, 0, {}]]], "config": {"activation": "relu", "trainable": false, "name": "activation_56"}, "name": "activation_56"}, {"class_name": "Conv2D", "inbound_nodes": [[["mixed5", 0, 0, {}]]], "config": {"activity_regularizer": null, "kernel_initializer": {"class_name": "VarianceScaling", "config": {"scale": 1.0, "mode": "fan_avg", "distribution": "uniform", "seed": null}}, "bias_constraint": null, "padding": "same", "filters": 160, "kernel_size": [1, 1], "bias_initializer": {"class_name": "Zeros", "config": {}}, "use_bias": false, "trainable": false, "strides": [1, 1], "data_format": "channels_last", "dilation_rate": [1, 1], "bias_regularizer": null, "kernel_constraint": null, "activation": "linear", "name": "conv2d_52", "kernel_regularizer": null}, "name": "conv2d_52"}, {"class_name": "Conv2D", "inbound_nodes": [[["activation_56", 0, 0, {}]]], "config": {"activity_regularizer": null, "kernel_initializer": {"class_name": "VarianceScaling", "config": {"scale": 1.0, "mode": "fan_avg", "distribution": "uniform", "seed": null}}, "bias_constraint": null, "padding": "same", "filters": 160, "kernel_size": [1, 7], "bias_initializer": {"class_name": "Zeros", "config": {}}, "use_bias": false, "trainable": false, "strides": [1, 1], "data_format": "channels_last", "dilation_rate": [1, 1], "bias_regularizer": null, "kernel_constraint": null, "activation": "linear", "name": "conv2d_57", "kernel_regularizer": null}, "name": "conv2d_57"}, {"class_name": "BatchNormalization", "inbound_nodes": [[["conv2d_52", 0, 0, {}]]], "config": {"scale": false, "gamma_regularizer": null, "moving_mean_initializer": {"class_name": "Zeros", "config": {}}, "gamma_constraint": null, "axis": 3, "beta_constraint": null, "beta_regularizer": null, "epsilon": 0.001, "trainable": false, "moving_variance_initializer": {"class_name": "Ones", "config": {}}, "gamma_initializer": {"class_name": "Ones", "config": {}}, "beta_initializer": {"class_name": "Zeros", "config": {}}, "center": true, "momentum": 0.99, "name": "batch_normalization_52"}, "name": "batch_normalization_52"}, {"class_name": "BatchNormalization", "inbound_nodes": [[["conv2d_57", 0, 0, {}]]], "config": {"scale": false, "gamma_regularizer": null, "moving_mean_initializer": {"class_name": "Zeros", "config": {}}, "gamma_constraint": null, "axis": 3, "beta_constraint": null, "beta_regularizer": null, "epsilon": 0.001, "trainable": false, "moving_variance_initializer": {"class_name": "Ones", "config": {}}, "gamma_initializer": {"class_name": "Ones", "config": {}}, "beta_initializer": {"class_name": "Zeros", "config": {}}, "center": true, "momentum": 0.99, "name": "batch_normalization_57"}, "name": "batch_normalization_57"}, {"class_name": "Activation", "inbound_nodes": [[["batch_normalization_52", 0, 0, {}]]], "config": {"activation": "relu", "trainable": false, "name": "activation_52"}, "name": "activation_52"}, {"class_name": "Activation", "inbound_nodes": [[["batch_normalization_57", 0, 0, {}]]], "config": {"activation": "relu", "trainable": false, "name": "activation_57"}, "name": "activation_57"}, {"class_name": "Conv2D", "inbound_nodes": [[["activation_52", 0, 0, {}]]], "config": {"activity_regularizer": null, "kernel_initializer": {"class_name": "VarianceScaling", "config": {"scale": 1.0, "mode": "fan_avg", "distribution": "uniform", "seed": null}}, "bias_constraint": null, "padding": "same", "filters": 160, "kernel_size": [1, 7], "bias_initializer": {"class_name": "Zeros", "config": {}}, "use_bias": false, "trainable": false, "strides": [1, 1], "data_format": "channels_last", "dilation_rate": [1, 1], "bias_regularizer": null, "kernel_constraint": null, "activation": "linear", "name": "conv2d_53", "kernel_regularizer": null}, "name": "conv2d_53"}, {"class_name": "Conv2D", "inbound_nodes": [[["activation_57", 0, 0, {}]]], "config": {"activity_regularizer": null, "kernel_initializer": {"class_name": "VarianceScaling", "config": {"scale": 1.0, "mode": "fan_avg", "distribution": "uniform", "seed": null}}, "bias_constraint": null, "padding": "same", "filters": 160, "kernel_size": [7, 1], "bias_initializer": {"class_name": "Zeros", "config": {}}, "use_bias": false, "trainable": false, "strides": [1, 1], "data_format": "channels_last", "dilation_rate": [1, 1], "bias_regularizer": null, "kernel_constraint": null, "activation": "linear", "name": "conv2d_58", "kernel_regularizer": null}, "name": "conv2d_58"}, {"class_name": "BatchNormalization", "inbound_nodes": [[["conv2d_53", 0, 0, {}]]], "config": {"scale": false, "gamma_regularizer": null, "moving_mean_initializer": {"class_name": "Zeros", "config": {}}, "gamma_constraint": null, "axis": 3, "beta_constraint": null, "beta_regularizer": null, "epsilon": 0.001, "trainable": false, "moving_variance_initializer": {"class_name": "Ones", "config": {}}, "gamma_initializer": {"class_name": "Ones", "config": {}}, "beta_initializer": {"class_name": "Zeros", "config": {}}, "center": true, "momentum": 0.99, "name": "batch_normalization_53"}, "name": "batch_normalization_53"}, {"class_name": "BatchNormalization", "inbound_nodes": [[["conv2d_58", 0, 0, {}]]], "config": {"scale": false, "gamma_regularizer": null, "moving_mean_initializer": {"class_name": "Zeros", "config": {}}, "gamma_constraint": null, "axis": 3, "beta_constraint": null, "beta_regularizer": null, "epsilon": 0.001, "trainable": false, "moving_variance_initializer": {"class_name": "Ones", "config": {}}, "gamma_initializer": {"class_name": "Ones", "config": {}}, "beta_initializer": {"class_name": "Zeros", "config": {}}, "center": true, "momentum": 0.99, "name": "batch_normalization_58"}, "name": "batch_normalization_58"}, {"class_name": "Activation", "inbound_nodes": [[["batch_normalization_53", 0, 0, {}]]], "config": {"activation": "relu", "trainable": false, "name": "activation_53"}, "name": "activation_53"}, {"class_name": "Activation", "inbound_nodes": [[["batch_normalization_58", 0, 0, {}]]], "config": {"activation": "relu", "trainable": false, "name": "activation_58"}, "name": "activation_58"}, {"class_name": "AveragePooling2D", "inbound_nodes": [[["mixed5", 0, 0, {}]]], "config": {"pool_size": [3, 3], "trainable": false, "name": "average_pooling2d_6", "data_format": "channels_last", "strides": [1, 1], "padding": "same"}, "name": "average_pooling2d_6"}, {"class_name": "Conv2D", "inbound_nodes": [[["mixed5", 0, 0, {}]]], "config": {"activity_regularizer": null, "kernel_initializer": {"class_name": "VarianceScaling", "config": {"scale": 1.0, "mode": "fan_avg", "distribution": "uniform", "seed": null}}, "bias_constraint": null, "padding": "same", "filters": 192, "kernel_size": [1, 1], "bias_initializer": {"class_name": "Zeros", "config": {}}, "use_bias": false, "trainable": false, "strides": [1, 1], "data_format": "channels_last", "dilation_rate": [1, 1], "bias_regularizer": null, "kernel_constraint": null, "activation": "linear", "name": "conv2d_51", "kernel_regularizer": null}, "name": "conv2d_51"}, {"class_name": "Conv2D", "inbound_nodes": [[["activation_53", 0, 0, {}]]], "config": {"activity_regularizer": null, "kernel_initializer": {"class_name": "VarianceScaling", "config": {"scale": 1.0, "mode": "fan_avg", "distribution": "uniform", "seed": null}}, "bias_constraint": null, "padding": "same", "filters": 192, "kernel_size": [7, 1], "bias_initializer": {"class_name": "Zeros", "config": {}}, "use_bias": false, "trainable": false, "strides": [1, 1], "data_format": "channels_last", "dilation_rate": [1, 1], "bias_regularizer": null, "kernel_constraint": null, "activation": "linear", "name": "conv2d_54", "kernel_regularizer": null}, "name": "conv2d_54"}, {"class_name": "Conv2D", "inbound_nodes": [[["activation_58", 0, 0, {}]]], "config": {"activity_regularizer": null, "kernel_initializer": {"class_name": "VarianceScaling", "config": {"scale": 1.0, "mode": "fan_avg", "distribution": "uniform", "seed": null}}, "bias_constraint": null, "padding": "same", "filters": 192, "kernel_size": [1, 7], "bias_initializer": {"class_name": "Zeros", "config": {}}, "use_bias": false, "trainable": false, "strides": [1, 1], "data_format": "channels_last", "dilation_rate": [1, 1], "bias_regularizer": null, "kernel_constraint": null, "activation": "linear", "name": "conv2d_59", "kernel_regularizer": null}, "name": "conv2d_59"}, {"class_name": "Conv2D", "inbound_nodes": [[["average_pooling2d_6", 0, 0, {}]]], "config": {"activity_regularizer": null, "kernel_initializer": {"class_name": "VarianceScaling", "config": {"scale": 1.0, "mode": "fan_avg", "distribution": "uniform", "seed": null}}, "bias_constraint": null, "padding": "same", "filters": 192, "kernel_size": [1, 1], "bias_initializer": {"class_name": "Zeros", "config": {}}, "use_bias": false, "trainable": false, "strides": [1, 1], "data_format": "channels_last", "dilation_rate": [1, 1], "bias_regularizer": null, "kernel_constraint": null, "activation": "linear", "name": "conv2d_60", "kernel_regularizer": null}, "name": "conv2d_60"}, {"class_name": "BatchNormalization", "inbound_nodes": [[["conv2d_51", 0, 0, {}]]], "config": {"scale": false, "gamma_regularizer": null, "moving_mean_initializer": {"class_name": "Zeros", "config": {}}, "gamma_constraint": null, "axis": 3, "beta_constraint": null, "beta_regularizer": null, "epsilon": 0.001, "trainable": false, "moving_variance_initializer": {"class_name": "Ones", "config": {}}, "gamma_initializer": {"class_name": "Ones", "config": {}}, "beta_initializer": {"class_name": "Zeros", "config": {}}, "center": true, "momentum": 0.99, "name": "batch_normalization_51"}, "name": "batch_normalization_51"}, {"class_name": "BatchNormalization", "inbound_nodes": [[["conv2d_54", 0, 0, {}]]], "config": {"scale": false, "gamma_regularizer": null, "moving_mean_initializer": {"class_name": "Zeros", "config": {}}, "gamma_constraint": null, "axis": 3, "beta_constraint": null, "beta_regularizer": null, "epsilon": 0.001, "trainable": false, "moving_variance_initializer": {"class_name": "Ones", "config": {}}, "gamma_initializer": {"class_name": "Ones", "config": {}}, "beta_initializer": {"class_name": "Zeros", "config": {}}, "center": true, "momentum": 0.99, "name": "batch_normalization_54"}, "name": "batch_normalization_54"}, {"class_name": "BatchNormalization", "inbound_nodes": [[["conv2d_59", 0, 0, {}]]], "config": {"scale": false, "gamma_regularizer": null, "moving_mean_initializer": {"class_name": "Zeros", "config": {}}, "gamma_constraint": null, "axis": 3, "beta_constraint": null, "beta_regularizer": null, "epsilon": 0.001, "trainable": false, "moving_variance_initializer": {"class_name": "Ones", "config": {}}, "gamma_initializer": {"class_name": "Ones", "config": {}}, "beta_initializer": {"class_name": "Zeros", "config": {}}, "center": true, "momentum": 0.99, "name": "batch_normalization_59"}, "name": "batch_normalization_59"}, {"class_name": "BatchNormalization", "inbound_nodes": [[["conv2d_60", 0, 0, {}]]], "config": {"scale": false, "gamma_regularizer": null, "moving_mean_initializer": {"class_name": "Zeros", "config": {}}, "gamma_constraint": null, "axis": 3, "beta_constraint": null, "beta_regularizer": null, "epsilon": 0.001, "trainable": false, "moving_variance_initializer": {"class_name": "Ones", "config": {}}, "gamma_initializer": {"class_name": "Ones", "config": {}}, "beta_initializer": {"class_name": "Zeros", "config": {}}, "center": true, "momentum": 0.99, "name": "batch_normalization_60"}, "name": "batch_normalization_60"}, {"class_name": "Activation", "inbound_nodes": [[["batch_normalization_51", 0, 0, {}]]], "config": {"activation": "relu", "trainable": false, "name": "activation_51"}, "name": "activation_51"}, {"class_name": "Activation", "inbound_nodes": [[["batch_normalization_54", 0, 0, {}]]], "config": {"activation": "relu", "trainable": false, "name": "activation_54"}, "name": "activation_54"}, {"class_name": "Activation", "inbound_nodes": [[["batch_normalization_59", 0, 0, {}]]], "config": {"activation": "relu", "trainable": false, "name": "activation_59"}, "name": "activation_59"}, {"class_name": "Activation", "inbound_nodes": [[["batch_normalization_60", 0, 0, {}]]], "config": {"activation": "relu", "trainable": false, "name": "activation_60"}, "name": "activation_60"}, {"class_name": "Concatenate", "inbound_nodes": [[["activation_51", 0, 0, {}], ["activation_54", 0, 0, {}], ["activation_59", 0, 0, {}], ["activation_60", 0, 0, {}]]], "config": {"axis": 3, "trainable": false, "name": "mixed6"}, "name": "mixed6"}, {"class_name": "Conv2D", "inbound_nodes": [[["mixed6", 0, 0, {}]]], "config": {"activity_regularizer": null, "kernel_initializer": {"class_name": "VarianceScaling", "config": {"scale": 1.0, "mode": "fan_avg", "distribution": "uniform", "seed": null}}, "bias_constraint": null, "padding": "same", "filters": 192, "kernel_size": [1, 1], "bias_initializer": {"class_name": "Zeros", "config": {}}, "use_bias": false, "trainable": false, "strides": [1, 1], "data_format": "channels_last", "dilation_rate": [1, 1], "bias_regularizer": null, "kernel_constraint": null, "activation": "linear", "name": "conv2d_65", "kernel_regularizer": null}, "name": "conv2d_65"}, {"class_name": "BatchNormalization", "inbound_nodes": [[["conv2d_65", 0, 0, {}]]], "config": {"scale": false, "gamma_regularizer": null, "moving_mean_initializer": {"class_name": "Zeros", "config": {}}, "gamma_constraint": null, "axis": 3, "beta_constraint": null, "beta_regularizer": null, "epsilon": 0.001, "trainable": false, "moving_variance_initializer": {"class_name": "Ones", "config": {}}, "gamma_initializer": {"class_name": "Ones", "config": {}}, "beta_initializer": {"class_name": "Zeros", "config": {}}, "center": true, "momentum": 0.99, "name": "batch_normalization_65"}, "name": "batch_normalization_65"}, {"class_name": "Activation", "inbound_nodes": [[["batch_normalization_65", 0, 0, {}]]], "config": {"activation": "relu", "trainable": false, "name": "activation_65"}, "name": "activation_65"}, {"class_name": "Conv2D", "inbound_nodes": [[["activation_65", 0, 0, {}]]], "config": {"activity_regularizer": null, "kernel_initializer": {"class_name": "VarianceScaling", "config": {"scale": 1.0, "mode": "fan_avg", "distribution": "uniform", "seed": null}}, "bias_constraint": null, "padding": "same", "filters": 192, "kernel_size": [7, 1], "bias_initializer": {"class_name": "Zeros", "config": {}}, "use_bias": false, "trainable": false, "strides": [1, 1], "data_format": "channels_last", "dilation_rate": [1, 1], "bias_regularizer": null, "kernel_constraint": null, "activation": "linear", "name": "conv2d_66", "kernel_regularizer": null}, "name": "conv2d_66"}, {"class_name": "BatchNormalization", "inbound_nodes": [[["conv2d_66", 0, 0, {}]]], "config": {"scale": false, "gamma_regularizer": null, "moving_mean_initializer": {"class_name": "Zeros", "config": {}}, "gamma_constraint": null, "axis": 3, "beta_constraint": null, "beta_regularizer": null, "epsilon": 0.001, "trainable": false, "moving_variance_initializer": {"class_name": "Ones", "config": {}}, "gamma_initializer": {"class_name": "Ones", "config": {}}, "beta_initializer": {"class_name": "Zeros", "config": {}}, "center": true, "momentum": 0.99, "name": "batch_normalization_66"}, "name": "batch_normalization_66"}, {"class_name": "Activation", "inbound_nodes": [[["batch_normalization_66", 0, 0, {}]]], "config": {"activation": "relu", "trainable": false, "name": "activation_66"}, "name": "activation_66"}, {"class_name": "Conv2D", "inbound_nodes": [[["mixed6", 0, 0, {}]]], "config": {"activity_regularizer": null, "kernel_initializer": {"class_name": "VarianceScaling", "config": {"scale": 1.0, "mode": "fan_avg", "distribution": "uniform", "seed": null}}, "bias_constraint": null, "padding": "same", "filters": 192, "kernel_size": [1, 1], "bias_initializer": {"class_name": "Zeros", "config": {}}, "use_bias": false, "trainable": false, "strides": [1, 1], "data_format": "channels_last", "dilation_rate": [1, 1], "bias_regularizer": null, "kernel_constraint": null, "activation": "linear", "name": "conv2d_62", "kernel_regularizer": null}, "name": "conv2d_62"}, {"class_name": "Conv2D", "inbound_nodes": [[["activation_66", 0, 0, {}]]], "config": {"activity_regularizer": null, "kernel_initializer": {"class_name": "VarianceScaling", "config": {"scale": 1.0, "mode": "fan_avg", "distribution": "uniform", "seed": null}}, "bias_constraint": null, "padding": "same", "filters": 192, "kernel_size": [1, 7], "bias_initializer": {"class_name": "Zeros", "config": {}}, "use_bias": false, "trainable": false, "strides": [1, 1], "data_format": "channels_last", "dilation_rate": [1, 1], "bias_regularizer": null, "kernel_constraint": null, "activation": "linear", "name": "conv2d_67", "kernel_regularizer": null}, "name": "conv2d_67"}, {"class_name": "BatchNormalization", "inbound_nodes": [[["conv2d_62", 0, 0, {}]]], "config": {"scale": false, "gamma_regularizer": null, "moving_mean_initializer": {"class_name": "Zeros", "config": {}}, "gamma_constraint": null, "axis": 3, "beta_constraint": null, "beta_regularizer": null, "epsilon": 0.001, "trainable": false, "moving_variance_initializer": {"class_name": "Ones", "config": {}}, "gamma_initializer": {"class_name": "Ones", "config": {}}, "beta_initializer": {"class_name": "Zeros", "config": {}}, "center": true, "momentum": 0.99, "name": "batch_normalization_62"}, "name": "batch_normalization_62"}, {"class_name": "BatchNormalization", "inbound_nodes": [[["conv2d_67", 0, 0, {}]]], "config": {"scale": false, "gamma_regularizer": null, "moving_mean_initializer": {"class_name": "Zeros", "config": {}}, "gamma_constraint": null, "axis": 3, "beta_constraint": null, "beta_regularizer": null, "epsilon": 0.001, "trainable": false, "moving_variance_initializer": {"class_name": "Ones", "config": {}}, "gamma_initializer": {"class_name": "Ones", "config": {}}, "beta_initializer": {"class_name": "Zeros", "config": {}}, "center": true, "momentum": 0.99, "name": "batch_normalization_67"}, "name": "batch_normalization_67"}, {"class_name": "Activation", "inbound_nodes": [[["batch_normalization_62", 0, 0, {}]]], "config": {"activation": "relu", "trainable": false, "name": "activation_62"}, "name": "activation_62"}, {"class_name": "Activation", "inbound_nodes": [[["batch_normalization_67", 0, 0, {}]]], "config": {"activation": "relu", "trainable": false, "name": "activation_67"}, "name": "activation_67"}, {"class_name": "Conv2D", "inbound_nodes": [[["activation_62", 0, 0, {}]]], "config": {"activity_regularizer": null, "kernel_initializer": {"class_name": "VarianceScaling", "config": {"scale": 1.0, "mode": "fan_avg", "distribution": "uniform", "seed": null}}, "bias_constraint": null, "padding": "same", "filters": 192, "kernel_size": [1, 7], "bias_initializer": {"class_name": "Zeros", "config": {}}, "use_bias": false, "trainable": false, "strides": [1, 1], "data_format": "channels_last", "dilation_rate": [1, 1], "bias_regularizer": null, "kernel_constraint": null, "activation": "linear", "name": "conv2d_63", "kernel_regularizer": null}, "name": "conv2d_63"}, {"class_name": "Conv2D", "inbound_nodes": [[["activation_67", 0, 0, {}]]], "config": {"activity_regularizer": null, "kernel_initializer": {"class_name": "VarianceScaling", "config": {"scale": 1.0, "mode": "fan_avg", "distribution": "uniform", "seed": null}}, "bias_constraint": null, "padding": "same", "filters": 192, "kernel_size": [7, 1], "bias_initializer": {"class_name": "Zeros", "config": {}}, "use_bias": false, "trainable": false, "strides": [1, 1], "data_format": "channels_last", "dilation_rate": [1, 1], "bias_regularizer": null, "kernel_constraint": null, "activation": "linear", "name": "conv2d_68", "kernel_regularizer": null}, "name": "conv2d_68"}, {"class_name": "BatchNormalization", "inbound_nodes": [[["conv2d_63", 0, 0, {}]]], "config": {"scale": false, "gamma_regularizer": null, "moving_mean_initializer": {"class_name": "Zeros", "config": {}}, "gamma_constraint": null, "axis": 3, "beta_constraint": null, "beta_regularizer": null, "epsilon": 0.001, "trainable": false, "moving_variance_initializer": {"class_name": "Ones", "config": {}}, "gamma_initializer": {"class_name": "Ones", "config": {}}, "beta_initializer": {"class_name": "Zeros", "config": {}}, "center": true, "momentum": 0.99, "name": "batch_normalization_63"}, "name": "batch_normalization_63"}, {"class_name": "BatchNormalization", "inbound_nodes": [[["conv2d_68", 0, 0, {}]]], "config": {"scale": false, "gamma_regularizer": null, "moving_mean_initializer": {"class_name": "Zeros", "config": {}}, "gamma_constraint": null, "axis": 3, "beta_constraint": null, "beta_regularizer": null, "epsilon": 0.001, "trainable": false, "moving_variance_initializer": {"class_name": "Ones", "config": {}}, "gamma_initializer": {"class_name": "Ones", "config": {}}, "beta_initializer": {"class_name": "Zeros", "config": {}}, "center": true, "momentum": 0.99, "name": "batch_normalization_68"}, "name": "batch_normalization_68"}, {"class_name": "Activation", "inbound_nodes": [[["batch_normalization_63", 0, 0, {}]]], "config": {"activation": "relu", "trainable": false, "name": "activation_63"}, "name": "activation_63"}, {"class_name": "Activation", "inbound_nodes": [[["batch_normalization_68", 0, 0, {}]]], "config": {"activation": "relu", "trainable": false, "name": "activation_68"}, "name": "activation_68"}, {"class_name": "AveragePooling2D", "inbound_nodes": [[["mixed6", 0, 0, {}]]], "config": {"pool_size": [3, 3], "trainable": false, "name": "average_pooling2d_7", "data_format": "channels_last", "strides": [1, 1], "padding": "same"}, "name": "average_pooling2d_7"}, {"class_name": "Conv2D", "inbound_nodes": [[["mixed6", 0, 0, {}]]], "config": {"activity_regularizer": null, "kernel_initializer": {"class_name": "VarianceScaling", "config": {"scale": 1.0, "mode": "fan_avg", "distribution": "uniform", "seed": null}}, "bias_constraint": null, "padding": "same", "filters": 192, "kernel_size": [1, 1], "bias_initializer": {"class_name": "Zeros", "config": {}}, "use_bias": false, "trainable": false, "strides": [1, 1], "data_format": "channels_last", "dilation_rate": [1, 1], "bias_regularizer": null, "kernel_constraint": null, "activation": "linear", "name": "conv2d_61", "kernel_regularizer": null}, "name": "conv2d_61"}, {"class_name": "Conv2D", "inbound_nodes": [[["activation_63", 0, 0, {}]]], "config": {"activity_regularizer": null, "kernel_initializer": {"class_name": "VarianceScaling", "config": {"scale": 1.0, "mode": "fan_avg", "distribution": "uniform", "seed": null}}, "bias_constraint": null, "padding": "same", "filters": 192, "kernel_size": [7, 1], "bias_initializer": {"class_name": "Zeros", "config": {}}, "use_bias": false, "trainable": false, "strides": [1, 1], "data_format": "channels_last", "dilation_rate": [1, 1], "bias_regularizer": null, "kernel_constraint": null, "activation": "linear", "name": "conv2d_64", "kernel_regularizer": null}, "name": "conv2d_64"}, {"class_name": "Conv2D", "inbound_nodes": [[["activation_68", 0, 0, {}]]], "config": {"activity_regularizer": null, "kernel_initializer": {"class_name": "VarianceScaling", "config": {"scale": 1.0, "mode": "fan_avg", "distribution": "uniform", "seed": null}}, "bias_constraint": null, "padding": "same", "filters": 192, "kernel_size": [1, 7], "bias_initializer": {"class_name": "Zeros", "config": {}}, "use_bias": false, "trainable": false, "strides": [1, 1], "data_format": "channels_last", "dilation_rate": [1, 1], "bias_regularizer": null, "kernel_constraint": null, "activation": "linear", "name": "conv2d_69", "kernel_regularizer": null}, "name": "conv2d_69"}, {"class_name": "Conv2D", "inbound_nodes": [[["average_pooling2d_7", 0, 0, {}]]], "config": {"activity_regularizer": null, "kernel_initializer": {"class_name": "VarianceScaling", "config": {"scale": 1.0, "mode": "fan_avg", "distribution": "uniform", "seed": null}}, "bias_constraint": null, "padding": "same", "filters": 192, "kernel_size": [1, 1], "bias_initializer": {"class_name": "Zeros", "config": {}}, "use_bias": false, "trainable": false, "strides": [1, 1], "data_format": "channels_last", "dilation_rate": [1, 1], "bias_regularizer": null, "kernel_constraint": null, "activation": "linear", "name": "conv2d_70", "kernel_regularizer": null}, "name": "conv2d_70"}, {"class_name": "BatchNormalization", "inbound_nodes": [[["conv2d_61", 0, 0, {}]]], "config": {"scale": false, "gamma_regularizer": null, "moving_mean_initializer": {"class_name": "Zeros", "config": {}}, "gamma_constraint": null, "axis": 3, "beta_constraint": null, "beta_regularizer": null, "epsilon": 0.001, "trainable": false, "moving_variance_initializer": {"class_name": "Ones", "config": {}}, "gamma_initializer": {"class_name": "Ones", "config": {}}, "beta_initializer": {"class_name": "Zeros", "config": {}}, "center": true, "momentum": 0.99, "name": "batch_normalization_61"}, "name": "batch_normalization_61"}, {"class_name": "BatchNormalization", "inbound_nodes": [[["conv2d_64", 0, 0, {}]]], "config": {"scale": false, "gamma_regularizer": null, "moving_mean_initializer": {"class_name": "Zeros", "config": {}}, "gamma_constraint": null, "axis": 3, "beta_constraint": null, "beta_regularizer": null, "epsilon": 0.001, "trainable": false, "moving_variance_initializer": {"class_name": "Ones", "config": {}}, "gamma_initializer": {"class_name": "Ones", "config": {}}, "beta_initializer": {"class_name": "Zeros", "config": {}}, "center": true, "momentum": 0.99, "name": "batch_normalization_64"}, "name": "batch_normalization_64"}, {"class_name": "BatchNormalization", "inbound_nodes": [[["conv2d_69", 0, 0, {}]]], "config": {"scale": false, "gamma_regularizer": null, "moving_mean_initializer": {"class_name": "Zeros", "config": {}}, "gamma_constraint": null, "axis": 3, "beta_constraint": null, "beta_regularizer": null, "epsilon": 0.001, "trainable": false, "moving_variance_initializer": {"class_name": "Ones", "config": {}}, "gamma_initializer": {"class_name": "Ones", "config": {}}, "beta_initializer": {"class_name": "Zeros", "config": {}}, "center": true, "momentum": 0.99, "name": "batch_normalization_69"}, "name": "batch_normalization_69"}, {"class_name": "BatchNormalization", "inbound_nodes": [[["conv2d_70", 0, 0, {}]]], "config": {"scale": false, "gamma_regularizer": null, "moving_mean_initializer": {"class_name": "Zeros", "config": {}}, "gamma_constraint": null, "axis": 3, "beta_constraint": null, "beta_regularizer": null, "epsilon": 0.001, "trainable": false, "moving_variance_initializer": {"class_name": "Ones", "config": {}}, "gamma_initializer": {"class_name": "Ones", "config": {}}, "beta_initializer": {"class_name": "Zeros", "config": {}}, "center": true, "momentum": 0.99, "name": "batch_normalization_70"}, "name": "batch_normalization_70"}, {"class_name": "Activation", "inbound_nodes": [[["batch_normalization_61", 0, 0, {}]]], "config": {"activation": "relu", "trainable": false, "name": "activation_61"}, "name": "activation_61"}, {"class_name": "Activation", "inbound_nodes": [[["batch_normalization_64", 0, 0, {}]]], "config": {"activation": "relu", "trainable": false, "name": "activation_64"}, "name": "activation_64"}, {"class_name": "Activation", "inbound_nodes": [[["batch_normalization_69", 0, 0, {}]]], "config": {"activation": "relu", "trainable": false, "name": "activation_69"}, "name": "activation_69"}, {"class_name": "Activation", "inbound_nodes": [[["batch_normalization_70", 0, 0, {}]]], "config": {"activation": "relu", "trainable": false, "name": "activation_70"}, "name": "activation_70"}, {"class_name": "Concatenate", "inbound_nodes": [[["activation_61", 0, 0, {}], ["activation_64", 0, 0, {}], ["activation_69", 0, 0, {}], ["activation_70", 0, 0, {}]]], "config": {"axis": 3, "trainable": false, "name": "mixed7"}, "name": "mixed7"}, {"class_name": "Conv2D", "inbound_nodes": [[["mixed7", 0, 0, {}]]], "config": {"activity_regularizer": null, "kernel_initializer": {"class_name": "VarianceScaling", "config": {"scale": 1.0, "mode": "fan_avg", "distribution": "uniform", "seed": null}}, "bias_constraint": null, "padding": "same", "filters": 192, "kernel_size": [1, 1], "bias_initializer": {"class_name": "Zeros", "config": {}}, "use_bias": false, "trainable": false, "strides": [1, 1], "data_format": "channels_last", "dilation_rate": [1, 1], "bias_regularizer": null, "kernel_constraint": null, "activation": "linear", "name": "conv2d_73", "kernel_regularizer": null}, "name": "conv2d_73"}, {"class_name": "BatchNormalization", "inbound_nodes": [[["conv2d_73", 0, 0, {}]]], "config": {"scale": false, "gamma_regularizer": null, "moving_mean_initializer": {"class_name": "Zeros", "config": {}}, "gamma_constraint": null, "axis": 3, "beta_constraint": null, "beta_regularizer": null, "epsilon": 0.001, "trainable": false, "moving_variance_initializer": {"class_name": "Ones", "config": {}}, "gamma_initializer": {"class_name": "Ones", "config": {}}, "beta_initializer": {"class_name": "Zeros", "config": {}}, "center": true, "momentum": 0.99, "name": "batch_normalization_73"}, "name": "batch_normalization_73"}, {"class_name": "Activation", "inbound_nodes": [[["batch_normalization_73", 0, 0, {}]]], "config": {"activation": "relu", "trainable": false, "name": "activation_73"}, "name": "activation_73"}, {"class_name": "Conv2D", "inbound_nodes": [[["activation_73", 0, 0, {}]]], "config": {"activity_regularizer": null, "kernel_initializer": {"class_name": "VarianceScaling", "config": {"scale": 1.0, "mode": "fan_avg", "distribution": "uniform", "seed": null}}, "bias_constraint": null, "padding": "same", "filters": 192, "kernel_size": [1, 7], "bias_initializer": {"class_name": "Zeros", "config": {}}, "use_bias": false, "trainable": false, "strides": [1, 1], "data_format": "channels_last", "dilation_rate": [1, 1], "bias_regularizer": null, "kernel_constraint": null, "activation": "linear", "name": "conv2d_74", "kernel_regularizer": null}, "name": "conv2d_74"}, {"class_name": "BatchNormalization", "inbound_nodes": [[["conv2d_74", 0, 0, {}]]], "config": {"scale": false, "gamma_regularizer": null, "moving_mean_initializer": {"class_name": "Zeros", "config": {}}, "gamma_constraint": null, "axis": 3, "beta_constraint": null, "beta_regularizer": null, "epsilon": 0.001, "trainable": false, "moving_variance_initializer": {"class_name": "Ones", "config": {}}, "gamma_initializer": {"class_name": "Ones", "config": {}}, "beta_initializer": {"class_name": "Zeros", "config": {}}, "center": true, "momentum": 0.99, "name": "batch_normalization_74"}, "name": "batch_normalization_74"}, {"class_name": "Activation", "inbound_nodes": [[["batch_normalization_74", 0, 0, {}]]], "config": {"activation": "relu", "trainable": false, "name": "activation_74"}, "name": "activation_74"}, {"class_name": "Conv2D", "inbound_nodes": [[["mixed7", 0, 0, {}]]], "config": {"activity_regularizer": null, "kernel_initializer": {"class_name": "VarianceScaling", "config": {"scale": 1.0, "mode": "fan_avg", "distribution": "uniform", "seed": null}}, "bias_constraint": null, "padding": "same", "filters": 192, "kernel_size": [1, 1], "bias_initializer": {"class_name": "Zeros", "config": {}}, "use_bias": false, "trainable": false, "strides": [1, 1], "data_format": "channels_last", "dilation_rate": [1, 1], "bias_regularizer": null, "kernel_constraint": null, "activation": "linear", "name": "conv2d_71", "kernel_regularizer": null}, "name": "conv2d_71"}, {"class_name": "Conv2D", "inbound_nodes": [[["activation_74", 0, 0, {}]]], "config": {"activity_regularizer": null, "kernel_initializer": {"class_name": "VarianceScaling", "config": {"scale": 1.0, "mode": "fan_avg", "distribution": "uniform", "seed": null}}, "bias_constraint": null, "padding": "same", "filters": 192, "kernel_size": [7, 1], "bias_initializer": {"class_name": "Zeros", "config": {}}, "use_bias": false, "trainable": false, "strides": [1, 1], "data_format": "channels_last", "dilation_rate": [1, 1], "bias_regularizer": null, "kernel_constraint": null, "activation": "linear", "name": "conv2d_75", "kernel_regularizer": null}, "name": "conv2d_75"}, {"class_name": "BatchNormalization", "inbound_nodes": [[["conv2d_71", 0, 0, {}]]], "config": {"scale": false, "gamma_regularizer": null, "moving_mean_initializer": {"class_name": "Zeros", "config": {}}, "gamma_constraint": null, "axis": 3, "beta_constraint": null, "beta_regularizer": null, "epsilon": 0.001, "trainable": false, "moving_variance_initializer": {"class_name": "Ones", "config": {}}, "gamma_initializer": {"class_name": "Ones", "config": {}}, "beta_initializer": {"class_name": "Zeros", "config": {}}, "center": true, "momentum": 0.99, "name": "batch_normalization_71"}, "name": "batch_normalization_71"}, {"class_name": "BatchNormalization", "inbound_nodes": [[["conv2d_75", 0, 0, {}]]], "config": {"scale": false, "gamma_regularizer": null, "moving_mean_initializer": {"class_name": "Zeros", "config": {}}, "gamma_constraint": null, "axis": 3, "beta_constraint": null, "beta_regularizer": null, "epsilon": 0.001, "trainable": false, "moving_variance_initializer": {"class_name": "Ones", "config": {}}, "gamma_initializer": {"class_name": "Ones", "config": {}}, "beta_initializer": {"class_name": "Zeros", "config": {}}, "center": true, "momentum": 0.99, "name": "batch_normalization_75"}, "name": "batch_normalization_75"}, {"class_name": "Activation", "inbound_nodes": [[["batch_normalization_71", 0, 0, {}]]], "config": {"activation": "relu", "trainable": false, "name": "activation_71"}, "name": "activation_71"}, {"class_name": "Activation", "inbound_nodes": [[["batch_normalization_75", 0, 0, {}]]], "config": {"activation": "relu", "trainable": false, "name": "activation_75"}, "name": "activation_75"}, {"class_name": "Conv2D", "inbound_nodes": [[["activation_71", 0, 0, {}]]], "config": {"activity_regularizer": null, "kernel_initializer": {"class_name": "VarianceScaling", "config": {"scale": 1.0, "mode": "fan_avg", "distribution": "uniform", "seed": null}}, "bias_constraint": null, "padding": "valid", "filters": 320, "kernel_size": [3, 3], "bias_initializer": {"class_name": "Zeros", "config": {}}, "use_bias": false, "trainable": false, "strides": [2, 2], "data_format": "channels_last", "dilation_rate": [1, 1], "bias_regularizer": null, "kernel_constraint": null, "activation": "linear", "name": "conv2d_72", "kernel_regularizer": null}, "name": "conv2d_72"}, {"class_name": "Conv2D", "inbound_nodes": [[["activation_75", 0, 0, {}]]], "config": {"activity_regularizer": null, "kernel_initializer": {"class_name": "VarianceScaling", "config": {"scale": 1.0, "mode": "fan_avg", "distribution": "uniform", "seed": null}}, "bias_constraint": null, "padding": "valid", "filters": 192, "kernel_size": [3, 3], "bias_initializer": {"class_name": "Zeros", "config": {}}, "use_bias": false, "trainable": false, "strides": [2, 2], "data_format": "channels_last", "dilation_rate": [1, 1], "bias_regularizer": null, "kernel_constraint": null, "activation": "linear", "name": "conv2d_76", "kernel_regularizer": null}, "name": "conv2d_76"}, {"class_name": "BatchNormalization", "inbound_nodes": [[["conv2d_72", 0, 0, {}]]], "config": {"scale": false, "gamma_regularizer": null, "moving_mean_initializer": {"class_name": "Zeros", "config": {}}, "gamma_constraint": null, "axis": 3, "beta_constraint": null, "beta_regularizer": null, "epsilon": 0.001, "trainable": false, "moving_variance_initializer": {"class_name": "Ones", "config": {}}, "gamma_initializer": {"class_name": "Ones", "config": {}}, "beta_initializer": {"class_name": "Zeros", "config": {}}, "center": true, "momentum": 0.99, "name": "batch_normalization_72"}, "name": "batch_normalization_72"}, {"class_name": "BatchNormalization", "inbound_nodes": [[["conv2d_76", 0, 0, {}]]], "config": {"scale": false, "gamma_regularizer": null, "moving_mean_initializer": {"class_name": "Zeros", "config": {}}, "gamma_constraint": null, "axis": 3, "beta_constraint": null, "beta_regularizer": null, "epsilon": 0.001, "trainable": false, "moving_variance_initializer": {"class_name": "Ones", "config": {}}, "gamma_initializer": {"class_name": "Ones", "config": {}}, "beta_initializer": {"class_name": "Zeros", "config": {}}, "center": true, "momentum": 0.99, "name": "batch_normalization_76"}, "name": "batch_normalization_76"}, {"class_name": "Activation", "inbound_nodes": [[["batch_normalization_72", 0, 0, {}]]], "config": {"activation": "relu", "trainable": false, "name": "activation_72"}, "name": "activation_72"}, {"class_name": "Activation", "inbound_nodes": [[["batch_normalization_76", 0, 0, {}]]], "config": {"activation": "relu", "trainable": false, "name": "activation_76"}, "name": "activation_76"}, {"class_name": "MaxPooling2D", "inbound_nodes": [[["mixed7", 0, 0, {}]]], "config": {"pool_size": [3, 3], "trainable": false, "name": "max_pooling2d_4", "data_format": "channels_last", "strides": [2, 2], "padding": "valid"}, "name": "max_pooling2d_4"}, {"class_name": "Concatenate", "inbound_nodes": [[["activation_72", 0, 0, {}], ["activation_76", 0, 0, {}], ["max_pooling2d_4", 0, 0, {}]]], "config": {"axis": 3, "trainable": false, "name": "mixed8"}, "name": "mixed8"}, {"class_name": "Conv2D", "inbound_nodes": [[["mixed8", 0, 0, {}]]], "config": {"activity_regularizer": null, "kernel_initializer": {"class_name": "VarianceScaling", "config": {"scale": 1.0, "mode": "fan_avg", "distribution": "uniform", "seed": null}}, "bias_constraint": null, "padding": "same", "filters": 448, "kernel_size": [1, 1], "bias_initializer": {"class_name": "Zeros", "config": {}}, "use_bias": false, "trainable": false, "strides": [1, 1], "data_format": "channels_last", "dilation_rate": [1, 1], "bias_regularizer": null, "kernel_constraint": null, "activation": "linear", "name": "conv2d_81", "kernel_regularizer": null}, "name": "conv2d_81"}, {"class_name": "BatchNormalization", "inbound_nodes": [[["conv2d_81", 0, 0, {}]]], "config": {"scale": false, "gamma_regularizer": null, "moving_mean_initializer": {"class_name": "Zeros", "config": {}}, "gamma_constraint": null, "axis": 3, "beta_constraint": null, "beta_regularizer": null, "epsilon": 0.001, "trainable": false, "moving_variance_initializer": {"class_name": "Ones", "config": {}}, "gamma_initializer": {"class_name": "Ones", "config": {}}, "beta_initializer": {"class_name": "Zeros", "config": {}}, "center": true, "momentum": 0.99, "name": "batch_normalization_81"}, "name": "batch_normalization_81"}, {"class_name": "Activation", "inbound_nodes": [[["batch_normalization_81", 0, 0, {}]]], "config": {"activation": "relu", "trainable": false, "name": "activation_81"}, "name": "activation_81"}, {"class_name": "Conv2D", "inbound_nodes": [[["mixed8", 0, 0, {}]]], "config": {"activity_regularizer": null, "kernel_initializer": {"class_name": "VarianceScaling", "config": {"scale": 1.0, "mode": "fan_avg", "distribution": "uniform", "seed": null}}, "bias_constraint": null, "padding": "same", "filters": 384, "kernel_size": [1, 1], "bias_initializer": {"class_name": "Zeros", "config": {}}, "use_bias": false, "trainable": false, "strides": [1, 1], "data_format": "channels_last", "dilation_rate": [1, 1], "bias_regularizer": null, "kernel_constraint": null, "activation": "linear", "name": "conv2d_78", "kernel_regularizer": null}, "name": "conv2d_78"}, {"class_name": "Conv2D", "inbound_nodes": [[["activation_81", 0, 0, {}]]], "config": {"activity_regularizer": null, "kernel_initializer": {"class_name": "VarianceScaling", "config": {"scale": 1.0, "mode": "fan_avg", "distribution": "uniform", "seed": null}}, "bias_constraint": null, "padding": "same", "filters": 384, "kernel_size": [3, 3], "bias_initializer": {"class_name": "Zeros", "config": {}}, "use_bias": false, "trainable": false, "strides": [1, 1], "data_format": "channels_last", "dilation_rate": [1, 1], "bias_regularizer": null, "kernel_constraint": null, "activation": "linear", "name": "conv2d_82", "kernel_regularizer": null}, "name": "conv2d_82"}, {"class_name": "BatchNormalization", "inbound_nodes": [[["conv2d_78", 0, 0, {}]]], "config": {"scale": false, "gamma_regularizer": null, "moving_mean_initializer": {"class_name": "Zeros", "config": {}}, "gamma_constraint": null, "axis": 3, "beta_constraint": null, "beta_regularizer": null, "epsilon": 0.001, "trainable": false, "moving_variance_initializer": {"class_name": "Ones", "config": {}}, "gamma_initializer": {"class_name": "Ones", "config": {}}, "beta_initializer": {"class_name": "Zeros", "config": {}}, "center": true, "momentum": 0.99, "name": "batch_normalization_78"}, "name": "batch_normalization_78"}, {"class_name": "BatchNormalization", "inbound_nodes": [[["conv2d_82", 0, 0, {}]]], "config": {"scale": false, "gamma_regularizer": null, "moving_mean_initializer": {"class_name": "Zeros", "config": {}}, "gamma_constraint": null, "axis": 3, "beta_constraint": null, "beta_regularizer": null, "epsilon": 0.001, "trainable": false, "moving_variance_initializer": {"class_name": "Ones", "config": {}}, "gamma_initializer": {"class_name": "Ones", "config": {}}, "beta_initializer": {"class_name": "Zeros", "config": {}}, "center": true, "momentum": 0.99, "name": "batch_normalization_82"}, "name": "batch_normalization_82"}, {"class_name": "Activation", "inbound_nodes": [[["batch_normalization_78", 0, 0, {}]]], "config": {"activation": "relu", "trainable": false, "name": "activation_78"}, "name": "activation_78"}, {"class_name": "Activation", "inbound_nodes": [[["batch_normalization_82", 0, 0, {}]]], "config": {"activation": "relu", "trainable": false, "name": "activation_82"}, "name": "activation_82"}, {"class_name": "Conv2D", "inbound_nodes": [[["activation_78", 0, 0, {}]]], "config": {"activity_regularizer": null, "kernel_initializer": {"class_name": "VarianceScaling", "config": {"scale": 1.0, "mode": "fan_avg", "distribution": "uniform", "seed": null}}, "bias_constraint": null, "padding": "same", "filters": 384, "kernel_size": [1, 3], "bias_initializer": {"class_name": "Zeros", "config": {}}, "use_bias": false, "trainable": false, "strides": [1, 1], "data_format": "channels_last", "dilation_rate": [1, 1], "bias_regularizer": null, "kernel_constraint": null, "activation": "linear", "name": "conv2d_79", "kernel_regularizer": null}, "name": "conv2d_79"}, {"class_name": "Conv2D", "inbound_nodes": [[["activation_78", 0, 0, {}]]], "config": {"activity_regularizer": null, "kernel_initializer": {"class_name": "VarianceScaling", "config": {"scale": 1.0, "mode": "fan_avg", "distribution": "uniform", "seed": null}}, "bias_constraint": null, "padding": "same", "filters": 384, "kernel_size": [3, 1], "bias_initializer": {"class_name": "Zeros", "config": {}}, "use_bias": false, "trainable": false, "strides": [1, 1], "data_format": "channels_last", "dilation_rate": [1, 1], "bias_regularizer": null, "kernel_constraint": null, "activation": "linear", "name": "conv2d_80", "kernel_regularizer": null}, "name": "conv2d_80"}, {"class_name": "Conv2D", "inbound_nodes": [[["activation_82", 0, 0, {}]]], "config": {"activity_regularizer": null, "kernel_initializer": {"class_name": "VarianceScaling", "config": {"scale": 1.0, "mode": "fan_avg", "distribution": "uniform", "seed": null}}, "bias_constraint": null, "padding": "same", "filters": 384, "kernel_size": [1, 3], "bias_initializer": {"class_name": "Zeros", "config": {}}, "use_bias": false, "trainable": false, "strides": [1, 1], "data_format": "channels_last", "dilation_rate": [1, 1], "bias_regularizer": null, "kernel_constraint": null, "activation": "linear", "name": "conv2d_83", "kernel_regularizer": null}, "name": "conv2d_83"}, {"class_name": "Conv2D", "inbound_nodes": [[["activation_82", 0, 0, {}]]], "config": {"activity_regularizer": null, "kernel_initializer": {"class_name": "VarianceScaling", "config": {"scale": 1.0, "mode": "fan_avg", "distribution": "uniform", "seed": null}}, "bias_constraint": null, "padding": "same", "filters": 384, "kernel_size": [3, 1], "bias_initializer": {"class_name": "Zeros", "config": {}}, "use_bias": false, "trainable": false, "strides": [1, 1], "data_format": "channels_last", "dilation_rate": [1, 1], "bias_regularizer": null, "kernel_constraint": null, "activation": "linear", "name": "conv2d_84", "kernel_regularizer": null}, "name": "conv2d_84"}, {"class_name": "AveragePooling2D", "inbound_nodes": [[["mixed8", 0, 0, {}]]], "config": {"pool_size": [3, 3], "trainable": false, "name": "average_pooling2d_8", "data_format": "channels_last", "strides": [1, 1], "padding": "same"}, "name": "average_pooling2d_8"}, {"class_name": "Conv2D", "inbound_nodes": [[["mixed8", 0, 0, {}]]], "config": {"activity_regularizer": null, "kernel_initializer": {"class_name": "VarianceScaling", "config": {"scale": 1.0, "mode": "fan_avg", "distribution": "uniform", "seed": null}}, "bias_constraint": null, "padding": "same", "filters": 320, "kernel_size": [1, 1], "bias_initializer": {"class_name": "Zeros", "config": {}}, "use_bias": false, "trainable": false, "strides": [1, 1], "data_format": "channels_last", "dilation_rate": [1, 1], "bias_regularizer": null, "kernel_constraint": null, "activation": "linear", "name": "conv2d_77", "kernel_regularizer": null}, "name": "conv2d_77"}, {"class_name": "BatchNormalization", "inbound_nodes": [[["conv2d_79", 0, 0, {}]]], "config": {"scale": false, "gamma_regularizer": null, "moving_mean_initializer": {"class_name": "Zeros", "config": {}}, "gamma_constraint": null, "axis": 3, "beta_constraint": null, "beta_regularizer": null, "epsilon": 0.001, "trainable": false, "moving_variance_initializer": {"class_name": "Ones", "config": {}}, "gamma_initializer": {"class_name": "Ones", "config": {}}, "beta_initializer": {"class_name": "Zeros", "config": {}}, "center": true, "momentum": 0.99, "name": "batch_normalization_79"}, "name": "batch_normalization_79"}, {"class_name": "BatchNormalization", "inbound_nodes": [[["conv2d_80", 0, 0, {}]]], "config": {"scale": false, "gamma_regularizer": null, "moving_mean_initializer": {"class_name": "Zeros", "config": {}}, "gamma_constraint": null, "axis": 3, "beta_constraint": null, "beta_regularizer": null, "epsilon": 0.001, "trainable": false, "moving_variance_initializer": {"class_name": "Ones", "config": {}}, "gamma_initializer": {"class_name": "Ones", "config": {}}, "beta_initializer": {"class_name": "Zeros", "config": {}}, "center": true, "momentum": 0.99, "name": "batch_normalization_80"}, "name": "batch_normalization_80"}, {"class_name": "BatchNormalization", "inbound_nodes": [[["conv2d_83", 0, 0, {}]]], "config": {"scale": false, "gamma_regularizer": null, "moving_mean_initializer": {"class_name": "Zeros", "config": {}}, "gamma_constraint": null, "axis": 3, "beta_constraint": null, "beta_regularizer": null, "epsilon": 0.001, "trainable": false, "moving_variance_initializer": {"class_name": "Ones", "config": {}}, "gamma_initializer": {"class_name": "Ones", "config": {}}, "beta_initializer": {"class_name": "Zeros", "config": {}}, "center": true, "momentum": 0.99, "name": "batch_normalization_83"}, "name": "batch_normalization_83"}, {"class_name": "BatchNormalization", "inbound_nodes": [[["conv2d_84", 0, 0, {}]]], "config": {"scale": false, "gamma_regularizer": null, "moving_mean_initializer": {"class_name": "Zeros", "config": {}}, "gamma_constraint": null, "axis": 3, "beta_constraint": null, "beta_regularizer": null, "epsilon": 0.001, "trainable": false, "moving_variance_initializer": {"class_name": "Ones", "config": {}}, "gamma_initializer": {"class_name": "Ones", "config": {}}, "beta_initializer": {"class_name": "Zeros", "config": {}}, "center": true, "momentum": 0.99, "name": "batch_normalization_84"}, "name": "batch_normalization_84"}, {"class_name": "Conv2D", "inbound_nodes": [[["average_pooling2d_8", 0, 0, {}]]], "config": {"activity_regularizer": null, "kernel_initializer": {"class_name": "VarianceScaling", "config": {"scale": 1.0, "mode": "fan_avg", "distribution": "uniform", "seed": null}}, "bias_constraint": null, "padding": "same", "filters": 192, "kernel_size": [1, 1], "bias_initializer": {"class_name": "Zeros", "config": {}}, "use_bias": false, "trainable": false, "strides": [1, 1], "data_format": "channels_last", "dilation_rate": [1, 1], "bias_regularizer": null, "kernel_constraint": null, "activation": "linear", "name": "conv2d_85", "kernel_regularizer": null}, "name": "conv2d_85"}, {"class_name": "BatchNormalization", "inbound_nodes": [[["conv2d_77", 0, 0, {}]]], "config": {"scale": false, "gamma_regularizer": null, "moving_mean_initializer": {"class_name": "Zeros", "config": {}}, "gamma_constraint": null, "axis": 3, "beta_constraint": null, "beta_regularizer": null, "epsilon": 0.001, "trainable": false, "moving_variance_initializer": {"class_name": "Ones", "config": {}}, "gamma_initializer": {"class_name": "Ones", "config": {}}, "beta_initializer": {"class_name": "Zeros", "config": {}}, "center": true, "momentum": 0.99, "name": "batch_normalization_77"}, "name": "batch_normalization_77"}, {"class_name": "Activation", "inbound_nodes": [[["batch_normalization_79", 0, 0, {}]]], "config": {"activation": "relu", "trainable": false, "name": "activation_79"}, "name": "activation_79"}, {"class_name": "Activation", "inbound_nodes": [[["batch_normalization_80", 0, 0, {}]]], "config": {"activation": "relu", "trainable": false, "name": "activation_80"}, "name": "activation_80"}, {"class_name": "Activation", "inbound_nodes": [[["batch_normalization_83", 0, 0, {}]]], "config": {"activation": "relu", "trainable": false, "name": "activation_83"}, "name": "activation_83"}, {"class_name": "Activation", "inbound_nodes": [[["batch_normalization_84", 0, 0, {}]]], "config": {"activation": "relu", "trainable": false, "name": "activation_84"}, "name": "activation_84"}, {"class_name": "BatchNormalization", "inbound_nodes": [[["conv2d_85", 0, 0, {}]]], "config": {"scale": false, "gamma_regularizer": null, "moving_mean_initializer": {"class_name": "Zeros", "config": {}}, "gamma_constraint": null, "axis": 3, "beta_constraint": null, "beta_regularizer": null, "epsilon": 0.001, "trainable": false, "moving_variance_initializer": {"class_name": "Ones", "config": {}}, "gamma_initializer": {"class_name": "Ones", "config": {}}, "beta_initializer": {"class_name": "Zeros", "config": {}}, "center": true, "momentum": 0.99, "name": "batch_normalization_85"}, "name": "batch_normalization_85"}, {"class_name": "Activation", "inbound_nodes": [[["batch_normalization_77", 0, 0, {}]]], "config": {"activation": "relu", "trainable": false, "name": "activation_77"}, "name": "activation_77"}, {"class_name": "Concatenate", "inbound_nodes": [[["activation_79", 0, 0, {}], ["activation_80", 0, 0, {}]]], "config": {"axis": 3, "trainable": false, "name": "mixed9_0"}, "name": "mixed9_0"}, {"class_name": "Concatenate", "inbound_nodes": [[["activation_83", 0, 0, {}], ["activation_84", 0, 0, {}]]], "config": {"axis": 3, "trainable": false, "name": "concatenate_1"}, "name": "concatenate_1"}, {"class_name": "Activation", "inbound_nodes": [[["batch_normalization_85", 0, 0, {}]]], "config": {"activation": "relu", "trainable": false, "name": "activation_85"}, "name": "activation_85"}, {"class_name": "Concatenate", "inbound_nodes": [[["activation_77", 0, 0, {}], ["mixed9_0", 0, 0, {}], ["concatenate_1", 0, 0, {}], ["activation_85", 0, 0, {}]]], "config": {"axis": 3, "trainable": false, "name": "mixed9"}, "name": "mixed9"}, {"class_name": "Conv2D", "inbound_nodes": [[["mixed9", 0, 0, {}]]], "config": {"activity_regularizer": null, "kernel_initializer": {"class_name": "VarianceScaling", "config": {"scale": 1.0, "mode": "fan_avg", "distribution": "uniform", "seed": null}}, "bias_constraint": null, "padding": "same", "filters": 448, "kernel_size": [1, 1], "bias_initializer": {"class_name": "Zeros", "config": {}}, "use_bias": false, "trainable": false, "strides": [1, 1], "data_format": "channels_last", "dilation_rate": [1, 1], "bias_regularizer": null, "kernel_constraint": null, "activation": "linear", "name": "conv2d_90", "kernel_regularizer": null}, "name": "conv2d_90"}, {"class_name": "BatchNormalization", "inbound_nodes": [[["conv2d_90", 0, 0, {}]]], "config": {"scale": false, "gamma_regularizer": null, "moving_mean_initializer": {"class_name": "Zeros", "config": {}}, "gamma_constraint": null, "axis": 3, "beta_constraint": null, "beta_regularizer": null, "epsilon": 0.001, "trainable": false, "moving_variance_initializer": {"class_name": "Ones", "config": {}}, "gamma_initializer": {"class_name": "Ones", "config": {}}, "beta_initializer": {"class_name": "Zeros", "config": {}}, "center": true, "momentum": 0.99, "name": "batch_normalization_90"}, "name": "batch_normalization_90"}, {"class_name": "Activation", "inbound_nodes": [[["batch_normalization_90", 0, 0, {}]]], "config": {"activation": "relu", "trainable": false, "name": "activation_90"}, "name": "activation_90"}, {"class_name": "Conv2D", "inbound_nodes": [[["mixed9", 0, 0, {}]]], "config": {"activity_regularizer": null, "kernel_initializer": {"class_name": "VarianceScaling", "config": {"scale": 1.0, "mode": "fan_avg", "distribution": "uniform", "seed": null}}, "bias_constraint": null, "padding": "same", "filters": 384, "kernel_size": [1, 1], "bias_initializer": {"class_name": "Zeros", "config": {}}, "use_bias": false, "trainable": false, "strides": [1, 1], "data_format": "channels_last", "dilation_rate": [1, 1], "bias_regularizer": null, "kernel_constraint": null, "activation": "linear", "name": "conv2d_87", "kernel_regularizer": null}, "name": "conv2d_87"}, {"class_name": "Conv2D", "inbound_nodes": [[["activation_90", 0, 0, {}]]], "config": {"activity_regularizer": null, "kernel_initializer": {"class_name": "VarianceScaling", "config": {"scale": 1.0, "mode": "fan_avg", "distribution": "uniform", "seed": null}}, "bias_constraint": null, "padding": "same", "filters": 384, "kernel_size": [3, 3], "bias_initializer": {"class_name": "Zeros", "config": {}}, "use_bias": false, "trainable": false, "strides": [1, 1], "data_format": "channels_last", "dilation_rate": [1, 1], "bias_regularizer": null, "kernel_constraint": null, "activation": "linear", "name": "conv2d_91", "kernel_regularizer": null}, "name": "conv2d_91"}, {"class_name": "BatchNormalization", "inbound_nodes": [[["conv2d_87", 0, 0, {}]]], "config": {"scale": false, "gamma_regularizer": null, "moving_mean_initializer": {"class_name": "Zeros", "config": {}}, "gamma_constraint": null, "axis": 3, "beta_constraint": null, "beta_regularizer": null, "epsilon": 0.001, "trainable": false, "moving_variance_initializer": {"class_name": "Ones", "config": {}}, "gamma_initializer": {"class_name": "Ones", "config": {}}, "beta_initializer": {"class_name": "Zeros", "config": {}}, "center": true, "momentum": 0.99, "name": "batch_normalization_87"}, "name": "batch_normalization_87"}, {"class_name": "BatchNormalization", "inbound_nodes": [[["conv2d_91", 0, 0, {}]]], "config": {"scale": false, "gamma_regularizer": null, "moving_mean_initializer": {"class_name": "Zeros", "config": {}}, "gamma_constraint": null, "axis": 3, "beta_constraint": null, "beta_regularizer": null, "epsilon": 0.001, "trainable": false, "moving_variance_initializer": {"class_name": "Ones", "config": {}}, "gamma_initializer": {"class_name": "Ones", "config": {}}, "beta_initializer": {"class_name": "Zeros", "config": {}}, "center": true, "momentum": 0.99, "name": "batch_normalization_91"}, "name": "batch_normalization_91"}, {"class_name": "Activation", "inbound_nodes": [[["batch_normalization_87", 0, 0, {}]]], "config": {"activation": "relu", "trainable": false, "name": "activation_87"}, "name": "activation_87"}, {"class_name": "Activation", "inbound_nodes": [[["batch_normalization_91", 0, 0, {}]]], "config": {"activation": "relu", "trainable": false, "name": "activation_91"}, "name": "activation_91"}, {"class_name": "Conv2D", "inbound_nodes": [[["activation_87", 0, 0, {}]]], "config": {"activity_regularizer": null, "kernel_initializer": {"class_name": "VarianceScaling", "config": {"scale": 1.0, "mode": "fan_avg", "distribution": "uniform", "seed": null}}, "bias_constraint": null, "padding": "same", "filters": 384, "kernel_size": [1, 3], "bias_initializer": {"class_name": "Zeros", "config": {}}, "use_bias": false, "trainable": false, "strides": [1, 1], "data_format": "channels_last", "dilation_rate": [1, 1], "bias_regularizer": null, "kernel_constraint": null, "activation": "linear", "name": "conv2d_88", "kernel_regularizer": null}, "name": "conv2d_88"}, {"class_name": "Conv2D", "inbound_nodes": [[["activation_87", 0, 0, {}]]], "config": {"activity_regularizer": null, "kernel_initializer": {"class_name": "VarianceScaling", "config": {"scale": 1.0, "mode": "fan_avg", "distribution": "uniform", "seed": null}}, "bias_constraint": null, "padding": "same", "filters": 384, "kernel_size": [3, 1], "bias_initializer": {"class_name": "Zeros", "config": {}}, "use_bias": false, "trainable": false, "strides": [1, 1], "data_format": "channels_last", "dilation_rate": [1, 1], "bias_regularizer": null, "kernel_constraint": null, "activation": "linear", "name": "conv2d_89", "kernel_regularizer": null}, "name": "conv2d_89"}, {"class_name": "Conv2D", "inbound_nodes": [[["activation_91", 0, 0, {}]]], "config": {"activity_regularizer": null, "kernel_initializer": {"class_name": "VarianceScaling", "config": {"scale": 1.0, "mode": "fan_avg", "distribution": "uniform", "seed": null}}, "bias_constraint": null, "padding": "same", "filters": 384, "kernel_size": [1, 3], "bias_initializer": {"class_name": "Zeros", "config": {}}, "use_bias": false, "trainable": false, "strides": [1, 1], "data_format": "channels_last", "dilation_rate": [1, 1], "bias_regularizer": null, "kernel_constraint": null, "activation": "linear", "name": "conv2d_92", "kernel_regularizer": null}, "name": "conv2d_92"}, {"class_name": "Conv2D", "inbound_nodes": [[["activation_91", 0, 0, {}]]], "config": {"activity_regularizer": null, "kernel_initializer": {"class_name": "VarianceScaling", "config": {"scale": 1.0, "mode": "fan_avg", "distribution": "uniform", "seed": null}}, "bias_constraint": null, "padding": "same", "filters": 384, "kernel_size": [3, 1], "bias_initializer": {"class_name": "Zeros", "config": {}}, "use_bias": false, "trainable": false, "strides": [1, 1], "data_format": "channels_last", "dilation_rate": [1, 1], "bias_regularizer": null, "kernel_constraint": null, "activation": "linear", "name": "conv2d_93", "kernel_regularizer": null}, "name": "conv2d_93"}, {"class_name": "AveragePooling2D", "inbound_nodes": [[["mixed9", 0, 0, {}]]], "config": {"pool_size": [3, 3], "trainable": false, "name": "average_pooling2d_9", "data_format": "channels_last", "strides": [1, 1], "padding": "same"}, "name": "average_pooling2d_9"}, {"class_name": "Conv2D", "inbound_nodes": [[["mixed9", 0, 0, {}]]], "config": {"activity_regularizer": null, "kernel_initializer": {"class_name": "VarianceScaling", "config": {"scale": 1.0, "mode": "fan_avg", "distribution": "uniform", "seed": null}}, "bias_constraint": null, "padding": "same", "filters": 320, "kernel_size": [1, 1], "bias_initializer": {"class_name": "Zeros", "config": {}}, "use_bias": false, "trainable": false, "strides": [1, 1], "data_format": "channels_last", "dilation_rate": [1, 1], "bias_regularizer": null, "kernel_constraint": null, "activation": "linear", "name": "conv2d_86", "kernel_regularizer": null}, "name": "conv2d_86"}, {"class_name": "BatchNormalization", "inbound_nodes": [[["conv2d_88", 0, 0, {}]]], "config": {"scale": false, "gamma_regularizer": null, "moving_mean_initializer": {"class_name": "Zeros", "config": {}}, "gamma_constraint": null, "axis": 3, "beta_constraint": null, "beta_regularizer": null, "epsilon": 0.001, "trainable": false, "moving_variance_initializer": {"class_name": "Ones", "config": {}}, "gamma_initializer": {"class_name": "Ones", "config": {}}, "beta_initializer": {"class_name": "Zeros", "config": {}}, "center": true, "momentum": 0.99, "name": "batch_normalization_88"}, "name": "batch_normalization_88"}, {"class_name": "BatchNormalization", "inbound_nodes": [[["conv2d_89", 0, 0, {}]]], "config": {"scale": false, "gamma_regularizer": null, "moving_mean_initializer": {"class_name": "Zeros", "config": {}}, "gamma_constraint": null, "axis": 3, "beta_constraint": null, "beta_regularizer": null, "epsilon": 0.001, "trainable": false, "moving_variance_initializer": {"class_name": "Ones", "config": {}}, "gamma_initializer": {"class_name": "Ones", "config": {}}, "beta_initializer": {"class_name": "Zeros", "config": {}}, "center": true, "momentum": 0.99, "name": "batch_normalization_89"}, "name": "batch_normalization_89"}, {"class_name": "BatchNormalization", "inbound_nodes": [[["conv2d_92", 0, 0, {}]]], "config": {"scale": false, "gamma_regularizer": null, "moving_mean_initializer": {"class_name": "Zeros", "config": {}}, "gamma_constraint": null, "axis": 3, "beta_constraint": null, "beta_regularizer": null, "epsilon": 0.001, "trainable": false, "moving_variance_initializer": {"class_name": "Ones", "config": {}}, "gamma_initializer": {"class_name": "Ones", "config": {}}, "beta_initializer": {"class_name": "Zeros", "config": {}}, "center": true, "momentum": 0.99, "name": "batch_normalization_92"}, "name": "batch_normalization_92"}, {"class_name": "BatchNormalization", "inbound_nodes": [[["conv2d_93", 0, 0, {}]]], "config": {"scale": false, "gamma_regularizer": null, "moving_mean_initializer": {"class_name": "Zeros", "config": {}}, "gamma_constraint": null, "axis": 3, "beta_constraint": null, "beta_regularizer": null, "epsilon": 0.001, "trainable": false, "moving_variance_initializer": {"class_name": "Ones", "config": {}}, "gamma_initializer": {"class_name": "Ones", "config": {}}, "beta_initializer": {"class_name": "Zeros", "config": {}}, "center": true, "momentum": 0.99, "name": "batch_normalization_93"}, "name": "batch_normalization_93"}, {"class_name": "Conv2D", "inbound_nodes": [[["average_pooling2d_9", 0, 0, {}]]], "config": {"activity_regularizer": null, "kernel_initializer": {"class_name": "VarianceScaling", "config": {"scale": 1.0, "mode": "fan_avg", "distribution": "uniform", "seed": null}}, "bias_constraint": null, "padding": "same", "filters": 192, "kernel_size": [1, 1], "bias_initializer": {"class_name": "Zeros", "config": {}}, "use_bias": false, "trainable": false, "strides": [1, 1], "data_format": "channels_last", "dilation_rate": [1, 1], "bias_regularizer": null, "kernel_constraint": null, "activation": "linear", "name": "conv2d_94", "kernel_regularizer": null}, "name": "conv2d_94"}, {"class_name": "BatchNormalization", "inbound_nodes": [[["conv2d_86", 0, 0, {}]]], "config": {"scale": false, "gamma_regularizer": null, "moving_mean_initializer": {"class_name": "Zeros", "config": {}}, "gamma_constraint": null, "axis": 3, "beta_constraint": null, "beta_regularizer": null, "epsilon": 0.001, "trainable": false, "moving_variance_initializer": {"class_name": "Ones", "config": {}}, "gamma_initializer": {"class_name": "Ones", "config": {}}, "beta_initializer": {"class_name": "Zeros", "config": {}}, "center": true, "momentum": 0.99, "name": "batch_normalization_86"}, "name": "batch_normalization_86"}, {"class_name": "Activation", "inbound_nodes": [[["batch_normalization_88", 0, 0, {}]]], "config": {"activation": "relu", "trainable": false, "name": "activation_88"}, "name": "activation_88"}, {"class_name": "Activation", "inbound_nodes": [[["batch_normalization_89", 0, 0, {}]]], "config": {"activation": "relu", "trainable": false, "name": "activation_89"}, "name": "activation_89"}, {"class_name": "Activation", "inbound_nodes": [[["batch_normalization_92", 0, 0, {}]]], "config": {"activation": "relu", "trainable": false, "name": "activation_92"}, "name": "activation_92"}, {"class_name": "Activation", "inbound_nodes": [[["batch_normalization_93", 0, 0, {}]]], "config": {"activation": "relu", "trainable": false, "name": "activation_93"}, "name": "activation_93"}, {"class_name": "BatchNormalization", "inbound_nodes": [[["conv2d_94", 0, 0, {}]]], "config": {"scale": false, "gamma_regularizer": null, "moving_mean_initializer": {"class_name": "Zeros", "config": {}}, "gamma_constraint": null, "axis": 3, "beta_constraint": null, "beta_regularizer": null, "epsilon": 0.001, "trainable": false, "moving_variance_initializer": {"class_name": "Ones", "config": {}}, "gamma_initializer": {"class_name": "Ones", "config": {}}, "beta_initializer": {"class_name": "Zeros", "config": {}}, "center": true, "momentum": 0.99, "name": "batch_normalization_94"}, "name": "batch_normalization_94"}, {"class_name": "Activation", "inbound_nodes": [[["batch_normalization_86", 0, 0, {}]]], "config": {"activation": "relu", "trainable": false, "name": "activation_86"}, "name": "activation_86"}, {"class_name": "Concatenate", "inbound_nodes": [[["activation_88", 0, 0, {}], ["activation_89", 0, 0, {}]]], "config": {"axis": 3, "trainable": false, "name": "mixed9_1"}, "name": "mixed9_1"}, {"class_name": "Concatenate", "inbound_nodes": [[["activation_92", 0, 0, {}], ["activation_93", 0, 0, {}]]], "config": {"axis": 3, "trainable": false, "name": "concatenate_2"}, "name": "concatenate_2"}, {"class_name": "Activation", "inbound_nodes": [[["batch_normalization_94", 0, 0, {}]]], "config": {"activation": "relu", "trainable": false, "name": "activation_94"}, "name": "activation_94"}, {"class_name": "Concatenate", "inbound_nodes": [[["activation_86", 0, 0, {}], ["mixed9_1", 0, 0, {}], ["concatenate_2", 0, 0, {}], ["activation_94", 0, 0, {}]]], "config": {"axis": 3, "trainable": false, "name": "mixed10"}, "name": "mixed10"}, {"class_name": "GlobalAveragePooling2D", "inbound_nodes": [[["mixed10", 0, 0, {}]]], "config": {"trainable": false, "name": "global_average_pooling2d_1", "data_format": "channels_last"}, "name": "global_average_pooling2d_1"}, {"class_name": "Dense", "inbound_nodes": [[["global_average_pooling2d_1", 0, 0, {}]]], "config": {"activity_regularizer": null, "kernel_regularizer": null, "kernel_initializer": {"class_name": "VarianceScaling", "config": {"scale": 1.0, "mode": "fan_avg", "distribution": "uniform", "seed": null}}, "bias_constraint": null, "bias_regularizer": null, "use_bias": true, "trainable": true, "bias_initializer": {"class_name": "Zeros", "config": {}}, "kernel_constraint": null, "activation": "softmax", "name": "dense_1", "units": 2}, "name": "dense_1"}], "name": "model_1", "input_layers": [["input_1", 0, 0]]}, "class_name": "Model"}, "training_config": {"sample_weight_mode": null, "loss_weights": null, "optimizer_config": {"config": {"lr": 0.0010000000474974513, "beta_1": 0.8999999761581421, "beta_2": 0.9990000128746033, "epsilon": 1e-07, "decay": 0.0, "amsgrad": false}, "class_name": "Adam"}, "loss": "categorical_crossentropy", "metrics": ["accuracy"]}}, "weightsManifest": [{"paths": ["group1-shard1of1"], "weights": [{"name": "batch_normalization_1/beta", "shape": [32], "dtype": "float32"}, {"name": "batch_normalization_1/moving_mean", "shape": [32], "dtype": "float32"}, {"name": "batch_normalization_1/moving_variance", "shape": [32], "dtype": "float32"}]}, {"paths": ["group2-shard1of1"], "weights": [{"name": "batch_normalization_10/beta", "shape": [96], "dtype": "float32"}, {"name": "batch_normalization_10/moving_mean", "shape": [96], "dtype": "float32"}, {"name": "batch_normalization_10/moving_variance", "shape": [96], "dtype": "float32"}]}, {"paths": ["group3-shard1of1"], "weights": [{"name": "batch_normalization_11/beta", "shape": [96], "dtype": "float32"}, {"name": "batch_normalization_11/moving_mean", "shape": [96], "dtype": "float32"}, {"name": "batch_normalization_11/moving_variance", "shape": [96], "dtype": "float32"}]}, {"paths": ["group4-shard1of1"], "weights": [{"name": "batch_normalization_12/beta", "shape": [32], "dtype": "float32"}, {"name": "batch_normalization_12/moving_mean", "shape": [32], "dtype": "float32"}, {"name": "batch_normalization_12/moving_variance", "shape": [32], "dtype": "float32"}]}, {"paths": ["group5-shard1of1"], "weights": [{"name": "batch_normalization_13/beta", "shape": [64], "dtype": "float32"}, {"name": "batch_normalization_13/moving_mean", "shape": [64], "dtype": "float32"}, {"name": "batch_normalization_13/moving_variance", "shape": [64], "dtype": "float32"}]}, {"paths": ["group6-shard1of1"], "weights": [{"name": "batch_normalization_14/beta", "shape": [48], "dtype": "float32"}, {"name": "batch_normalization_14/moving_mean", "shape": [48], "dtype": "float32"}, {"name": "batch_normalization_14/moving_variance", "shape": [48], "dtype": "float32"}]}, {"paths": ["group7-shard1of1"], "weights": [{"name": "batch_normalization_15/beta", "shape": [64], "dtype": "float32"}, {"name": "batch_normalization_15/moving_mean", "shape": [64], "dtype": "float32"}, {"name": "batch_normalization_15/moving_variance", "shape": [64], "dtype": "float32"}]}, {"paths": ["group8-shard1of1"], "weights": [{"name": "batch_normalization_16/beta", "shape": [64], "dtype": "float32"}, {"name": "batch_normalization_16/moving_mean", "shape": [64], "dtype": "float32"}, {"name": "batch_normalization_16/moving_variance", "shape": [64], "dtype": "float32"}]}, {"paths": ["group9-shard1of1"], "weights": [{"name": "batch_normalization_17/beta", "shape": [96], "dtype": "float32"}, {"name": "batch_normalization_17/moving_mean", "shape": [96], "dtype": "float32"}, {"name": "batch_normalization_17/moving_variance", "shape": [96], "dtype": "float32"}]}, {"paths": ["group10-shard1of1"], "weights": [{"name": "batch_normalization_18/beta", "shape": [96], "dtype": "float32"}, {"name": "batch_normalization_18/moving_mean", "shape": [96], "dtype": "float32"}, {"name": "batch_normalization_18/moving_variance", "shape": [96], "dtype": "float32"}]}, {"paths": ["group11-shard1of1"], "weights": [{"name": "batch_normalization_19/beta", "shape": [64], "dtype": "float32"}, {"name": "batch_normalization_19/moving_mean", "shape": [64], "dtype": "float32"}, {"name": "batch_normalization_19/moving_variance", "shape": [64], "dtype": "float32"}]}, {"paths": ["group12-shard1of1"], "weights": [{"name": "batch_normalization_2/beta", "shape": [32], "dtype": "float32"}, {"name": "batch_normalization_2/moving_mean", "shape": [32], "dtype": "float32"}, {"name": "batch_normalization_2/moving_variance", "shape": [32], "dtype": "float32"}]}, {"paths": ["group13-shard1of1"], "weights": [{"name": "batch_normalization_20/beta", "shape": [64], "dtype": "float32"}, {"name": "batch_normalization_20/moving_mean", "shape": [64], "dtype": "float32"}, {"name": "batch_normalization_20/moving_variance", "shape": [64], "dtype": "float32"}]}, {"paths": ["group14-shard1of1"], "weights": [{"name": "batch_normalization_21/beta", "shape": [48], "dtype": "float32"}, {"name": "batch_normalization_21/moving_mean", "shape": [48], "dtype": "float32"}, {"name": "batch_normalization_21/moving_variance", "shape": [48], "dtype": "float32"}]}, {"paths": ["group15-shard1of1"], "weights": [{"name": "batch_normalization_22/beta", "shape": [64], "dtype": "float32"}, {"name": "batch_normalization_22/moving_mean", "shape": [64], "dtype": "float32"}, {"name": "batch_normalization_22/moving_variance", "shape": [64], "dtype": "float32"}]}, {"paths": ["group16-shard1of1"], "weights": [{"name": "batch_normalization_23/beta", "shape": [64], "dtype": "float32"}, {"name": "batch_normalization_23/moving_mean", "shape": [64], "dtype": "float32"}, {"name": "batch_normalization_23/moving_variance", "shape": [64], "dtype": "float32"}]}, {"paths": ["group17-shard1of1"], "weights": [{"name": "batch_normalization_24/beta", "shape": [96], "dtype": "float32"}, {"name": "batch_normalization_24/moving_mean", "shape": [96], "dtype": "float32"}, {"name": "batch_normalization_24/moving_variance", "shape": [96], "dtype": "float32"}]}, {"paths": ["group18-shard1of1"], "weights": [{"name": "batch_normalization_25/beta", "shape": [96], "dtype": "float32"}, {"name": "batch_normalization_25/moving_mean", "shape": [96], "dtype": "float32"}, {"name": "batch_normalization_25/moving_variance", "shape": [96], "dtype": "float32"}]}, {"paths": ["group19-shard1of1"], "weights": [{"name": "batch_normalization_26/beta", "shape": [64], "dtype": "float32"}, {"name": "batch_normalization_26/moving_mean", "shape": [64], "dtype": "float32"}, {"name": "batch_normalization_26/moving_variance", "shape": [64], "dtype": "float32"}]}, {"paths": ["group20-shard1of1"], "weights": [{"name": "batch_normalization_27/beta", "shape": [384], "dtype": "float32"}, {"name": "batch_normalization_27/moving_mean", "shape": [384], "dtype": "float32"}, {"name": "batch_normalization_27/moving_variance", "shape": [384], "dtype": "float32"}]}, {"paths": ["group21-shard1of1"], "weights": [{"name": "batch_normalization_28/beta", "shape": [64], "dtype": "float32"}, {"name": "batch_normalization_28/moving_mean", "shape": [64], "dtype": "float32"}, {"name": "batch_normalization_28/moving_variance", "shape": [64], "dtype": "float32"}]}, {"paths": ["group22-shard1of1"], "weights": [{"name": "batch_normalization_29/beta", "shape": [96], "dtype": "float32"}, {"name": "batch_normalization_29/moving_mean", "shape": [96], "dtype": "float32"}, {"name": "batch_normalization_29/moving_variance", "shape": [96], "dtype": "float32"}]}, {"paths": ["group23-shard1of1"], "weights": [{"name": "batch_normalization_3/beta", "shape": [64], "dtype": "float32"}, {"name": "batch_normalization_3/moving_mean", "shape": [64], "dtype": "float32"}, {"name": "batch_normalization_3/moving_variance", "shape": [64], "dtype": "float32"}]}, {"paths": ["group24-shard1of1"], "weights": [{"name": "batch_normalization_30/beta", "shape": [96], "dtype": "float32"}, {"name": "batch_normalization_30/moving_mean", "shape": [96], "dtype": "float32"}, {"name": "batch_normalization_30/moving_variance", "shape": [96], "dtype": "float32"}]}, {"paths": ["group25-shard1of1"], "weights": [{"name": "batch_normalization_31/beta", "shape": [192], "dtype": "float32"}, {"name": "batch_normalization_31/moving_mean", "shape": [192], "dtype": "float32"}, {"name": "batch_normalization_31/moving_variance", "shape": [192], "dtype": "float32"}]}, {"paths": ["group26-shard1of1"], "weights": [{"name": "batch_normalization_32/beta", "shape": [128], "dtype": "float32"}, {"name": "batch_normalization_32/moving_mean", "shape": [128], "dtype": "float32"}, {"name": "batch_normalization_32/moving_variance", "shape": [128], "dtype": "float32"}]}, {"paths": ["group27-shard1of1"], "weights": [{"name": "batch_normalization_33/beta", "shape": [128], "dtype": "float32"}, {"name": "batch_normalization_33/moving_mean", "shape": [128], "dtype": "float32"}, {"name": "batch_normalization_33/moving_variance", "shape": [128], "dtype": "float32"}]}, {"paths": ["group28-shard1of1"], "weights": [{"name": "batch_normalization_34/beta", "shape": [192], "dtype": "float32"}, {"name": "batch_normalization_34/moving_mean", "shape": [192], "dtype": "float32"}, {"name": "batch_normalization_34/moving_variance", "shape": [192], "dtype": "float32"}]}, {"paths": ["group29-shard1of1"], "weights": [{"name": "batch_normalization_35/beta", "shape": [128], "dtype": "float32"}, {"name": "batch_normalization_35/moving_mean", "shape": [128], "dtype": "float32"}, {"name": "batch_normalization_35/moving_variance", "shape": [128], "dtype": "float32"}]}, {"paths": ["group30-shard1of1"], "weights": [{"name": "batch_normalization_36/beta", "shape": [128], "dtype": "float32"}, {"name": "batch_normalization_36/moving_mean", "shape": [128], "dtype": "float32"}, {"name": "batch_normalization_36/moving_variance", "shape": [128], "dtype": "float32"}]}, {"paths": ["group31-shard1of1"], "weights": [{"name": "batch_normalization_37/beta", "shape": [128], "dtype": "float32"}, {"name": "batch_normalization_37/moving_mean", "shape": [128], "dtype": "float32"}, {"name": "batch_normalization_37/moving_variance", "shape": [128], "dtype": "float32"}]}, {"paths": ["group32-shard1of1"], "weights": [{"name": "batch_normalization_38/beta", "shape": [128], "dtype": "float32"}, {"name": "batch_normalization_38/moving_mean", "shape": [128], "dtype": "float32"}, {"name": "batch_normalization_38/moving_variance", "shape": [128], "dtype": "float32"}]}, {"paths": ["group33-shard1of1"], "weights": [{"name": "batch_normalization_39/beta", "shape": [192], "dtype": "float32"}, {"name": "batch_normalization_39/moving_mean", "shape": [192], "dtype": "float32"}, {"name": "batch_normalization_39/moving_variance", "shape": [192], "dtype": "float32"}]}, {"paths": ["group34-shard1of1"], "weights": [{"name": "batch_normalization_4/beta", "shape": [80], "dtype": "float32"}, {"name": "batch_normalization_4/moving_mean", "shape": [80], "dtype": "float32"}, {"name": "batch_normalization_4/moving_variance", "shape": [80], "dtype": "float32"}]}, {"paths": ["group35-shard1of1"], "weights": [{"name": "batch_normalization_40/beta", "shape": [192], "dtype": "float32"}, {"name": "batch_normalization_40/moving_mean", "shape": [192], "dtype": "float32"}, {"name": "batch_normalization_40/moving_variance", "shape": [192], "dtype": "float32"}]}, {"paths": ["group36-shard1of1"], "weights": [{"name": "batch_normalization_41/beta", "shape": [192], "dtype": "float32"}, {"name": "batch_normalization_41/moving_mean", "shape": [192], "dtype": "float32"}, {"name": "batch_normalization_41/moving_variance", "shape": [192], "dtype": "float32"}]}, {"paths": ["group37-shard1of1"], "weights": [{"name": "batch_normalization_42/beta", "shape": [160], "dtype": "float32"}, {"name": "batch_normalization_42/moving_mean", "shape": [160], "dtype": "float32"}, {"name": "batch_normalization_42/moving_variance", "shape": [160], "dtype": "float32"}]}, {"paths": ["group38-shard1of1"], "weights": [{"name": "batch_normalization_43/beta", "shape": [160], "dtype": "float32"}, {"name": "batch_normalization_43/moving_mean", "shape": [160], "dtype": "float32"}, {"name": "batch_normalization_43/moving_variance", "shape": [160], "dtype": "float32"}]}, {"paths": ["group39-shard1of1"], "weights": [{"name": "batch_normalization_44/beta", "shape": [192], "dtype": "float32"}, {"name": "batch_normalization_44/moving_mean", "shape": [192], "dtype": "float32"}, {"name": "batch_normalization_44/moving_variance", "shape": [192], "dtype": "float32"}]}, {"paths": ["group40-shard1of1"], "weights": [{"name": "batch_normalization_45/beta", "shape": [160], "dtype": "float32"}, {"name": "batch_normalization_45/moving_mean", "shape": [160], "dtype": "float32"}, {"name": "batch_normalization_45/moving_variance", "shape": [160], "dtype": "float32"}]}, {"paths": ["group41-shard1of1"], "weights": [{"name": "batch_normalization_46/beta", "shape": [160], "dtype": "float32"}, {"name": "batch_normalization_46/moving_mean", "shape": [160], "dtype": "float32"}, {"name": "batch_normalization_46/moving_variance", "shape": [160], "dtype": "float32"}]}, {"paths": ["group42-shard1of1"], "weights": [{"name": "batch_normalization_47/beta", "shape": [160], "dtype": "float32"}, {"name": "batch_normalization_47/moving_mean", "shape": [160], "dtype": "float32"}, {"name": "batch_normalization_47/moving_variance", "shape": [160], "dtype": "float32"}]}, {"paths": ["group43-shard1of1"], "weights": [{"name": "batch_normalization_48/beta", "shape": [160], "dtype": "float32"}, {"name": "batch_normalization_48/moving_mean", "shape": [160], "dtype": "float32"}, {"name": "batch_normalization_48/moving_variance", "shape": [160], "dtype": "float32"}]}, {"paths": ["group44-shard1of1"], "weights": [{"name": "batch_normalization_49/beta", "shape": [192], "dtype": "float32"}, {"name": "batch_normalization_49/moving_mean", "shape": [192], "dtype": "float32"}, {"name": "batch_normalization_49/moving_variance", "shape": [192], "dtype": "float32"}]}, {"paths": ["group45-shard1of1"], "weights": [{"name": "batch_normalization_5/beta", "shape": [192], "dtype": "float32"}, {"name": "batch_normalization_5/moving_mean", "shape": [192], "dtype": "float32"}, {"name": "batch_normalization_5/moving_variance", "shape": [192], "dtype": "float32"}]}, {"paths": ["group46-shard1of1"], "weights": [{"name": "batch_normalization_50/beta", "shape": [192], "dtype": "float32"}, {"name": "batch_normalization_50/moving_mean", "shape": [192], "dtype": "float32"}, {"name": "batch_normalization_50/moving_variance", "shape": [192], "dtype": "float32"}]}, {"paths": ["group47-shard1of1"], "weights": [{"name": "batch_normalization_51/beta", "shape": [192], "dtype": "float32"}, {"name": "batch_normalization_51/moving_mean", "shape": [192], "dtype": "float32"}, {"name": "batch_normalization_51/moving_variance", "shape": [192], "dtype": "float32"}]}, {"paths": ["group48-shard1of1"], "weights": [{"name": "batch_normalization_52/beta", "shape": [160], "dtype": "float32"}, {"name": "batch_normalization_52/moving_mean", "shape": [160], "dtype": "float32"}, {"name": "batch_normalization_52/moving_variance", "shape": [160], "dtype": "float32"}]}, {"paths": ["group49-shard1of1"], "weights": [{"name": "batch_normalization_53/beta", "shape": [160], "dtype": "float32"}, {"name": "batch_normalization_53/moving_mean", "shape": [160], "dtype": "float32"}, {"name": "batch_normalization_53/moving_variance", "shape": [160], "dtype": "float32"}]}, {"paths": ["group50-shard1of1"], "weights": [{"name": "batch_normalization_54/beta", "shape": [192], "dtype": "float32"}, {"name": "batch_normalization_54/moving_mean", "shape": [192], "dtype": "float32"}, {"name": "batch_normalization_54/moving_variance", "shape": [192], "dtype": "float32"}]}, {"paths": ["group51-shard1of1"], "weights": [{"name": "batch_normalization_55/beta", "shape": [160], "dtype": "float32"}, {"name": "batch_normalization_55/moving_mean", "shape": [160], "dtype": "float32"}, {"name": "batch_normalization_55/moving_variance", "shape": [160], "dtype": "float32"}]}, {"paths": ["group52-shard1of1"], "weights": [{"name": "batch_normalization_56/beta", "shape": [160], "dtype": "float32"}, {"name": "batch_normalization_56/moving_mean", "shape": [160], "dtype": "float32"}, {"name": "batch_normalization_56/moving_variance", "shape": [160], "dtype": "float32"}]}, {"paths": ["group53-shard1of1"], "weights": [{"name": "batch_normalization_57/beta", "shape": [160], "dtype": "float32"}, {"name": "batch_normalization_57/moving_mean", "shape": [160], "dtype": "float32"}, {"name": "batch_normalization_57/moving_variance", "shape": [160], "dtype": "float32"}]}, {"paths": ["group54-shard1of1"], "weights": [{"name": "batch_normalization_58/beta", "shape": [160], "dtype": "float32"}, {"name": "batch_normalization_58/moving_mean", "shape": [160], "dtype": "float32"}, {"name": "batch_normalization_58/moving_variance", "shape": [160], "dtype": "float32"}]}, {"paths": ["group55-shard1of1"], "weights": [{"name": "batch_normalization_59/beta", "shape": [192], "dtype": "float32"}, {"name": "batch_normalization_59/moving_mean", "shape": [192], "dtype": "float32"}, {"name": "batch_normalization_59/moving_variance", "shape": [192], "dtype": "float32"}]}, {"paths": ["group56-shard1of1"], "weights": [{"name": "batch_normalization_6/beta", "shape": [64], "dtype": "float32"}, {"name": "batch_normalization_6/moving_mean", "shape": [64], "dtype": "float32"}, {"name": "batch_normalization_6/moving_variance", "shape": [64], "dtype": "float32"}]}, {"paths": ["group57-shard1of1"], "weights": [{"name": "batch_normalization_60/beta", "shape": [192], "dtype": "float32"}, {"name": "batch_normalization_60/moving_mean", "shape": [192], "dtype": "float32"}, {"name": "batch_normalization_60/moving_variance", "shape": [192], "dtype": "float32"}]}, {"paths": ["group58-shard1of1"], "weights": [{"name": "batch_normalization_61/beta", "shape": [192], "dtype": "float32"}, {"name": "batch_normalization_61/moving_mean", "shape": [192], "dtype": "float32"}, {"name": "batch_normalization_61/moving_variance", "shape": [192], "dtype": "float32"}]}, {"paths": ["group59-shard1of1"], "weights": [{"name": "batch_normalization_62/beta", "shape": [192], "dtype": "float32"}, {"name": "batch_normalization_62/moving_mean", "shape": [192], "dtype": "float32"}, {"name": "batch_normalization_62/moving_variance", "shape": [192], "dtype": "float32"}]}, {"paths": ["group60-shard1of1"], "weights": [{"name": "batch_normalization_63/beta", "shape": [192], "dtype": "float32"}, {"name": "batch_normalization_63/moving_mean", "shape": [192], "dtype": "float32"}, {"name": "batch_normalization_63/moving_variance", "shape": [192], "dtype": "float32"}]}, {"paths": ["group61-shard1of1"], "weights": [{"name": "batch_normalization_64/beta", "shape": [192], "dtype": "float32"}, {"name": "batch_normalization_64/moving_mean", "shape": [192], "dtype": "float32"}, {"name": "batch_normalization_64/moving_variance", "shape": [192], "dtype": "float32"}]}, {"paths": ["group62-shard1of1"], "weights": [{"name": "batch_normalization_65/beta", "shape": [192], "dtype": "float32"}, {"name": "batch_normalization_65/moving_mean", "shape": [192], "dtype": "float32"}, {"name": "batch_normalization_65/moving_variance", "shape": [192], "dtype": "float32"}]}, {"paths": ["group63-shard1of1"], "weights": [{"name": "batch_normalization_66/beta", "shape": [192], "dtype": "float32"}, {"name": "batch_normalization_66/moving_mean", "shape": [192], "dtype": "float32"}, {"name": "batch_normalization_66/moving_variance", "shape": [192], "dtype": "float32"}]}, {"paths": ["group64-shard1of1"], "weights": [{"name": "batch_normalization_67/beta", "shape": [192], "dtype": "float32"}, {"name": "batch_normalization_67/moving_mean", "shape": [192], "dtype": "float32"}, {"name": "batch_normalization_67/moving_variance", "shape": [192], "dtype": "float32"}]}, {"paths": ["group65-shard1of1"], "weights": [{"name": "batch_normalization_68/beta", "shape": [192], "dtype": "float32"}, {"name": "batch_normalization_68/moving_mean", "shape": [192], "dtype": "float32"}, {"name": "batch_normalization_68/moving_variance", "shape": [192], "dtype": "float32"}]}, {"paths": ["group66-shard1of1"], "weights": [{"name": "batch_normalization_69/beta", "shape": [192], "dtype": "float32"}, {"name": "batch_normalization_69/moving_mean", "shape": [192], "dtype": "float32"}, {"name": "batch_normalization_69/moving_variance", "shape": [192], "dtype": "float32"}]}, {"paths": ["group67-shard1of1"], "weights": [{"name": "batch_normalization_7/beta", "shape": [48], "dtype": "float32"}, {"name": "batch_normalization_7/moving_mean", "shape": [48], "dtype": "float32"}, {"name": "batch_normalization_7/moving_variance", "shape": [48], "dtype": "float32"}]}, {"paths": ["group68-shard1of1"], "weights": [{"name": "batch_normalization_70/beta", "shape": [192], "dtype": "float32"}, {"name": "batch_normalization_70/moving_mean", "shape": [192], "dtype": "float32"}, {"name": "batch_normalization_70/moving_variance", "shape": [192], "dtype": "float32"}]}, {"paths": ["group69-shard1of1"], "weights": [{"name": "batch_normalization_71/beta", "shape": [192], "dtype": "float32"}, {"name": "batch_normalization_71/moving_mean", "shape": [192], "dtype": "float32"}, {"name": "batch_normalization_71/moving_variance", "shape": [192], "dtype": "float32"}]}, {"paths": ["group70-shard1of1"], "weights": [{"name": "batch_normalization_72/beta", "shape": [320], "dtype": "float32"}, {"name": "batch_normalization_72/moving_mean", "shape": [320], "dtype": "float32"}, {"name": "batch_normalization_72/moving_variance", "shape": [320], "dtype": "float32"}]}, {"paths": ["group71-shard1of1"], "weights": [{"name": "batch_normalization_73/beta", "shape": [192], "dtype": "float32"}, {"name": "batch_normalization_73/moving_mean", "shape": [192], "dtype": "float32"}, {"name": "batch_normalization_73/moving_variance", "shape": [192], "dtype": "float32"}]}, {"paths": ["group72-shard1of1"], "weights": [{"name": "batch_normalization_74/beta", "shape": [192], "dtype": "float32"}, {"name": "batch_normalization_74/moving_mean", "shape": [192], "dtype": "float32"}, {"name": "batch_normalization_74/moving_variance", "shape": [192], "dtype": "float32"}]}, {"paths": ["group73-shard1of1"], "weights": [{"name": "batch_normalization_75/beta", "shape": [192], "dtype": "float32"}, {"name": "batch_normalization_75/moving_mean", "shape": [192], "dtype": "float32"}, {"name": "batch_normalization_75/moving_variance", "shape": [192], "dtype": "float32"}]}, {"paths": ["group74-shard1of1"], "weights": [{"name": "batch_normalization_76/beta", "shape": [192], "dtype": "float32"}, {"name": "batch_normalization_76/moving_mean", "shape": [192], "dtype": "float32"}, {"name": "batch_normalization_76/moving_variance", "shape": [192], "dtype": "float32"}]}, {"paths": ["group75-shard1of1"], "weights": [{"name": "batch_normalization_77/beta", "shape": [320], "dtype": "float32"}, {"name": "batch_normalization_77/moving_mean", "shape": [320], "dtype": "float32"}, {"name": "batch_normalization_77/moving_variance", "shape": [320], "dtype": "float32"}]}, {"paths": ["group76-shard1of1"], "weights": [{"name": "batch_normalization_78/beta", "shape": [384], "dtype": "float32"}, {"name": "batch_normalization_78/moving_mean", "shape": [384], "dtype": "float32"}, {"name": "batch_normalization_78/moving_variance", "shape": [384], "dtype": "float32"}]}, {"paths": ["group77-shard1of1"], "weights": [{"name": "batch_normalization_79/beta", "shape": [384], "dtype": "float32"}, {"name": "batch_normalization_79/moving_mean", "shape": [384], "dtype": "float32"}, {"name": "batch_normalization_79/moving_variance", "shape": [384], "dtype": "float32"}]}, {"paths": ["group78-shard1of1"], "weights": [{"name": "batch_normalization_8/beta", "shape": [64], "dtype": "float32"}, {"name": "batch_normalization_8/moving_mean", "shape": [64], "dtype": "float32"}, {"name": "batch_normalization_8/moving_variance", "shape": [64], "dtype": "float32"}]}, {"paths": ["group79-shard1of1"], "weights": [{"name": "batch_normalization_80/beta", "shape": [384], "dtype": "float32"}, {"name": "batch_normalization_80/moving_mean", "shape": [384], "dtype": "float32"}, {"name": "batch_normalization_80/moving_variance", "shape": [384], "dtype": "float32"}]}, {"paths": ["group80-shard1of1"], "weights": [{"name": "batch_normalization_81/beta", "shape": [448], "dtype": "float32"}, {"name": "batch_normalization_81/moving_mean", "shape": [448], "dtype": "float32"}, {"name": "batch_normalization_81/moving_variance", "shape": [448], "dtype": "float32"}]}, {"paths": ["group81-shard1of1"], "weights": [{"name": "batch_normalization_82/beta", "shape": [384], "dtype": "float32"}, {"name": "batch_normalization_82/moving_mean", "shape": [384], "dtype": "float32"}, {"name": "batch_normalization_82/moving_variance", "shape": [384], "dtype": "float32"}]}, {"paths": ["group82-shard1of1"], "weights": [{"name": "batch_normalization_83/beta", "shape": [384], "dtype": "float32"}, {"name": "batch_normalization_83/moving_mean", "shape": [384], "dtype": "float32"}, {"name": "batch_normalization_83/moving_variance", "shape": [384], "dtype": "float32"}]}, {"paths": ["group83-shard1of1"], "weights": [{"name": "batch_normalization_84/beta", "shape": [384], "dtype": "float32"}, {"name": "batch_normalization_84/moving_mean", "shape": [384], "dtype": "float32"}, {"name": "batch_normalization_84/moving_variance", "shape": [384], "dtype": "float32"}]}, {"paths": ["group84-shard1of1"], "weights": [{"name": "batch_normalization_85/beta", "shape": [192], "dtype": "float32"}, {"name": "batch_normalization_85/moving_mean", "shape": [192], "dtype": "float32"}, {"name": "batch_normalization_85/moving_variance", "shape": [192], "dtype": "float32"}]}, {"paths": ["group85-shard1of1"], "weights": [{"name": "batch_normalization_86/beta", "shape": [320], "dtype": "float32"}, {"name": "batch_normalization_86/moving_mean", "shape": [320], "dtype": "float32"}, {"name": "batch_normalization_86/moving_variance", "shape": [320], "dtype": "float32"}]}, {"paths": ["group86-shard1of1"], "weights": [{"name": "batch_normalization_87/beta", "shape": [384], "dtype": "float32"}, {"name": "batch_normalization_87/moving_mean", "shape": [384], "dtype": "float32"}, {"name": "batch_normalization_87/moving_variance", "shape": [384], "dtype": "float32"}]}, {"paths": ["group87-shard1of1"], "weights": [{"name": "batch_normalization_88/beta", "shape": [384], "dtype": "float32"}, {"name": "batch_normalization_88/moving_mean", "shape": [384], "dtype": "float32"}, {"name": "batch_normalization_88/moving_variance", "shape": [384], "dtype": "float32"}]}, {"paths": ["group88-shard1of1"], "weights": [{"name": "batch_normalization_89/beta", "shape": [384], "dtype": "float32"}, {"name": "batch_normalization_89/moving_mean", "shape": [384], "dtype": "float32"}, {"name": "batch_normalization_89/moving_variance", "shape": [384], "dtype": "float32"}]}, {"paths": ["group89-shard1of1"], "weights": [{"name": "batch_normalization_9/beta", "shape": [64], "dtype": "float32"}, {"name": "batch_normalization_9/moving_mean", "shape": [64], "dtype": "float32"}, {"name": "batch_normalization_9/moving_variance", "shape": [64], "dtype": "float32"}]}, {"paths": ["group90-shard1of1"], "weights": [{"name": "batch_normalization_90/beta", "shape": [448], "dtype": "float32"}, {"name": "batch_normalization_90/moving_mean", "shape": [448], "dtype": "float32"}, {"name": "batch_normalization_90/moving_variance", "shape": [448], "dtype": "float32"}]}, {"paths": ["group91-shard1of1"], "weights": [{"name": "batch_normalization_91/beta", "shape": [384], "dtype": "float32"}, {"name": "batch_normalization_91/moving_mean", "shape": [384], "dtype": "float32"}, {"name": "batch_normalization_91/moving_variance", "shape": [384], "dtype": "float32"}]}, {"paths": ["group92-shard1of1"], "weights": [{"name": "batch_normalization_92/beta", "shape": [384], "dtype": "float32"}, {"name": "batch_normalization_92/moving_mean", "shape": [384], "dtype": "float32"}, {"name": "batch_normalization_92/moving_variance", "shape": [384], "dtype": "float32"}]}, {"paths": ["group93-shard1of1"], "weights": [{"name": "batch_normalization_93/beta", "shape": [384], "dtype": "float32"}, {"name": "batch_normalization_93/moving_mean", "shape": [384], "dtype": "float32"}, {"name": "batch_normalization_93/moving_variance", "shape": [384], "dtype": "float32"}]}, {"paths": ["group94-shard1of1"], "weights": [{"name": "batch_normalization_94/beta", "shape": [192], "dtype": "float32"}, {"name": "batch_normalization_94/moving_mean", "shape": [192], "dtype": "float32"}, {"name": "batch_normalization_94/moving_variance", "shape": [192], "dtype": "float32"}]}, {"paths": ["group95-shard1of1"], "weights": [{"name": "conv2d_1/kernel", "shape": [3, 3, 3, 32], "dtype": "float32"}]}, {"paths": ["group96-shard1of1"], "weights": [{"name": "conv2d_10/kernel", "shape": [3, 3, 64, 96], "dtype": "float32"}]}, {"paths": ["group97-shard1of1"], "weights": [{"name": "conv2d_11/kernel", "shape": [3, 3, 96, 96], "dtype": "float32"}]}, {"paths": ["group98-shard1of1"], "weights": [{"name": "conv2d_12/kernel", "shape": [1, 1, 192, 32], "dtype": "float32"}]}, {"paths": ["group99-shard1of1"], "weights": [{"name": "conv2d_13/kernel", "shape": [1, 1, 256, 64], "dtype": "float32"}]}, {"paths": ["group100-shard1of1"], "weights": [{"name": "conv2d_14/kernel", "shape": [1, 1, 256, 48], "dtype": "float32"}]}, {"paths": ["group101-shard1of1"], "weights": [{"name": "conv2d_15/kernel", "shape": [5, 5, 48, 64], "dtype": "float32"}]}, {"paths": ["group102-shard1of1"], "weights": [{"name": "conv2d_16/kernel", "shape": [1, 1, 256, 64], "dtype": "float32"}]}, {"paths": ["group103-shard1of1"], "weights": [{"name": "conv2d_17/kernel", "shape": [3, 3, 64, 96], "dtype": "float32"}]}, {"paths": ["group104-shard1of1"], "weights": [{"name": "conv2d_18/kernel", "shape": [3, 3, 96, 96], "dtype": "float32"}]}, {"paths": ["group105-shard1of1"], "weights": [{"name": "conv2d_19/kernel", "shape": [1, 1, 256, 64], "dtype": "float32"}]}, {"paths": ["group106-shard1of1"], "weights": [{"name": "conv2d_2/kernel", "shape": [3, 3, 32, 32], "dtype": "float32"}]}, {"paths": ["group107-shard1of1"], "weights": [{"name": "conv2d_20/kernel", "shape": [1, 1, 288, 64], "dtype": "float32"}]}, {"paths": ["group108-shard1of1"], "weights": [{"name": "conv2d_21/kernel", "shape": [1, 1, 288, 48], "dtype": "float32"}]}, {"paths": ["group109-shard1of1"], "weights": [{"name": "conv2d_22/kernel", "shape": [5, 5, 48, 64], "dtype": "float32"}]}, {"paths": ["group110-shard1of1"], "weights": [{"name": "conv2d_23/kernel", "shape": [1, 1, 288, 64], "dtype": "float32"}]}, {"paths": ["group111-shard1of1"], "weights": [{"name": "conv2d_24/kernel", "shape": [3, 3, 64, 96], "dtype": "float32"}]}, {"paths": ["group112-shard1of1"], "weights": [{"name": "conv2d_25/kernel", "shape": [3, 3, 96, 96], "dtype": "float32"}]}, {"paths": ["group113-shard1of1"], "weights": [{"name": "conv2d_26/kernel", "shape": [1, 1, 288, 64], "dtype": "float32"}]}, {"paths": ["group114-shard1of1"], "weights": [{"name": "conv2d_27/kernel", "shape": [3, 3, 288, 384], "dtype": "float32"}]}, {"paths": ["group115-shard1of1"], "weights": [{"name": "conv2d_28/kernel", "shape": [1, 1, 288, 64], "dtype": "float32"}]}, {"paths": ["group116-shard1of1"], "weights": [{"name": "conv2d_29/kernel", "shape": [3, 3, 64, 96], "dtype": "float32"}]}, {"paths": ["group117-shard1of1"], "weights": [{"name": "conv2d_3/kernel", "shape": [3, 3, 32, 64], "dtype": "float32"}]}, {"paths": ["group118-shard1of1"], "weights": [{"name": "conv2d_30/kernel", "shape": [3, 3, 96, 96], "dtype": "float32"}]}, {"paths": ["group119-shard1of1"], "weights": [{"name": "conv2d_31/kernel", "shape": [1, 1, 768, 192], "dtype": "float32"}]}, {"paths": ["group120-shard1of1"], "weights": [{"name": "conv2d_32/kernel", "shape": [1, 1, 768, 128], "dtype": "float32"}]}, {"paths": ["group121-shard1of1"], "weights": [{"name": "conv2d_33/kernel", "shape": [1, 7, 128, 128], "dtype": "float32"}]}, {"paths": ["group122-shard1of1"], "weights": [{"name": "conv2d_34/kernel", "shape": [7, 1, 128, 192], "dtype": "float32"}]}, {"paths": ["group123-shard1of1"], "weights": [{"name": "conv2d_35/kernel", "shape": [1, 1, 768, 128], "dtype": "float32"}]}, {"paths": ["group124-shard1of1"], "weights": [{"name": "conv2d_36/kernel", "shape": [7, 1, 128, 128], "dtype": "float32"}]}, {"paths": ["group125-shard1of1"], "weights": [{"name": "conv2d_37/kernel", "shape": [1, 7, 128, 128], "dtype": "float32"}]}, {"paths": ["group126-shard1of1"], "weights": [{"name": "conv2d_38/kernel", "shape": [7, 1, 128, 128], "dtype": "float32"}]}, {"paths": ["group127-shard1of1"], "weights": [{"name": "conv2d_39/kernel", "shape": [1, 7, 128, 192], "dtype": "float32"}]}, {"paths": ["group128-shard1of1"], "weights": [{"name": "conv2d_4/kernel", "shape": [1, 1, 64, 80], "dtype": "float32"}]}, {"paths": ["group129-shard1of1"], "weights": [{"name": "conv2d_40/kernel", "shape": [1, 1, 768, 192], "dtype": "float32"}]}, {"paths": ["group130-shard1of1"], "weights": [{"name": "conv2d_41/kernel", "shape": [1, 1, 768, 192], "dtype": "float32"}]}, {"paths": ["group131-shard1of1"], "weights": [{"name": "conv2d_42/kernel", "shape": [1, 1, 768, 160], "dtype": "float32"}]}, {"paths": ["group132-shard1of1"], "weights": [{"name": "conv2d_43/kernel", "shape": [1, 7, 160, 160], "dtype": "float32"}]}, {"paths": ["group133-shard1of1"], "weights": [{"name": "conv2d_44/kernel", "shape": [7, 1, 160, 192], "dtype": "float32"}]}, {"paths": ["group134-shard1of1"], "weights": [{"name": "conv2d_45/kernel", "shape": [1, 1, 768, 160], "dtype": "float32"}]}, {"paths": ["group135-shard1of1"], "weights": [{"name": "conv2d_46/kernel", "shape": [7, 1, 160, 160], "dtype": "float32"}]}, {"paths": ["group136-shard1of1"], "weights": [{"name": "conv2d_47/kernel", "shape": [1, 7, 160, 160], "dtype": "float32"}]}, {"paths": ["group137-shard1of1"], "weights": [{"name": "conv2d_48/kernel", "shape": [7, 1, 160, 160], "dtype": "float32"}]}, {"paths": ["group138-shard1of1"], "weights": [{"name": "conv2d_49/kernel", "shape": [1, 7, 160, 192], "dtype": "float32"}]}, {"paths": ["group139-shard1of1"], "weights": [{"name": "conv2d_5/kernel", "shape": [3, 3, 80, 192], "dtype": "float32"}]}, {"paths": ["group140-shard1of1"], "weights": [{"name": "conv2d_50/kernel", "shape": [1, 1, 768, 192], "dtype": "float32"}]}, {"paths": ["group141-shard1of1"], "weights": [{"name": "conv2d_51/kernel", "shape": [1, 1, 768, 192], "dtype": "float32"}]}, {"paths": ["group142-shard1of1"], "weights": [{"name": "conv2d_52/kernel", "shape": [1, 1, 768, 160], "dtype": "float32"}]}, {"paths": ["group143-shard1of1"], "weights": [{"name": "conv2d_53/kernel", "shape": [1, 7, 160, 160], "dtype": "float32"}]}, {"paths": ["group144-shard1of1"], "weights": [{"name": "conv2d_54/kernel", "shape": [7, 1, 160, 192], "dtype": "float32"}]}, {"paths": ["group145-shard1of1"], "weights": [{"name": "conv2d_55/kernel", "shape": [1, 1, 768, 160], "dtype": "float32"}]}, {"paths": ["group146-shard1of1"], "weights": [{"name": "conv2d_56/kernel", "shape": [7, 1, 160, 160], "dtype": "float32"}]}, {"paths": ["group147-shard1of1"], "weights": [{"name": "conv2d_57/kernel", "shape": [1, 7, 160, 160], "dtype": "float32"}]}, {"paths": ["group148-shard1of1"], "weights": [{"name": "conv2d_58/kernel", "shape": [7, 1, 160, 160], "dtype": "float32"}]}, {"paths": ["group149-shard1of1"], "weights": [{"name": "conv2d_59/kernel", "shape": [1, 7, 160, 192], "dtype": "float32"}]}, {"paths": ["group150-shard1of1"], "weights": [{"name": "conv2d_6/kernel", "shape": [1, 1, 192, 64], "dtype": "float32"}]}, {"paths": ["group151-shard1of1"], "weights": [{"name": "conv2d_60/kernel", "shape": [1, 1, 768, 192], "dtype": "float32"}]}, {"paths": ["group152-shard1of1"], "weights": [{"name": "conv2d_61/kernel", "shape": [1, 1, 768, 192], "dtype": "float32"}]}, {"paths": ["group153-shard1of1"], "weights": [{"name": "conv2d_62/kernel", "shape": [1, 1, 768, 192], "dtype": "float32"}]}, {"paths": ["group154-shard1of1"], "weights": [{"name": "conv2d_63/kernel", "shape": [1, 7, 192, 192], "dtype": "float32"}]}, {"paths": ["group155-shard1of1"], "weights": [{"name": "conv2d_64/kernel", "shape": [7, 1, 192, 192], "dtype": "float32"}]}, {"paths": ["group156-shard1of1"], "weights": [{"name": "conv2d_65/kernel", "shape": [1, 1, 768, 192], "dtype": "float32"}]}, {"paths": ["group157-shard1of1"], "weights": [{"name": "conv2d_66/kernel", "shape": [7, 1, 192, 192], "dtype": "float32"}]}, {"paths": ["group158-shard1of1"], "weights": [{"name": "conv2d_67/kernel", "shape": [1, 7, 192, 192], "dtype": "float32"}]}, {"paths": ["group159-shard1of1"], "weights": [{"name": "conv2d_68/kernel", "shape": [7, 1, 192, 192], "dtype": "float32"}]}, {"paths": ["group160-shard1of1"], "weights": [{"name": "conv2d_69/kernel", "shape": [1, 7, 192, 192], "dtype": "float32"}]}, {"paths": ["group161-shard1of1"], "weights": [{"name": "conv2d_7/kernel", "shape": [1, 1, 192, 48], "dtype": "float32"}]}, {"paths": ["group162-shard1of1"], "weights": [{"name": "conv2d_70/kernel", "shape": [1, 1, 768, 192], "dtype": "float32"}]}, {"paths": ["group163-shard1of1"], "weights": [{"name": "conv2d_71/kernel", "shape": [1, 1, 768, 192], "dtype": "float32"}]}, {"paths": ["group164-shard1of1"], "weights": [{"name": "conv2d_72/kernel", "shape": [3, 3, 192, 320], "dtype": "float32"}]}, {"paths": ["group165-shard1of1"], "weights": [{"name": "conv2d_73/kernel", "shape": [1, 1, 768, 192], "dtype": "float32"}]}, {"paths": ["group166-shard1of1"], "weights": [{"name": "conv2d_74/kernel", "shape": [1, 7, 192, 192], "dtype": "float32"}]}, {"paths": ["group167-shard1of1"], "weights": [{"name": "conv2d_75/kernel", "shape": [7, 1, 192, 192], "dtype": "float32"}]}, {"paths": ["group168-shard1of1"], "weights": [{"name": "conv2d_76/kernel", "shape": [3, 3, 192, 192], "dtype": "float32"}]}, {"paths": ["group169-shard1of1"], "weights": [{"name": "conv2d_77/kernel", "shape": [1, 1, 1280, 320], "dtype": "float32"}]}, {"paths": ["group170-shard1of1"], "weights": [{"name": "conv2d_78/kernel", "shape": [1, 1, 1280, 384], "dtype": "float32"}]}, {"paths": ["group171-shard1of1"], "weights": [{"name": "conv2d_79/kernel", "shape": [1, 3, 384, 384], "dtype": "float32"}]}, {"paths": ["group172-shard1of1"], "weights": [{"name": "conv2d_8/kernel", "shape": [5, 5, 48, 64], "dtype": "float32"}]}, {"paths": ["group173-shard1of1"], "weights": [{"name": "conv2d_80/kernel", "shape": [3, 1, 384, 384], "dtype": "float32"}]}, {"paths": ["group174-shard1of1"], "weights": [{"name": "conv2d_81/kernel", "shape": [1, 1, 1280, 448], "dtype": "float32"}]}, {"paths": ["group175-shard1of2", "group175-shard2of2"], "weights": [{"name": "conv2d_82/kernel", "shape": [3, 3, 448, 384], "dtype": "float32"}]}, {"paths": ["group176-shard1of1"], "weights": [{"name": "conv2d_83/kernel", "shape": [1, 3, 384, 384], "dtype": "float32"}]}, {"paths": ["group177-shard1of1"], "weights": [{"name": "conv2d_84/kernel", "shape": [3, 1, 384, 384], "dtype": "float32"}]}, {"paths": ["group178-shard1of1"], "weights": [{"name": "conv2d_85/kernel", "shape": [1, 1, 1280, 192], "dtype": "float32"}]}, {"paths": ["group179-shard1of1"], "weights": [{"name": "conv2d_86/kernel", "shape": [1, 1, 2048, 320], "dtype": "float32"}]}, {"paths": ["group180-shard1of1"], "weights": [{"name": "conv2d_87/kernel", "shape": [1, 1, 2048, 384], "dtype": "float32"}]}, {"paths": ["group181-shard1of1"], "weights": [{"name": "conv2d_88/kernel", "shape": [1, 3, 384, 384], "dtype": "float32"}]}, {"paths": ["group182-shard1of1"], "weights": [{"name": "conv2d_89/kernel", "shape": [3, 1, 384, 384], "dtype": "float32"}]}, {"paths": ["group183-shard1of1"], "weights": [{"name": "conv2d_9/kernel", "shape": [1, 1, 192, 64], "dtype": "float32"}]}, {"paths": ["group184-shard1of1"], "weights": [{"name": "conv2d_90/kernel", "shape": [1, 1, 2048, 448], "dtype": "float32"}]}, {"paths": ["group185-shard1of2", "group185-shard2of2"], "weights": [{"name": "conv2d_91/kernel", "shape": [3, 3, 448, 384], "dtype": "float32"}]}, {"paths": ["group186-shard1of1"], "weights": [{"name": "conv2d_92/kernel", "shape": [1, 3, 384, 384], "dtype": "float32"}]}, {"paths": ["group187-shard1of1"], "weights": [{"name": "conv2d_93/kernel", "shape": [3, 1, 384, 384], "dtype": "float32"}]}, {"paths": ["group188-shard1of1"], "weights": [{"name": "conv2d_94/kernel", "shape": [1, 1, 2048, 192], "dtype": "float32"}]}, {"paths": ["group189-shard1of1"], "weights": [{"name": "dense_1/kernel", "shape": [2048, 2], "dtype": "float32"}, {"name": "dense_1/bias", "shape": [2], "dtype": "float32"}]}]}