{"modelTopology": {"keras_version": "2.1.6", "backend": "tensorflow", "model_config": {"class_name": "Model", "config": {"output_layers": [["dense_1", 0, 0]], "name": "model_1", "input_layers": [["input_1", 0, 0]], "layers": [{"class_name": "InputLayer", "name": "input_1", "config": {"batch_input_shape": [null, 299, 299, 3], "name": "input_1", "dtype": "float32", "sparse": false}, "inbound_nodes": []}, {"class_name": "Conv2D", "name": "conv2d_1", "config": {"bias_regularizer": null, "kernel_initializer": {"class_name": "VarianceScaling", "config": {"mode": "fan_avg", "scale": 1.0, "distribution": "uniform", "seed": null}}, "trainable": false, "name": "conv2d_1", "kernel_constraint": null, "activation": "linear", "kernel_size": [3, 3], "activity_regularizer": null, "bias_initializer": {"class_name": "Zeros", "config": {}}, "bias_constraint": null, "padding": "valid", "dilation_rate": [1, 1], "kernel_regularizer": null, "filters": 32, "data_format": "channels_last", "strides": [2, 2], "use_bias": false}, "inbound_nodes": [[["input_1", 0, 0, {}]]]}, {"class_name": "BatchNormalization", "name": "batch_normalization_1", "config": {"beta_initializer": {"class_name": "Zeros", "config": {}}, "beta_constraint": null, "name": "batch_normalization_1", "epsilon": 0.001, "momentum": 0.99, "gamma_regularizer": null, "scale": false, "trainable": false, "moving_variance_initializer": {"class_name": "Ones", "config": {}}, "beta_regularizer": null, "moving_mean_initializer": {"class_name": "Zeros", "config": {}}, "axis": 3, "gamma_initializer": {"class_name": "Ones", "config": {}}, "gamma_constraint": null, "center": true}, "inbound_nodes": [[["conv2d_1", 0, 0, {}]]]}, {"class_name": "Activation", "name": "activation_1", "config": {"name": "activation_1", "trainable": false, "activation": "relu"}, "inbound_nodes": [[["batch_normalization_1", 0, 0, {}]]]}, {"class_name": "Conv2D", "name": "conv2d_2", "config": {"bias_regularizer": null, "kernel_initializer": {"class_name": "VarianceScaling", "config": {"mode": "fan_avg", "scale": 1.0, "distribution": "uniform", "seed": null}}, "trainable": false, "name": "conv2d_2", "kernel_constraint": null, "activation": "linear", "kernel_size": [3, 3], "activity_regularizer": null, "bias_initializer": {"class_name": "Zeros", "config": {}}, "bias_constraint": null, "padding": "valid", "dilation_rate": [1, 1], "kernel_regularizer": null, "filters": 32, "data_format": "channels_last", "strides": [1, 1], "use_bias": false}, "inbound_nodes": [[["activation_1", 0, 0, {}]]]}, {"class_name": "BatchNormalization", "name": "batch_normalization_2", "config": {"beta_initializer": {"class_name": "Zeros", "config": {}}, "beta_constraint": null, "name": "batch_normalization_2", "epsilon": 0.001, "momentum": 0.99, "gamma_regularizer": null, "scale": false, "trainable": false, "moving_variance_initializer": {"class_name": "Ones", "config": {}}, "beta_regularizer": null, "moving_mean_initializer": {"class_name": "Zeros", "config": {}}, "axis": 3, "gamma_initializer": {"class_name": "Ones", "config": {}}, "gamma_constraint": null, "center": true}, "inbound_nodes": [[["conv2d_2", 0, 0, {}]]]}, {"class_name": "Activation", "name": "activation_2", "config": {"name": "activation_2", "trainable": false, "activation": "relu"}, "inbound_nodes": [[["batch_normalization_2", 0, 0, {}]]]}, {"class_name": "Conv2D", "name": "conv2d_3", "config": {"bias_regularizer": null, "kernel_initializer": {"class_name": "VarianceScaling", "config": {"mode": "fan_avg", "scale": 1.0, "distribution": "uniform", "seed": null}}, "trainable": false, "name": "conv2d_3", "kernel_constraint": null, "activation": "linear", "kernel_size": [3, 3], "activity_regularizer": null, "bias_initializer": {"class_name": "Zeros", "config": {}}, "bias_constraint": null, "padding": "same", "dilation_rate": [1, 1], "kernel_regularizer": null, "filters": 64, "data_format": "channels_last", "strides": [1, 1], "use_bias": false}, "inbound_nodes": [[["activation_2", 0, 0, {}]]]}, {"class_name": "BatchNormalization", "name": "batch_normalization_3", "config": {"beta_initializer": {"class_name": "Zeros", "config": {}}, "beta_constraint": null, "name": "batch_normalization_3", "epsilon": 0.001, "momentum": 0.99, "gamma_regularizer": null, "scale": false, "trainable": false, "moving_variance_initializer": {"class_name": "Ones", "config": {}}, "beta_regularizer": null, "moving_mean_initializer": {"class_name": "Zeros", "config": {}}, "axis": 3, "gamma_initializer": {"class_name": "Ones", "config": {}}, "gamma_constraint": null, "center": true}, "inbound_nodes": [[["conv2d_3", 0, 0, {}]]]}, {"class_name": "Activation", "name": "activation_3", "config": {"name": "activation_3", "trainable": false, "activation": "relu"}, "inbound_nodes": [[["batch_normalization_3", 0, 0, {}]]]}, {"class_name": "MaxPooling2D", "name": "max_pooling2d_1", "config": {"pool_size": [3, 3], "name": "max_pooling2d_1", "padding": "valid", "trainable": false, "data_format": "channels_last", "strides": [2, 2]}, "inbound_nodes": [[["activation_3", 0, 0, {}]]]}, {"class_name": "Conv2D", "name": "conv2d_4", "config": {"bias_regularizer": null, "kernel_initializer": {"class_name": "VarianceScaling", "config": {"mode": "fan_avg", "scale": 1.0, "distribution": "uniform", "seed": null}}, "trainable": false, "name": "conv2d_4", "kernel_constraint": null, "activation": "linear", "kernel_size": [1, 1], "activity_regularizer": null, "bias_initializer": {"class_name": "Zeros", "config": {}}, "bias_constraint": null, "padding": "valid", "dilation_rate": [1, 1], "kernel_regularizer": null, "filters": 80, "data_format": "channels_last", "strides": [1, 1], "use_bias": false}, "inbound_nodes": [[["max_pooling2d_1", 0, 0, {}]]]}, {"class_name": "BatchNormalization", "name": "batch_normalization_4", "config": {"beta_initializer": {"class_name": "Zeros", "config": {}}, "beta_constraint": null, "name": "batch_normalization_4", "epsilon": 0.001, "momentum": 0.99, "gamma_regularizer": null, "scale": false, "trainable": false, "moving_variance_initializer": {"class_name": "Ones", "config": {}}, "beta_regularizer": null, "moving_mean_initializer": {"class_name": "Zeros", "config": {}}, "axis": 3, "gamma_initializer": {"class_name": "Ones", "config": {}}, "gamma_constraint": null, "center": true}, "inbound_nodes": [[["conv2d_4", 0, 0, {}]]]}, {"class_name": "Activation", "name": "activation_4", "config": {"name": "activation_4", "trainable": false, "activation": "relu"}, "inbound_nodes": [[["batch_normalization_4", 0, 0, {}]]]}, {"class_name": "Conv2D", "name": "conv2d_5", "config": {"bias_regularizer": null, "kernel_initializer": {"class_name": "VarianceScaling", "config": {"mode": "fan_avg", "scale": 1.0, "distribution": "uniform", "seed": null}}, "trainable": false, "name": "conv2d_5", "kernel_constraint": null, "activation": "linear", "kernel_size": [3, 3], "activity_regularizer": null, "bias_initializer": {"class_name": "Zeros", "config": {}}, "bias_constraint": null, "padding": "valid", "dilation_rate": [1, 1], "kernel_regularizer": null, "filters": 192, "data_format": "channels_last", "strides": [1, 1], "use_bias": false}, "inbound_nodes": [[["activation_4", 0, 0, {}]]]}, {"class_name": "BatchNormalization", "name": "batch_normalization_5", "config": {"beta_initializer": {"class_name": "Zeros", "config": {}}, "beta_constraint": null, "name": "batch_normalization_5", "epsilon": 0.001, "momentum": 0.99, "gamma_regularizer": null, "scale": false, "trainable": false, "moving_variance_initializer": {"class_name": "Ones", "config": {}}, "beta_regularizer": null, "moving_mean_initializer": {"class_name": "Zeros", "config": {}}, "axis": 3, "gamma_initializer": {"class_name": "Ones", "config": {}}, "gamma_constraint": null, "center": true}, "inbound_nodes": [[["conv2d_5", 0, 0, {}]]]}, {"class_name": "Activation", "name": "activation_5", "config": {"name": "activation_5", "trainable": false, "activation": "relu"}, "inbound_nodes": [[["batch_normalization_5", 0, 0, {}]]]}, {"class_name": "MaxPooling2D", "name": "max_pooling2d_2", "config": {"pool_size": [3, 3], "name": "max_pooling2d_2", "padding": "valid", "trainable": false, "data_format": "channels_last", "strides": [2, 2]}, "inbound_nodes": [[["activation_5", 0, 0, {}]]]}, {"class_name": "Conv2D", "name": "conv2d_9", "config": {"bias_regularizer": null, "kernel_initializer": {"class_name": "VarianceScaling", "config": {"mode": "fan_avg", "scale": 1.0, "distribution": "uniform", "seed": null}}, "trainable": false, "name": "conv2d_9", "kernel_constraint": null, "activation": "linear", "kernel_size": [1, 1], "activity_regularizer": null, "bias_initializer": {"class_name": "Zeros", "config": {}}, "bias_constraint": null, "padding": "same", "dilation_rate": [1, 1], "kernel_regularizer": null, "filters": 64, "data_format": "channels_last", "strides": [1, 1], "use_bias": false}, "inbound_nodes": [[["max_pooling2d_2", 0, 0, {}]]]}, {"class_name": "BatchNormalization", "name": "batch_normalization_9", "config": {"beta_initializer": {"class_name": "Zeros", "config": {}}, "beta_constraint": null, "name": "batch_normalization_9", "epsilon": 0.001, "momentum": 0.99, "gamma_regularizer": null, "scale": false, "trainable": false, "moving_variance_initializer": {"class_name": "Ones", "config": {}}, "beta_regularizer": null, "moving_mean_initializer": {"class_name": "Zeros", "config": {}}, "axis": 3, "gamma_initializer": {"class_name": "Ones", "config": {}}, "gamma_constraint": null, "center": true}, "inbound_nodes": [[["conv2d_9", 0, 0, {}]]]}, {"class_name": "Activation", "name": "activation_9", "config": {"name": "activation_9", "trainable": false, "activation": "relu"}, "inbound_nodes": [[["batch_normalization_9", 0, 0, {}]]]}, {"class_name": "Conv2D", "name": "conv2d_7", "config": {"bias_regularizer": null, "kernel_initializer": {"class_name": "VarianceScaling", "config": {"mode": "fan_avg", "scale": 1.0, "distribution": "uniform", "seed": null}}, "trainable": false, "name": "conv2d_7", "kernel_constraint": null, "activation": "linear", "kernel_size": [1, 1], "activity_regularizer": null, "bias_initializer": {"class_name": "Zeros", "config": {}}, "bias_constraint": null, "padding": "same", "dilation_rate": [1, 1], "kernel_regularizer": null, "filters": 48, "data_format": "channels_last", "strides": [1, 1], "use_bias": false}, "inbound_nodes": [[["max_pooling2d_2", 0, 0, {}]]]}, {"class_name": "Conv2D", "name": "conv2d_10", "config": {"bias_regularizer": null, "kernel_initializer": {"class_name": "VarianceScaling", "config": {"mode": "fan_avg", "scale": 1.0, "distribution": "uniform", "seed": null}}, "trainable": false, "name": "conv2d_10", "kernel_constraint": null, "activation": "linear", "kernel_size": [3, 3], "activity_regularizer": null, "bias_initializer": {"class_name": "Zeros", "config": {}}, "bias_constraint": null, "padding": "same", "dilation_rate": [1, 1], "kernel_regularizer": null, "filters": 96, "data_format": "channels_last", "strides": [1, 1], "use_bias": false}, "inbound_nodes": [[["activation_9", 0, 0, {}]]]}, {"class_name": "BatchNormalization", "name": "batch_normalization_7", "config": {"beta_initializer": {"class_name": "Zeros", "config": {}}, "beta_constraint": null, "name": "batch_normalization_7", "epsilon": 0.001, "momentum": 0.99, "gamma_regularizer": null, "scale": false, "trainable": false, "moving_variance_initializer": {"class_name": "Ones", "config": {}}, "beta_regularizer": null, "moving_mean_initializer": {"class_name": "Zeros", "config": {}}, "axis": 3, "gamma_initializer": {"class_name": "Ones", "config": {}}, "gamma_constraint": null, "center": true}, "inbound_nodes": [[["conv2d_7", 0, 0, {}]]]}, {"class_name": "BatchNormalization", "name": "batch_normalization_10", "config": {"beta_initializer": {"class_name": "Zeros", "config": {}}, "beta_constraint": null, "name": "batch_normalization_10", "epsilon": 0.001, "momentum": 0.99, "gamma_regularizer": null, "scale": false, "trainable": false, "moving_variance_initializer": {"class_name": "Ones", "config": {}}, "beta_regularizer": null, "moving_mean_initializer": {"class_name": "Zeros", "config": {}}, "axis": 3, "gamma_initializer": {"class_name": "Ones", "config": {}}, "gamma_constraint": null, "center": true}, "inbound_nodes": [[["conv2d_10", 0, 0, {}]]]}, {"class_name": "Activation", "name": "activation_7", "config": {"name": "activation_7", "trainable": false, "activation": "relu"}, "inbound_nodes": [[["batch_normalization_7", 0, 0, {}]]]}, {"class_name": "Activation", "name": "activation_10", "config": {"name": "activation_10", "trainable": false, "activation": "relu"}, "inbound_nodes": [[["batch_normalization_10", 0, 0, {}]]]}, {"class_name": "AveragePooling2D", "name": "average_pooling2d_1", "config": {"pool_size": [3, 3], "name": "average_pooling2d_1", "padding": "same", "trainable": false, "data_format": "channels_last", "strides": [1, 1]}, "inbound_nodes": [[["max_pooling2d_2", 0, 0, {}]]]}, {"class_name": "Conv2D", "name": "conv2d_6", "config": {"bias_regularizer": null, "kernel_initializer": {"class_name": "VarianceScaling", "config": {"mode": "fan_avg", "scale": 1.0, "distribution": "uniform", "seed": null}}, "trainable": false, "name": "conv2d_6", "kernel_constraint": null, "activation": "linear", "kernel_size": [1, 1], "activity_regularizer": null, "bias_initializer": {"class_name": "Zeros", "config": {}}, "bias_constraint": null, "padding": "same", "dilation_rate": [1, 1], "kernel_regularizer": null, "filters": 64, "data_format": "channels_last", "strides": [1, 1], "use_bias": false}, "inbound_nodes": [[["max_pooling2d_2", 0, 0, {}]]]}, {"class_name": "Conv2D", "name": "conv2d_8", "config": {"bias_regularizer": null, "kernel_initializer": {"class_name": "VarianceScaling", "config": {"mode": "fan_avg", "scale": 1.0, "distribution": "uniform", "seed": null}}, "trainable": false, "name": "conv2d_8", "kernel_constraint": null, "activation": "linear", "kernel_size": [5, 5], "activity_regularizer": null, "bias_initializer": {"class_name": "Zeros", "config": {}}, "bias_constraint": null, "padding": "same", "dilation_rate": [1, 1], "kernel_regularizer": null, "filters": 64, "data_format": "channels_last", "strides": [1, 1], "use_bias": false}, "inbound_nodes": [[["activation_7", 0, 0, {}]]]}, {"class_name": "Conv2D", "name": "conv2d_11", "config": {"bias_regularizer": null, "kernel_initializer": {"class_name": "VarianceScaling", "config": {"mode": "fan_avg", "scale": 1.0, "distribution": "uniform", "seed": null}}, "trainable": false, "name": "conv2d_11", "kernel_constraint": null, "activation": "linear", "kernel_size": [3, 3], "activity_regularizer": null, "bias_initializer": {"class_name": "Zeros", "config": {}}, "bias_constraint": null, "padding": "same", "dilation_rate": [1, 1], "kernel_regularizer": null, "filters": 96, "data_format": "channels_last", "strides": [1, 1], "use_bias": false}, "inbound_nodes": [[["activation_10", 0, 0, {}]]]}, {"class_name": "Conv2D", "name": "conv2d_12", "config": {"bias_regularizer": null, "kernel_initializer": {"class_name": "VarianceScaling", "config": {"mode": "fan_avg", "scale": 1.0, "distribution": "uniform", "seed": null}}, "trainable": false, "name": "conv2d_12", "kernel_constraint": null, "activation": "linear", "kernel_size": [1, 1], "activity_regularizer": null, "bias_initializer": {"class_name": "Zeros", "config": {}}, "bias_constraint": null, "padding": "same", "dilation_rate": [1, 1], "kernel_regularizer": null, "filters": 32, "data_format": "channels_last", "strides": [1, 1], "use_bias": false}, "inbound_nodes": [[["average_pooling2d_1", 0, 0, {}]]]}, {"class_name": "BatchNormalization", "name": "batch_normalization_6", "config": {"beta_initializer": {"class_name": "Zeros", "config": {}}, "beta_constraint": null, "name": "batch_normalization_6", "epsilon": 0.001, "momentum": 0.99, "gamma_regularizer": null, "scale": false, "trainable": false, "moving_variance_initializer": {"class_name": "Ones", "config": {}}, "beta_regularizer": null, "moving_mean_initializer": {"class_name": "Zeros", "config": {}}, "axis": 3, "gamma_initializer": {"class_name": "Ones", "config": {}}, "gamma_constraint": null, "center": true}, "inbound_nodes": [[["conv2d_6", 0, 0, {}]]]}, {"class_name": "BatchNormalization", "name": "batch_normalization_8", "config": {"beta_initializer": {"class_name": "Zeros", "config": {}}, "beta_constraint": null, "name": "batch_normalization_8", "epsilon": 0.001, "momentum": 0.99, "gamma_regularizer": null, "scale": false, "trainable": false, "moving_variance_initializer": {"class_name": "Ones", "config": {}}, "beta_regularizer": null, "moving_mean_initializer": {"class_name": "Zeros", "config": {}}, "axis": 3, "gamma_initializer": {"class_name": "Ones", "config": {}}, "gamma_constraint": null, "center": true}, "inbound_nodes": [[["conv2d_8", 0, 0, {}]]]}, {"class_name": "BatchNormalization", "name": "batch_normalization_11", "config": {"beta_initializer": {"class_name": "Zeros", "config": {}}, "beta_constraint": null, "name": "batch_normalization_11", "epsilon": 0.001, "momentum": 0.99, "gamma_regularizer": null, "scale": false, "trainable": false, "moving_variance_initializer": {"class_name": "Ones", "config": {}}, "beta_regularizer": null, "moving_mean_initializer": {"class_name": "Zeros", "config": {}}, "axis": 3, "gamma_initializer": {"class_name": "Ones", "config": {}}, "gamma_constraint": null, "center": true}, "inbound_nodes": [[["conv2d_11", 0, 0, {}]]]}, {"class_name": "BatchNormalization", "name": "batch_normalization_12", "config": {"beta_initializer": {"class_name": "Zeros", "config": {}}, "beta_constraint": null, "name": "batch_normalization_12", "epsilon": 0.001, "momentum": 0.99, "gamma_regularizer": null, "scale": false, "trainable": false, "moving_variance_initializer": {"class_name": "Ones", "config": {}}, "beta_regularizer": null, "moving_mean_initializer": {"class_name": "Zeros", "config": {}}, "axis": 3, "gamma_initializer": {"class_name": "Ones", "config": {}}, "gamma_constraint": null, "center": true}, "inbound_nodes": [[["conv2d_12", 0, 0, {}]]]}, {"class_name": "Activation", "name": "activation_6", "config": {"name": "activation_6", "trainable": false, "activation": "relu"}, "inbound_nodes": [[["batch_normalization_6", 0, 0, {}]]]}, {"class_name": "Activation", "name": "activation_8", "config": {"name": "activation_8", "trainable": false, "activation": "relu"}, "inbound_nodes": [[["batch_normalization_8", 0, 0, {}]]]}, {"class_name": "Activation", "name": "activation_11", "config": {"name": "activation_11", "trainable": false, "activation": "relu"}, "inbound_nodes": [[["batch_normalization_11", 0, 0, {}]]]}, {"class_name": "Activation", "name": "activation_12", "config": {"name": "activation_12", "trainable": false, "activation": "relu"}, "inbound_nodes": [[["batch_normalization_12", 0, 0, {}]]]}, {"class_name": "Concatenate", "name": "mixed0", "config": {"trainable": false, "name": "mixed0", "axis": 3}, "inbound_nodes": [[["activation_6", 0, 0, {}], ["activation_8", 0, 0, {}], ["activation_11", 0, 0, {}], ["activation_12", 0, 0, {}]]]}, {"class_name": "Conv2D", "name": "conv2d_16", "config": {"bias_regularizer": null, "kernel_initializer": {"class_name": "VarianceScaling", "config": {"mode": "fan_avg", "scale": 1.0, "distribution": "uniform", "seed": null}}, "trainable": false, "name": "conv2d_16", "kernel_constraint": null, "activation": "linear", "kernel_size": [1, 1], "activity_regularizer": null, "bias_initializer": {"class_name": "Zeros", "config": {}}, "bias_constraint": null, "padding": "same", "dilation_rate": [1, 1], "kernel_regularizer": null, "filters": 64, "data_format": "channels_last", "strides": [1, 1], "use_bias": false}, "inbound_nodes": [[["mixed0", 0, 0, {}]]]}, {"class_name": "BatchNormalization", "name": "batch_normalization_16", "config": {"beta_initializer": {"class_name": "Zeros", "config": {}}, "beta_constraint": null, "name": "batch_normalization_16", "epsilon": 0.001, "momentum": 0.99, "gamma_regularizer": null, "scale": false, "trainable": false, "moving_variance_initializer": {"class_name": "Ones", "config": {}}, "beta_regularizer": null, "moving_mean_initializer": {"class_name": "Zeros", "config": {}}, "axis": 3, "gamma_initializer": {"class_name": "Ones", "config": {}}, "gamma_constraint": null, "center": true}, "inbound_nodes": [[["conv2d_16", 0, 0, {}]]]}, {"class_name": "Activation", "name": "activation_16", "config": {"name": "activation_16", "trainable": false, "activation": "relu"}, "inbound_nodes": [[["batch_normalization_16", 0, 0, {}]]]}, {"class_name": "Conv2D", "name": "conv2d_14", "config": {"bias_regularizer": null, "kernel_initializer": {"class_name": "VarianceScaling", "config": {"mode": "fan_avg", "scale": 1.0, "distribution": "uniform", "seed": null}}, "trainable": false, "name": "conv2d_14", "kernel_constraint": null, "activation": "linear", "kernel_size": [1, 1], "activity_regularizer": null, "bias_initializer": {"class_name": "Zeros", "config": {}}, "bias_constraint": null, "padding": "same", "dilation_rate": [1, 1], "kernel_regularizer": null, "filters": 48, "data_format": "channels_last", "strides": [1, 1], "use_bias": false}, "inbound_nodes": [[["mixed0", 0, 0, {}]]]}, {"class_name": "Conv2D", "name": "conv2d_17", "config": {"bias_regularizer": null, "kernel_initializer": {"class_name": "VarianceScaling", "config": {"mode": "fan_avg", "scale": 1.0, "distribution": "uniform", "seed": null}}, "trainable": false, "name": "conv2d_17", "kernel_constraint": null, "activation": "linear", "kernel_size": [3, 3], "activity_regularizer": null, "bias_initializer": {"class_name": "Zeros", "config": {}}, "bias_constraint": null, "padding": "same", "dilation_rate": [1, 1], "kernel_regularizer": null, "filters": 96, "data_format": "channels_last", "strides": [1, 1], "use_bias": false}, "inbound_nodes": [[["activation_16", 0, 0, {}]]]}, {"class_name": "BatchNormalization", "name": "batch_normalization_14", "config": {"beta_initializer": {"class_name": "Zeros", "config": {}}, "beta_constraint": null, "name": "batch_normalization_14", "epsilon": 0.001, "momentum": 0.99, "gamma_regularizer": null, "scale": false, "trainable": false, "moving_variance_initializer": {"class_name": "Ones", "config": {}}, "beta_regularizer": null, "moving_mean_initializer": {"class_name": "Zeros", "config": {}}, "axis": 3, "gamma_initializer": {"class_name": "Ones", "config": {}}, "gamma_constraint": null, "center": true}, "inbound_nodes": [[["conv2d_14", 0, 0, {}]]]}, {"class_name": "BatchNormalization", "name": "batch_normalization_17", "config": {"beta_initializer": {"class_name": "Zeros", "config": {}}, "beta_constraint": null, "name": "batch_normalization_17", "epsilon": 0.001, "momentum": 0.99, "gamma_regularizer": null, "scale": false, "trainable": false, "moving_variance_initializer": {"class_name": "Ones", "config": {}}, "beta_regularizer": null, "moving_mean_initializer": {"class_name": "Zeros", "config": {}}, "axis": 3, "gamma_initializer": {"class_name": "Ones", "config": {}}, "gamma_constraint": null, "center": true}, "inbound_nodes": [[["conv2d_17", 0, 0, {}]]]}, {"class_name": "Activation", "name": "activation_14", "config": {"name": "activation_14", "trainable": false, "activation": "relu"}, "inbound_nodes": [[["batch_normalization_14", 0, 0, {}]]]}, {"class_name": "Activation", "name": "activation_17", "config": {"name": "activation_17", "trainable": false, "activation": "relu"}, "inbound_nodes": [[["batch_normalization_17", 0, 0, {}]]]}, {"class_name": "AveragePooling2D", "name": "average_pooling2d_2", "config": {"pool_size": [3, 3], "name": "average_pooling2d_2", "padding": "same", "trainable": false, "data_format": "channels_last", "strides": [1, 1]}, "inbound_nodes": [[["mixed0", 0, 0, {}]]]}, {"class_name": "Conv2D", "name": "conv2d_13", "config": {"bias_regularizer": null, "kernel_initializer": {"class_name": "VarianceScaling", "config": {"mode": "fan_avg", "scale": 1.0, "distribution": "uniform", "seed": null}}, "trainable": false, "name": "conv2d_13", "kernel_constraint": null, "activation": "linear", "kernel_size": [1, 1], "activity_regularizer": null, "bias_initializer": {"class_name": "Zeros", "config": {}}, "bias_constraint": null, "padding": "same", "dilation_rate": [1, 1], "kernel_regularizer": null, "filters": 64, "data_format": "channels_last", "strides": [1, 1], "use_bias": false}, "inbound_nodes": [[["mixed0", 0, 0, {}]]]}, {"class_name": "Conv2D", "name": "conv2d_15", "config": {"bias_regularizer": null, "kernel_initializer": {"class_name": "VarianceScaling", "config": {"mode": "fan_avg", "scale": 1.0, "distribution": "uniform", "seed": null}}, "trainable": false, "name": "conv2d_15", "kernel_constraint": null, "activation": "linear", "kernel_size": [5, 5], "activity_regularizer": null, "bias_initializer": {"class_name": "Zeros", "config": {}}, "bias_constraint": null, "padding": "same", "dilation_rate": [1, 1], "kernel_regularizer": null, "filters": 64, "data_format": "channels_last", "strides": [1, 1], "use_bias": false}, "inbound_nodes": [[["activation_14", 0, 0, {}]]]}, {"class_name": "Conv2D", "name": "conv2d_18", "config": {"bias_regularizer": null, "kernel_initializer": {"class_name": "VarianceScaling", "config": {"mode": "fan_avg", "scale": 1.0, "distribution": "uniform", "seed": null}}, "trainable": false, "name": "conv2d_18", "kernel_constraint": null, "activation": "linear", "kernel_size": [3, 3], "activity_regularizer": null, "bias_initializer": {"class_name": "Zeros", "config": {}}, "bias_constraint": null, "padding": "same", "dilation_rate": [1, 1], "kernel_regularizer": null, "filters": 96, "data_format": "channels_last", "strides": [1, 1], "use_bias": false}, "inbound_nodes": [[["activation_17", 0, 0, {}]]]}, {"class_name": "Conv2D", "name": "conv2d_19", "config": {"bias_regularizer": null, "kernel_initializer": {"class_name": "VarianceScaling", "config": {"mode": "fan_avg", "scale": 1.0, "distribution": "uniform", "seed": null}}, "trainable": false, "name": "conv2d_19", "kernel_constraint": null, "activation": "linear", "kernel_size": [1, 1], "activity_regularizer": null, "bias_initializer": {"class_name": "Zeros", "config": {}}, "bias_constraint": null, "padding": "same", "dilation_rate": [1, 1], "kernel_regularizer": null, "filters": 64, "data_format": "channels_last", "strides": [1, 1], "use_bias": false}, "inbound_nodes": [[["average_pooling2d_2", 0, 0, {}]]]}, {"class_name": "BatchNormalization", "name": "batch_normalization_13", "config": {"beta_initializer": {"class_name": "Zeros", "config": {}}, "beta_constraint": null, "name": "batch_normalization_13", "epsilon": 0.001, "momentum": 0.99, "gamma_regularizer": null, "scale": false, "trainable": false, "moving_variance_initializer": {"class_name": "Ones", "config": {}}, "beta_regularizer": null, "moving_mean_initializer": {"class_name": "Zeros", "config": {}}, "axis": 3, "gamma_initializer": {"class_name": "Ones", "config": {}}, "gamma_constraint": null, "center": true}, "inbound_nodes": [[["conv2d_13", 0, 0, {}]]]}, {"class_name": "BatchNormalization", "name": "batch_normalization_15", "config": {"beta_initializer": {"class_name": "Zeros", "config": {}}, "beta_constraint": null, "name": "batch_normalization_15", "epsilon": 0.001, "momentum": 0.99, "gamma_regularizer": null, "scale": false, "trainable": false, "moving_variance_initializer": {"class_name": "Ones", "config": {}}, "beta_regularizer": null, "moving_mean_initializer": {"class_name": "Zeros", "config": {}}, "axis": 3, "gamma_initializer": {"class_name": "Ones", "config": {}}, "gamma_constraint": null, "center": true}, "inbound_nodes": [[["conv2d_15", 0, 0, {}]]]}, {"class_name": "BatchNormalization", "name": "batch_normalization_18", "config": {"beta_initializer": {"class_name": "Zeros", "config": {}}, "beta_constraint": null, "name": "batch_normalization_18", "epsilon": 0.001, "momentum": 0.99, "gamma_regularizer": null, "scale": false, "trainable": false, "moving_variance_initializer": {"class_name": "Ones", "config": {}}, "beta_regularizer": null, "moving_mean_initializer": {"class_name": "Zeros", "config": {}}, "axis": 3, "gamma_initializer": {"class_name": "Ones", "config": {}}, "gamma_constraint": null, "center": true}, "inbound_nodes": [[["conv2d_18", 0, 0, {}]]]}, {"class_name": "BatchNormalization", "name": "batch_normalization_19", "config": {"beta_initializer": {"class_name": "Zeros", "config": {}}, "beta_constraint": null, "name": "batch_normalization_19", "epsilon": 0.001, "momentum": 0.99, "gamma_regularizer": null, "scale": false, "trainable": false, "moving_variance_initializer": {"class_name": "Ones", "config": {}}, "beta_regularizer": null, "moving_mean_initializer": {"class_name": "Zeros", "config": {}}, "axis": 3, "gamma_initializer": {"class_name": "Ones", "config": {}}, "gamma_constraint": null, "center": true}, "inbound_nodes": [[["conv2d_19", 0, 0, {}]]]}, {"class_name": "Activation", "name": "activation_13", "config": {"name": "activation_13", "trainable": false, "activation": "relu"}, "inbound_nodes": [[["batch_normalization_13", 0, 0, {}]]]}, {"class_name": "Activation", "name": "activation_15", "config": {"name": "activation_15", "trainable": false, "activation": "relu"}, "inbound_nodes": [[["batch_normalization_15", 0, 0, {}]]]}, {"class_name": "Activation", "name": "activation_18", "config": {"name": "activation_18", "trainable": false, "activation": "relu"}, "inbound_nodes": [[["batch_normalization_18", 0, 0, {}]]]}, {"class_name": "Activation", "name": "activation_19", "config": {"name": "activation_19", "trainable": false, "activation": "relu"}, "inbound_nodes": [[["batch_normalization_19", 0, 0, {}]]]}, {"class_name": "Concatenate", "name": "mixed1", "config": {"trainable": false, "name": "mixed1", "axis": 3}, "inbound_nodes": [[["activation_13", 0, 0, {}], ["activation_15", 0, 0, {}], ["activation_18", 0, 0, {}], ["activation_19", 0, 0, {}]]]}, {"class_name": "Conv2D", "name": "conv2d_23", "config": {"bias_regularizer": null, "kernel_initializer": {"class_name": "VarianceScaling", "config": {"mode": "fan_avg", "scale": 1.0, "distribution": "uniform", "seed": null}}, "trainable": false, "name": "conv2d_23", "kernel_constraint": null, "activation": "linear", "kernel_size": [1, 1], "activity_regularizer": null, "bias_initializer": {"class_name": "Zeros", "config": {}}, "bias_constraint": null, "padding": "same", "dilation_rate": [1, 1], "kernel_regularizer": null, "filters": 64, "data_format": "channels_last", "strides": [1, 1], "use_bias": false}, "inbound_nodes": [[["mixed1", 0, 0, {}]]]}, {"class_name": "BatchNormalization", "name": "batch_normalization_23", "config": {"beta_initializer": {"class_name": "Zeros", "config": {}}, "beta_constraint": null, "name": "batch_normalization_23", "epsilon": 0.001, "momentum": 0.99, "gamma_regularizer": null, "scale": false, "trainable": false, "moving_variance_initializer": {"class_name": "Ones", "config": {}}, "beta_regularizer": null, "moving_mean_initializer": {"class_name": "Zeros", "config": {}}, "axis": 3, "gamma_initializer": {"class_name": "Ones", "config": {}}, "gamma_constraint": null, "center": true}, "inbound_nodes": [[["conv2d_23", 0, 0, {}]]]}, {"class_name": "Activation", "name": "activation_23", "config": {"name": "activation_23", "trainable": false, "activation": "relu"}, "inbound_nodes": [[["batch_normalization_23", 0, 0, {}]]]}, {"class_name": "Conv2D", "name": "conv2d_21", "config": {"bias_regularizer": null, "kernel_initializer": {"class_name": "VarianceScaling", "config": {"mode": "fan_avg", "scale": 1.0, "distribution": "uniform", "seed": null}}, "trainable": false, "name": "conv2d_21", "kernel_constraint": null, "activation": "linear", "kernel_size": [1, 1], "activity_regularizer": null, "bias_initializer": {"class_name": "Zeros", "config": {}}, "bias_constraint": null, "padding": "same", "dilation_rate": [1, 1], "kernel_regularizer": null, "filters": 48, "data_format": "channels_last", "strides": [1, 1], "use_bias": false}, "inbound_nodes": [[["mixed1", 0, 0, {}]]]}, {"class_name": "Conv2D", "name": "conv2d_24", "config": {"bias_regularizer": null, "kernel_initializer": {"class_name": "VarianceScaling", "config": {"mode": "fan_avg", "scale": 1.0, "distribution": "uniform", "seed": null}}, "trainable": false, "name": "conv2d_24", "kernel_constraint": null, "activation": "linear", "kernel_size": [3, 3], "activity_regularizer": null, "bias_initializer": {"class_name": "Zeros", "config": {}}, "bias_constraint": null, "padding": "same", "dilation_rate": [1, 1], "kernel_regularizer": null, "filters": 96, "data_format": "channels_last", "strides": [1, 1], "use_bias": false}, "inbound_nodes": [[["activation_23", 0, 0, {}]]]}, {"class_name": "BatchNormalization", "name": "batch_normalization_21", "config": {"beta_initializer": {"class_name": "Zeros", "config": {}}, "beta_constraint": null, "name": "batch_normalization_21", "epsilon": 0.001, "momentum": 0.99, "gamma_regularizer": null, "scale": false, "trainable": false, "moving_variance_initializer": {"class_name": "Ones", "config": {}}, "beta_regularizer": null, "moving_mean_initializer": {"class_name": "Zeros", "config": {}}, "axis": 3, "gamma_initializer": {"class_name": "Ones", "config": {}}, "gamma_constraint": null, "center": true}, "inbound_nodes": [[["conv2d_21", 0, 0, {}]]]}, {"class_name": "BatchNormalization", "name": "batch_normalization_24", "config": {"beta_initializer": {"class_name": "Zeros", "config": {}}, "beta_constraint": null, "name": "batch_normalization_24", "epsilon": 0.001, "momentum": 0.99, "gamma_regularizer": null, "scale": false, "trainable": false, "moving_variance_initializer": {"class_name": "Ones", "config": {}}, "beta_regularizer": null, "moving_mean_initializer": {"class_name": "Zeros", "config": {}}, "axis": 3, "gamma_initializer": {"class_name": "Ones", "config": {}}, "gamma_constraint": null, "center": true}, "inbound_nodes": [[["conv2d_24", 0, 0, {}]]]}, {"class_name": "Activation", "name": "activation_21", "config": {"name": "activation_21", "trainable": false, "activation": "relu"}, "inbound_nodes": [[["batch_normalization_21", 0, 0, {}]]]}, {"class_name": "Activation", "name": "activation_24", "config": {"name": "activation_24", "trainable": false, "activation": "relu"}, "inbound_nodes": [[["batch_normalization_24", 0, 0, {}]]]}, {"class_name": "AveragePooling2D", "name": "average_pooling2d_3", "config": {"pool_size": [3, 3], "name": "average_pooling2d_3", "padding": "same", "trainable": false, "data_format": "channels_last", "strides": [1, 1]}, "inbound_nodes": [[["mixed1", 0, 0, {}]]]}, {"class_name": "Conv2D", "name": "conv2d_20", "config": {"bias_regularizer": null, "kernel_initializer": {"class_name": "VarianceScaling", "config": {"mode": "fan_avg", "scale": 1.0, "distribution": "uniform", "seed": null}}, "trainable": false, "name": "conv2d_20", "kernel_constraint": null, "activation": "linear", "kernel_size": [1, 1], "activity_regularizer": null, "bias_initializer": {"class_name": "Zeros", "config": {}}, "bias_constraint": null, "padding": "same", "dilation_rate": [1, 1], "kernel_regularizer": null, "filters": 64, "data_format": "channels_last", "strides": [1, 1], "use_bias": false}, "inbound_nodes": [[["mixed1", 0, 0, {}]]]}, {"class_name": "Conv2D", "name": "conv2d_22", "config": {"bias_regularizer": null, "kernel_initializer": {"class_name": "VarianceScaling", "config": {"mode": "fan_avg", "scale": 1.0, "distribution": "uniform", "seed": null}}, "trainable": false, "name": "conv2d_22", "kernel_constraint": null, "activation": "linear", "kernel_size": [5, 5], "activity_regularizer": null, "bias_initializer": {"class_name": "Zeros", "config": {}}, "bias_constraint": null, "padding": "same", "dilation_rate": [1, 1], "kernel_regularizer": null, "filters": 64, "data_format": "channels_last", "strides": [1, 1], "use_bias": false}, "inbound_nodes": [[["activation_21", 0, 0, {}]]]}, {"class_name": "Conv2D", "name": "conv2d_25", "config": {"bias_regularizer": null, "kernel_initializer": {"class_name": "VarianceScaling", "config": {"mode": "fan_avg", "scale": 1.0, "distribution": "uniform", "seed": null}}, "trainable": false, "name": "conv2d_25", "kernel_constraint": null, "activation": "linear", "kernel_size": [3, 3], "activity_regularizer": null, "bias_initializer": {"class_name": "Zeros", "config": {}}, "bias_constraint": null, "padding": "same", "dilation_rate": [1, 1], "kernel_regularizer": null, "filters": 96, "data_format": "channels_last", "strides": [1, 1], "use_bias": false}, "inbound_nodes": [[["activation_24", 0, 0, {}]]]}, {"class_name": "Conv2D", "name": "conv2d_26", "config": {"bias_regularizer": null, "kernel_initializer": {"class_name": "VarianceScaling", "config": {"mode": "fan_avg", "scale": 1.0, "distribution": "uniform", "seed": null}}, "trainable": false, "name": "conv2d_26", "kernel_constraint": null, "activation": "linear", "kernel_size": [1, 1], "activity_regularizer": null, "bias_initializer": {"class_name": "Zeros", "config": {}}, "bias_constraint": null, "padding": "same", "dilation_rate": [1, 1], "kernel_regularizer": null, "filters": 64, "data_format": "channels_last", "strides": [1, 1], "use_bias": false}, "inbound_nodes": [[["average_pooling2d_3", 0, 0, {}]]]}, {"class_name": "BatchNormalization", "name": "batch_normalization_20", "config": {"beta_initializer": {"class_name": "Zeros", "config": {}}, "beta_constraint": null, "name": "batch_normalization_20", "epsilon": 0.001, "momentum": 0.99, "gamma_regularizer": null, "scale": false, "trainable": false, "moving_variance_initializer": {"class_name": "Ones", "config": {}}, "beta_regularizer": null, "moving_mean_initializer": {"class_name": "Zeros", "config": {}}, "axis": 3, "gamma_initializer": {"class_name": "Ones", "config": {}}, "gamma_constraint": null, "center": true}, "inbound_nodes": [[["conv2d_20", 0, 0, {}]]]}, {"class_name": "BatchNormalization", "name": "batch_normalization_22", "config": {"beta_initializer": {"class_name": "Zeros", "config": {}}, "beta_constraint": null, "name": "batch_normalization_22", "epsilon": 0.001, "momentum": 0.99, "gamma_regularizer": null, "scale": false, "trainable": false, "moving_variance_initializer": {"class_name": "Ones", "config": {}}, "beta_regularizer": null, "moving_mean_initializer": {"class_name": "Zeros", "config": {}}, "axis": 3, "gamma_initializer": {"class_name": "Ones", "config": {}}, "gamma_constraint": null, "center": true}, "inbound_nodes": [[["conv2d_22", 0, 0, {}]]]}, {"class_name": "BatchNormalization", "name": "batch_normalization_25", "config": {"beta_initializer": {"class_name": "Zeros", "config": {}}, "beta_constraint": null, "name": "batch_normalization_25", "epsilon": 0.001, "momentum": 0.99, "gamma_regularizer": null, "scale": false, "trainable": false, "moving_variance_initializer": {"class_name": "Ones", "config": {}}, "beta_regularizer": null, "moving_mean_initializer": {"class_name": "Zeros", "config": {}}, "axis": 3, "gamma_initializer": {"class_name": "Ones", "config": {}}, "gamma_constraint": null, "center": true}, "inbound_nodes": [[["conv2d_25", 0, 0, {}]]]}, {"class_name": "BatchNormalization", "name": "batch_normalization_26", "config": {"beta_initializer": {"class_name": "Zeros", "config": {}}, "beta_constraint": null, "name": "batch_normalization_26", "epsilon": 0.001, "momentum": 0.99, "gamma_regularizer": null, "scale": false, "trainable": false, "moving_variance_initializer": {"class_name": "Ones", "config": {}}, "beta_regularizer": null, "moving_mean_initializer": {"class_name": "Zeros", "config": {}}, "axis": 3, "gamma_initializer": {"class_name": "Ones", "config": {}}, "gamma_constraint": null, "center": true}, "inbound_nodes": [[["conv2d_26", 0, 0, {}]]]}, {"class_name": "Activation", "name": "activation_20", "config": {"name": "activation_20", "trainable": false, "activation": "relu"}, "inbound_nodes": [[["batch_normalization_20", 0, 0, {}]]]}, {"class_name": "Activation", "name": "activation_22", "config": {"name": "activation_22", "trainable": false, "activation": "relu"}, "inbound_nodes": [[["batch_normalization_22", 0, 0, {}]]]}, {"class_name": "Activation", "name": "activation_25", "config": {"name": "activation_25", "trainable": false, "activation": "relu"}, "inbound_nodes": [[["batch_normalization_25", 0, 0, {}]]]}, {"class_name": "Activation", "name": "activation_26", "config": {"name": "activation_26", "trainable": false, "activation": "relu"}, "inbound_nodes": [[["batch_normalization_26", 0, 0, {}]]]}, {"class_name": "Concatenate", "name": "mixed2", "config": {"trainable": false, "name": "mixed2", "axis": 3}, "inbound_nodes": [[["activation_20", 0, 0, {}], ["activation_22", 0, 0, {}], ["activation_25", 0, 0, {}], ["activation_26", 0, 0, {}]]]}, {"class_name": "Conv2D", "name": "conv2d_28", "config": {"bias_regularizer": null, "kernel_initializer": {"class_name": "VarianceScaling", "config": {"mode": "fan_avg", "scale": 1.0, "distribution": "uniform", "seed": null}}, "trainable": false, "name": "conv2d_28", "kernel_constraint": null, "activation": "linear", "kernel_size": [1, 1], "activity_regularizer": null, "bias_initializer": {"class_name": "Zeros", "config": {}}, "bias_constraint": null, "padding": "same", "dilation_rate": [1, 1], "kernel_regularizer": null, "filters": 64, "data_format": "channels_last", "strides": [1, 1], "use_bias": false}, "inbound_nodes": [[["mixed2", 0, 0, {}]]]}, {"class_name": "BatchNormalization", "name": "batch_normalization_28", "config": {"beta_initializer": {"class_name": "Zeros", "config": {}}, "beta_constraint": null, "name": "batch_normalization_28", "epsilon": 0.001, "momentum": 0.99, "gamma_regularizer": null, "scale": false, "trainable": false, "moving_variance_initializer": {"class_name": "Ones", "config": {}}, "beta_regularizer": null, "moving_mean_initializer": {"class_name": "Zeros", "config": {}}, "axis": 3, "gamma_initializer": {"class_name": "Ones", "config": {}}, "gamma_constraint": null, "center": true}, "inbound_nodes": [[["conv2d_28", 0, 0, {}]]]}, {"class_name": "Activation", "name": "activation_28", "config": {"name": "activation_28", "trainable": false, "activation": "relu"}, "inbound_nodes": [[["batch_normalization_28", 0, 0, {}]]]}, {"class_name": "Conv2D", "name": "conv2d_29", "config": {"bias_regularizer": null, "kernel_initializer": {"class_name": "VarianceScaling", "config": {"mode": "fan_avg", "scale": 1.0, "distribution": "uniform", "seed": null}}, "trainable": false, "name": "conv2d_29", "kernel_constraint": null, "activation": "linear", "kernel_size": [3, 3], "activity_regularizer": null, "bias_initializer": {"class_name": "Zeros", "config": {}}, "bias_constraint": null, "padding": "same", "dilation_rate": [1, 1], "kernel_regularizer": null, "filters": 96, "data_format": "channels_last", "strides": [1, 1], "use_bias": false}, "inbound_nodes": [[["activation_28", 0, 0, {}]]]}, {"class_name": "BatchNormalization", "name": "batch_normalization_29", "config": {"beta_initializer": {"class_name": "Zeros", "config": {}}, "beta_constraint": null, "name": "batch_normalization_29", "epsilon": 0.001, "momentum": 0.99, "gamma_regularizer": null, "scale": false, "trainable": false, "moving_variance_initializer": {"class_name": "Ones", "config": {}}, "beta_regularizer": null, "moving_mean_initializer": {"class_name": "Zeros", "config": {}}, "axis": 3, "gamma_initializer": {"class_name": "Ones", "config": {}}, "gamma_constraint": null, "center": true}, "inbound_nodes": [[["conv2d_29", 0, 0, {}]]]}, {"class_name": "Activation", "name": "activation_29", "config": {"name": "activation_29", "trainable": false, "activation": "relu"}, "inbound_nodes": [[["batch_normalization_29", 0, 0, {}]]]}, {"class_name": "Conv2D", "name": "conv2d_27", "config": {"bias_regularizer": null, "kernel_initializer": {"class_name": "VarianceScaling", "config": {"mode": "fan_avg", "scale": 1.0, "distribution": "uniform", "seed": null}}, "trainable": false, "name": "conv2d_27", "kernel_constraint": null, "activation": "linear", "kernel_size": [3, 3], "activity_regularizer": null, "bias_initializer": {"class_name": "Zeros", "config": {}}, "bias_constraint": null, "padding": "valid", "dilation_rate": [1, 1], "kernel_regularizer": null, "filters": 384, "data_format": "channels_last", "strides": [2, 2], "use_bias": false}, "inbound_nodes": [[["mixed2", 0, 0, {}]]]}, {"class_name": "Conv2D", "name": "conv2d_30", "config": {"bias_regularizer": null, "kernel_initializer": {"class_name": "VarianceScaling", "config": {"mode": "fan_avg", "scale": 1.0, "distribution": "uniform", "seed": null}}, "trainable": false, "name": "conv2d_30", "kernel_constraint": null, "activation": "linear", "kernel_size": [3, 3], "activity_regularizer": null, "bias_initializer": {"class_name": "Zeros", "config": {}}, "bias_constraint": null, "padding": "valid", "dilation_rate": [1, 1], "kernel_regularizer": null, "filters": 96, "data_format": "channels_last", "strides": [2, 2], "use_bias": false}, "inbound_nodes": [[["activation_29", 0, 0, {}]]]}, {"class_name": "BatchNormalization", "name": "batch_normalization_27", "config": {"beta_initializer": {"class_name": "Zeros", "config": {}}, "beta_constraint": null, "name": "batch_normalization_27", "epsilon": 0.001, "momentum": 0.99, "gamma_regularizer": null, "scale": false, "trainable": false, "moving_variance_initializer": {"class_name": "Ones", "config": {}}, "beta_regularizer": null, "moving_mean_initializer": {"class_name": "Zeros", "config": {}}, "axis": 3, "gamma_initializer": {"class_name": "Ones", "config": {}}, "gamma_constraint": null, "center": true}, "inbound_nodes": [[["conv2d_27", 0, 0, {}]]]}, {"class_name": "BatchNormalization", "name": "batch_normalization_30", "config": {"beta_initializer": {"class_name": "Zeros", "config": {}}, "beta_constraint": null, "name": "batch_normalization_30", "epsilon": 0.001, "momentum": 0.99, "gamma_regularizer": null, "scale": false, "trainable": false, "moving_variance_initializer": {"class_name": "Ones", "config": {}}, "beta_regularizer": null, "moving_mean_initializer": {"class_name": "Zeros", "config": {}}, "axis": 3, "gamma_initializer": {"class_name": "Ones", "config": {}}, "gamma_constraint": null, "center": true}, "inbound_nodes": [[["conv2d_30", 0, 0, {}]]]}, {"class_name": "Activation", "name": "activation_27", "config": {"name": "activation_27", "trainable": false, "activation": "relu"}, "inbound_nodes": [[["batch_normalization_27", 0, 0, {}]]]}, {"class_name": "Activation", "name": "activation_30", "config": {"name": "activation_30", "trainable": false, "activation": "relu"}, "inbound_nodes": [[["batch_normalization_30", 0, 0, {}]]]}, {"class_name": "MaxPooling2D", "name": "max_pooling2d_3", "config": {"pool_size": [3, 3], "name": "max_pooling2d_3", "padding": "valid", "trainable": false, "data_format": "channels_last", "strides": [2, 2]}, "inbound_nodes": [[["mixed2", 0, 0, {}]]]}, {"class_name": "Concatenate", "name": "mixed3", "config": {"trainable": false, "name": "mixed3", "axis": 3}, "inbound_nodes": [[["activation_27", 0, 0, {}], ["activation_30", 0, 0, {}], ["max_pooling2d_3", 0, 0, {}]]]}, {"class_name": "Conv2D", "name": "conv2d_35", "config": {"bias_regularizer": null, "kernel_initializer": {"class_name": "VarianceScaling", "config": {"mode": "fan_avg", "scale": 1.0, "distribution": "uniform", "seed": null}}, "trainable": false, "name": "conv2d_35", "kernel_constraint": null, "activation": "linear", "kernel_size": [1, 1], "activity_regularizer": null, "bias_initializer": {"class_name": "Zeros", "config": {}}, "bias_constraint": null, "padding": "same", "dilation_rate": [1, 1], "kernel_regularizer": null, "filters": 128, "data_format": "channels_last", "strides": [1, 1], "use_bias": false}, "inbound_nodes": [[["mixed3", 0, 0, {}]]]}, {"class_name": "BatchNormalization", "name": "batch_normalization_35", "config": {"beta_initializer": {"class_name": "Zeros", "config": {}}, "beta_constraint": null, "name": "batch_normalization_35", "epsilon": 0.001, "momentum": 0.99, "gamma_regularizer": null, "scale": false, "trainable": false, "moving_variance_initializer": {"class_name": "Ones", "config": {}}, "beta_regularizer": null, "moving_mean_initializer": {"class_name": "Zeros", "config": {}}, "axis": 3, "gamma_initializer": {"class_name": "Ones", "config": {}}, "gamma_constraint": null, "center": true}, "inbound_nodes": [[["conv2d_35", 0, 0, {}]]]}, {"class_name": "Activation", "name": "activation_35", "config": {"name": "activation_35", "trainable": false, "activation": "relu"}, "inbound_nodes": [[["batch_normalization_35", 0, 0, {}]]]}, {"class_name": "Conv2D", "name": "conv2d_36", "config": {"bias_regularizer": null, "kernel_initializer": {"class_name": "VarianceScaling", "config": {"mode": "fan_avg", "scale": 1.0, "distribution": "uniform", "seed": null}}, "trainable": false, "name": "conv2d_36", "kernel_constraint": null, "activation": "linear", "kernel_size": [7, 1], "activity_regularizer": null, "bias_initializer": {"class_name": "Zeros", "config": {}}, "bias_constraint": null, "padding": "same", "dilation_rate": [1, 1], "kernel_regularizer": null, "filters": 128, "data_format": "channels_last", "strides": [1, 1], "use_bias": false}, "inbound_nodes": [[["activation_35", 0, 0, {}]]]}, {"class_name": "BatchNormalization", "name": "batch_normalization_36", "config": {"beta_initializer": {"class_name": "Zeros", "config": {}}, "beta_constraint": null, "name": "batch_normalization_36", "epsilon": 0.001, "momentum": 0.99, "gamma_regularizer": null, "scale": false, "trainable": false, "moving_variance_initializer": {"class_name": "Ones", "config": {}}, "beta_regularizer": null, "moving_mean_initializer": {"class_name": "Zeros", "config": {}}, "axis": 3, "gamma_initializer": {"class_name": "Ones", "config": {}}, "gamma_constraint": null, "center": true}, "inbound_nodes": [[["conv2d_36", 0, 0, {}]]]}, {"class_name": "Activation", "name": "activation_36", "config": {"name": "activation_36", "trainable": false, "activation": "relu"}, "inbound_nodes": [[["batch_normalization_36", 0, 0, {}]]]}, {"class_name": "Conv2D", "name": "conv2d_32", "config": {"bias_regularizer": null, "kernel_initializer": {"class_name": "VarianceScaling", "config": {"mode": "fan_avg", "scale": 1.0, "distribution": "uniform", "seed": null}}, "trainable": false, "name": "conv2d_32", "kernel_constraint": null, "activation": "linear", "kernel_size": [1, 1], "activity_regularizer": null, "bias_initializer": {"class_name": "Zeros", "config": {}}, "bias_constraint": null, "padding": "same", "dilation_rate": [1, 1], "kernel_regularizer": null, "filters": 128, "data_format": "channels_last", "strides": [1, 1], "use_bias": false}, "inbound_nodes": [[["mixed3", 0, 0, {}]]]}, {"class_name": "Conv2D", "name": "conv2d_37", "config": {"bias_regularizer": null, "kernel_initializer": {"class_name": "VarianceScaling", "config": {"mode": "fan_avg", "scale": 1.0, "distribution": "uniform", "seed": null}}, "trainable": false, "name": "conv2d_37", "kernel_constraint": null, "activation": "linear", "kernel_size": [1, 7], "activity_regularizer": null, "bias_initializer": {"class_name": "Zeros", "config": {}}, "bias_constraint": null, "padding": "same", "dilation_rate": [1, 1], "kernel_regularizer": null, "filters": 128, "data_format": "channels_last", "strides": [1, 1], "use_bias": false}, "inbound_nodes": [[["activation_36", 0, 0, {}]]]}, {"class_name": "BatchNormalization", "name": "batch_normalization_32", "config": {"beta_initializer": {"class_name": "Zeros", "config": {}}, "beta_constraint": null, "name": "batch_normalization_32", "epsilon": 0.001, "momentum": 0.99, "gamma_regularizer": null, "scale": false, "trainable": false, "moving_variance_initializer": {"class_name": "Ones", "config": {}}, "beta_regularizer": null, "moving_mean_initializer": {"class_name": "Zeros", "config": {}}, "axis": 3, "gamma_initializer": {"class_name": "Ones", "config": {}}, "gamma_constraint": null, "center": true}, "inbound_nodes": [[["conv2d_32", 0, 0, {}]]]}, {"class_name": "BatchNormalization", "name": "batch_normalization_37", "config": {"beta_initializer": {"class_name": "Zeros", "config": {}}, "beta_constraint": null, "name": "batch_normalization_37", "epsilon": 0.001, "momentum": 0.99, "gamma_regularizer": null, "scale": false, "trainable": false, "moving_variance_initializer": {"class_name": "Ones", "config": {}}, "beta_regularizer": null, "moving_mean_initializer": {"class_name": "Zeros", "config": {}}, "axis": 3, "gamma_initializer": {"class_name": "Ones", "config": {}}, "gamma_constraint": null, "center": true}, "inbound_nodes": [[["conv2d_37", 0, 0, {}]]]}, {"class_name": "Activation", "name": "activation_32", "config": {"name": "activation_32", "trainable": false, "activation": "relu"}, "inbound_nodes": [[["batch_normalization_32", 0, 0, {}]]]}, {"class_name": "Activation", "name": "activation_37", "config": {"name": "activation_37", "trainable": false, "activation": "relu"}, "inbound_nodes": [[["batch_normalization_37", 0, 0, {}]]]}, {"class_name": "Conv2D", "name": "conv2d_33", "config": {"bias_regularizer": null, "kernel_initializer": {"class_name": "VarianceScaling", "config": {"mode": "fan_avg", "scale": 1.0, "distribution": "uniform", "seed": null}}, "trainable": false, "name": "conv2d_33", "kernel_constraint": null, "activation": "linear", "kernel_size": [1, 7], "activity_regularizer": null, "bias_initializer": {"class_name": "Zeros", "config": {}}, "bias_constraint": null, "padding": "same", "dilation_rate": [1, 1], "kernel_regularizer": null, "filters": 128, "data_format": "channels_last", "strides": [1, 1], "use_bias": false}, "inbound_nodes": [[["activation_32", 0, 0, {}]]]}, {"class_name": "Conv2D", "name": "conv2d_38", "config": {"bias_regularizer": null, "kernel_initializer": {"class_name": "VarianceScaling", "config": {"mode": "fan_avg", "scale": 1.0, "distribution": "uniform", "seed": null}}, "trainable": false, "name": "conv2d_38", "kernel_constraint": null, "activation": "linear", "kernel_size": [7, 1], "activity_regularizer": null, "bias_initializer": {"class_name": "Zeros", "config": {}}, "bias_constraint": null, "padding": "same", "dilation_rate": [1, 1], "kernel_regularizer": null, "filters": 128, "data_format": "channels_last", "strides": [1, 1], "use_bias": false}, "inbound_nodes": [[["activation_37", 0, 0, {}]]]}, {"class_name": "BatchNormalization", "name": "batch_normalization_33", "config": {"beta_initializer": {"class_name": "Zeros", "config": {}}, "beta_constraint": null, "name": "batch_normalization_33", "epsilon": 0.001, "momentum": 0.99, "gamma_regularizer": null, "scale": false, "trainable": false, "moving_variance_initializer": {"class_name": "Ones", "config": {}}, "beta_regularizer": null, "moving_mean_initializer": {"class_name": "Zeros", "config": {}}, "axis": 3, "gamma_initializer": {"class_name": "Ones", "config": {}}, "gamma_constraint": null, "center": true}, "inbound_nodes": [[["conv2d_33", 0, 0, {}]]]}, {"class_name": "BatchNormalization", "name": "batch_normalization_38", "config": {"beta_initializer": {"class_name": "Zeros", "config": {}}, "beta_constraint": null, "name": "batch_normalization_38", "epsilon": 0.001, "momentum": 0.99, "gamma_regularizer": null, "scale": false, "trainable": false, "moving_variance_initializer": {"class_name": "Ones", "config": {}}, "beta_regularizer": null, "moving_mean_initializer": {"class_name": "Zeros", "config": {}}, "axis": 3, "gamma_initializer": {"class_name": "Ones", "config": {}}, "gamma_constraint": null, "center": true}, "inbound_nodes": [[["conv2d_38", 0, 0, {}]]]}, {"class_name": "Activation", "name": "activation_33", "config": {"name": "activation_33", "trainable": false, "activation": "relu"}, "inbound_nodes": [[["batch_normalization_33", 0, 0, {}]]]}, {"class_name": "Activation", "name": "activation_38", "config": {"name": "activation_38", "trainable": false, "activation": "relu"}, "inbound_nodes": [[["batch_normalization_38", 0, 0, {}]]]}, {"class_name": "AveragePooling2D", "name": "average_pooling2d_4", "config": {"pool_size": [3, 3], "name": "average_pooling2d_4", "padding": "same", "trainable": false, "data_format": "channels_last", "strides": [1, 1]}, "inbound_nodes": [[["mixed3", 0, 0, {}]]]}, {"class_name": "Conv2D", "name": "conv2d_31", "config": {"bias_regularizer": null, "kernel_initializer": {"class_name": "VarianceScaling", "config": {"mode": "fan_avg", "scale": 1.0, "distribution": "uniform", "seed": null}}, "trainable": false, "name": "conv2d_31", "kernel_constraint": null, "activation": "linear", "kernel_size": [1, 1], "activity_regularizer": null, "bias_initializer": {"class_name": "Zeros", "config": {}}, "bias_constraint": null, "padding": "same", "dilation_rate": [1, 1], "kernel_regularizer": null, "filters": 192, "data_format": "channels_last", "strides": [1, 1], "use_bias": false}, "inbound_nodes": [[["mixed3", 0, 0, {}]]]}, {"class_name": "Conv2D", "name": "conv2d_34", "config": {"bias_regularizer": null, "kernel_initializer": {"class_name": "VarianceScaling", "config": {"mode": "fan_avg", "scale": 1.0, "distribution": "uniform", "seed": null}}, "trainable": false, "name": "conv2d_34", "kernel_constraint": null, "activation": "linear", "kernel_size": [7, 1], "activity_regularizer": null, "bias_initializer": {"class_name": "Zeros", "config": {}}, "bias_constraint": null, "padding": "same", "dilation_rate": [1, 1], "kernel_regularizer": null, "filters": 192, "data_format": "channels_last", "strides": [1, 1], "use_bias": false}, "inbound_nodes": [[["activation_33", 0, 0, {}]]]}, {"class_name": "Conv2D", "name": "conv2d_39", "config": {"bias_regularizer": null, "kernel_initializer": {"class_name": "VarianceScaling", "config": {"mode": "fan_avg", "scale": 1.0, "distribution": "uniform", "seed": null}}, "trainable": false, "name": "conv2d_39", "kernel_constraint": null, "activation": "linear", "kernel_size": [1, 7], "activity_regularizer": null, "bias_initializer": {"class_name": "Zeros", "config": {}}, "bias_constraint": null, "padding": "same", "dilation_rate": [1, 1], "kernel_regularizer": null, "filters": 192, "data_format": "channels_last", "strides": [1, 1], "use_bias": false}, "inbound_nodes": [[["activation_38", 0, 0, {}]]]}, {"class_name": "Conv2D", "name": "conv2d_40", "config": {"bias_regularizer": null, "kernel_initializer": {"class_name": "VarianceScaling", "config": {"mode": "fan_avg", "scale": 1.0, "distribution": "uniform", "seed": null}}, "trainable": false, "name": "conv2d_40", "kernel_constraint": null, "activation": "linear", "kernel_size": [1, 1], "activity_regularizer": null, "bias_initializer": {"class_name": "Zeros", "config": {}}, "bias_constraint": null, "padding": "same", "dilation_rate": [1, 1], "kernel_regularizer": null, "filters": 192, "data_format": "channels_last", "strides": [1, 1], "use_bias": false}, "inbound_nodes": [[["average_pooling2d_4", 0, 0, {}]]]}, {"class_name": "BatchNormalization", "name": "batch_normalization_31", "config": {"beta_initializer": {"class_name": "Zeros", "config": {}}, "beta_constraint": null, "name": "batch_normalization_31", "epsilon": 0.001, "momentum": 0.99, "gamma_regularizer": null, "scale": false, "trainable": false, "moving_variance_initializer": {"class_name": "Ones", "config": {}}, "beta_regularizer": null, "moving_mean_initializer": {"class_name": "Zeros", "config": {}}, "axis": 3, "gamma_initializer": {"class_name": "Ones", "config": {}}, "gamma_constraint": null, "center": true}, "inbound_nodes": [[["conv2d_31", 0, 0, {}]]]}, {"class_name": "BatchNormalization", "name": "batch_normalization_34", "config": {"beta_initializer": {"class_name": "Zeros", "config": {}}, "beta_constraint": null, "name": "batch_normalization_34", "epsilon": 0.001, "momentum": 0.99, "gamma_regularizer": null, "scale": false, "trainable": false, "moving_variance_initializer": {"class_name": "Ones", "config": {}}, "beta_regularizer": null, "moving_mean_initializer": {"class_name": "Zeros", "config": {}}, "axis": 3, "gamma_initializer": {"class_name": "Ones", "config": {}}, "gamma_constraint": null, "center": true}, "inbound_nodes": [[["conv2d_34", 0, 0, {}]]]}, {"class_name": "BatchNormalization", "name": "batch_normalization_39", "config": {"beta_initializer": {"class_name": "Zeros", "config": {}}, "beta_constraint": null, "name": "batch_normalization_39", "epsilon": 0.001, "momentum": 0.99, "gamma_regularizer": null, "scale": false, "trainable": false, "moving_variance_initializer": {"class_name": "Ones", "config": {}}, "beta_regularizer": null, "moving_mean_initializer": {"class_name": "Zeros", "config": {}}, "axis": 3, "gamma_initializer": {"class_name": "Ones", "config": {}}, "gamma_constraint": null, "center": true}, "inbound_nodes": [[["conv2d_39", 0, 0, {}]]]}, {"class_name": "BatchNormalization", "name": "batch_normalization_40", "config": {"beta_initializer": {"class_name": "Zeros", "config": {}}, "beta_constraint": null, "name": "batch_normalization_40", "epsilon": 0.001, "momentum": 0.99, "gamma_regularizer": null, "scale": false, "trainable": false, "moving_variance_initializer": {"class_name": "Ones", "config": {}}, "beta_regularizer": null, "moving_mean_initializer": {"class_name": "Zeros", "config": {}}, "axis": 3, "gamma_initializer": {"class_name": "Ones", "config": {}}, "gamma_constraint": null, "center": true}, "inbound_nodes": [[["conv2d_40", 0, 0, {}]]]}, {"class_name": "Activation", "name": "activation_31", "config": {"name": "activation_31", "trainable": false, "activation": "relu"}, "inbound_nodes": [[["batch_normalization_31", 0, 0, {}]]]}, {"class_name": "Activation", "name": "activation_34", "config": {"name": "activation_34", "trainable": false, "activation": "relu"}, "inbound_nodes": [[["batch_normalization_34", 0, 0, {}]]]}, {"class_name": "Activation", "name": "activation_39", "config": {"name": "activation_39", "trainable": false, "activation": "relu"}, "inbound_nodes": [[["batch_normalization_39", 0, 0, {}]]]}, {"class_name": "Activation", "name": "activation_40", "config": {"name": "activation_40", "trainable": false, "activation": "relu"}, "inbound_nodes": [[["batch_normalization_40", 0, 0, {}]]]}, {"class_name": "Concatenate", "name": "mixed4", "config": {"trainable": false, "name": "mixed4", "axis": 3}, "inbound_nodes": [[["activation_31", 0, 0, {}], ["activation_34", 0, 0, {}], ["activation_39", 0, 0, {}], ["activation_40", 0, 0, {}]]]}, {"class_name": "Conv2D", "name": "conv2d_45", "config": {"bias_regularizer": null, "kernel_initializer": {"class_name": "VarianceScaling", "config": {"mode": "fan_avg", "scale": 1.0, "distribution": "uniform", "seed": null}}, "trainable": false, "name": "conv2d_45", "kernel_constraint": null, "activation": "linear", "kernel_size": [1, 1], "activity_regularizer": null, "bias_initializer": {"class_name": "Zeros", "config": {}}, "bias_constraint": null, "padding": "same", "dilation_rate": [1, 1], "kernel_regularizer": null, "filters": 160, "data_format": "channels_last", "strides": [1, 1], "use_bias": false}, "inbound_nodes": [[["mixed4", 0, 0, {}]]]}, {"class_name": "BatchNormalization", "name": "batch_normalization_45", "config": {"beta_initializer": {"class_name": "Zeros", "config": {}}, "beta_constraint": null, "name": "batch_normalization_45", "epsilon": 0.001, "momentum": 0.99, "gamma_regularizer": null, "scale": false, "trainable": false, "moving_variance_initializer": {"class_name": "Ones", "config": {}}, "beta_regularizer": null, "moving_mean_initializer": {"class_name": "Zeros", "config": {}}, "axis": 3, "gamma_initializer": {"class_name": "Ones", "config": {}}, "gamma_constraint": null, "center": true}, "inbound_nodes": [[["conv2d_45", 0, 0, {}]]]}, {"class_name": "Activation", "name": "activation_45", "config": {"name": "activation_45", "trainable": false, "activation": "relu"}, "inbound_nodes": [[["batch_normalization_45", 0, 0, {}]]]}, {"class_name": "Conv2D", "name": "conv2d_46", "config": {"bias_regularizer": null, "kernel_initializer": {"class_name": "VarianceScaling", "config": {"mode": "fan_avg", "scale": 1.0, "distribution": "uniform", "seed": null}}, "trainable": false, "name": "conv2d_46", "kernel_constraint": null, "activation": "linear", "kernel_size": [7, 1], "activity_regularizer": null, "bias_initializer": {"class_name": "Zeros", "config": {}}, "bias_constraint": null, "padding": "same", "dilation_rate": [1, 1], "kernel_regularizer": null, "filters": 160, "data_format": "channels_last", "strides": [1, 1], "use_bias": false}, "inbound_nodes": [[["activation_45", 0, 0, {}]]]}, {"class_name": "BatchNormalization", "name": "batch_normalization_46", "config": {"beta_initializer": {"class_name": "Zeros", "config": {}}, "beta_constraint": null, "name": "batch_normalization_46", "epsilon": 0.001, "momentum": 0.99, "gamma_regularizer": null, "scale": false, "trainable": false, "moving_variance_initializer": {"class_name": "Ones", "config": {}}, "beta_regularizer": null, "moving_mean_initializer": {"class_name": "Zeros", "config": {}}, "axis": 3, "gamma_initializer": {"class_name": "Ones", "config": {}}, "gamma_constraint": null, "center": true}, "inbound_nodes": [[["conv2d_46", 0, 0, {}]]]}, {"class_name": "Activation", "name": "activation_46", "config": {"name": "activation_46", "trainable": false, "activation": "relu"}, "inbound_nodes": [[["batch_normalization_46", 0, 0, {}]]]}, {"class_name": "Conv2D", "name": "conv2d_42", "config": {"bias_regularizer": null, "kernel_initializer": {"class_name": "VarianceScaling", "config": {"mode": "fan_avg", "scale": 1.0, "distribution": "uniform", "seed": null}}, "trainable": false, "name": "conv2d_42", "kernel_constraint": null, "activation": "linear", "kernel_size": [1, 1], "activity_regularizer": null, "bias_initializer": {"class_name": "Zeros", "config": {}}, "bias_constraint": null, "padding": "same", "dilation_rate": [1, 1], "kernel_regularizer": null, "filters": 160, "data_format": "channels_last", "strides": [1, 1], "use_bias": false}, "inbound_nodes": [[["mixed4", 0, 0, {}]]]}, {"class_name": "Conv2D", "name": "conv2d_47", "config": {"bias_regularizer": null, "kernel_initializer": {"class_name": "VarianceScaling", "config": {"mode": "fan_avg", "scale": 1.0, "distribution": "uniform", "seed": null}}, "trainable": false, "name": "conv2d_47", "kernel_constraint": null, "activation": "linear", "kernel_size": [1, 7], "activity_regularizer": null, "bias_initializer": {"class_name": "Zeros", "config": {}}, "bias_constraint": null, "padding": "same", "dilation_rate": [1, 1], "kernel_regularizer": null, "filters": 160, "data_format": "channels_last", "strides": [1, 1], "use_bias": false}, "inbound_nodes": [[["activation_46", 0, 0, {}]]]}, {"class_name": "BatchNormalization", "name": "batch_normalization_42", "config": {"beta_initializer": {"class_name": "Zeros", "config": {}}, "beta_constraint": null, "name": "batch_normalization_42", "epsilon": 0.001, "momentum": 0.99, "gamma_regularizer": null, "scale": false, "trainable": false, "moving_variance_initializer": {"class_name": "Ones", "config": {}}, "beta_regularizer": null, "moving_mean_initializer": {"class_name": "Zeros", "config": {}}, "axis": 3, "gamma_initializer": {"class_name": "Ones", "config": {}}, "gamma_constraint": null, "center": true}, "inbound_nodes": [[["conv2d_42", 0, 0, {}]]]}, {"class_name": "BatchNormalization", "name": "batch_normalization_47", "config": {"beta_initializer": {"class_name": "Zeros", "config": {}}, "beta_constraint": null, "name": "batch_normalization_47", "epsilon": 0.001, "momentum": 0.99, "gamma_regularizer": null, "scale": false, "trainable": false, "moving_variance_initializer": {"class_name": "Ones", "config": {}}, "beta_regularizer": null, "moving_mean_initializer": {"class_name": "Zeros", "config": {}}, "axis": 3, "gamma_initializer": {"class_name": "Ones", "config": {}}, "gamma_constraint": null, "center": true}, "inbound_nodes": [[["conv2d_47", 0, 0, {}]]]}, {"class_name": "Activation", "name": "activation_42", "config": {"name": "activation_42", "trainable": false, "activation": "relu"}, "inbound_nodes": [[["batch_normalization_42", 0, 0, {}]]]}, {"class_name": "Activation", "name": "activation_47", "config": {"name": "activation_47", "trainable": false, "activation": "relu"}, "inbound_nodes": [[["batch_normalization_47", 0, 0, {}]]]}, {"class_name": "Conv2D", "name": "conv2d_43", "config": {"bias_regularizer": null, "kernel_initializer": {"class_name": "VarianceScaling", "config": {"mode": "fan_avg", "scale": 1.0, "distribution": "uniform", "seed": null}}, "trainable": false, "name": "conv2d_43", "kernel_constraint": null, "activation": "linear", "kernel_size": [1, 7], "activity_regularizer": null, "bias_initializer": {"class_name": "Zeros", "config": {}}, "bias_constraint": null, "padding": "same", "dilation_rate": [1, 1], "kernel_regularizer": null, "filters": 160, "data_format": "channels_last", "strides": [1, 1], "use_bias": false}, "inbound_nodes": [[["activation_42", 0, 0, {}]]]}, {"class_name": "Conv2D", "name": "conv2d_48", "config": {"bias_regularizer": null, "kernel_initializer": {"class_name": "VarianceScaling", "config": {"mode": "fan_avg", "scale": 1.0, "distribution": "uniform", "seed": null}}, "trainable": false, "name": "conv2d_48", "kernel_constraint": null, "activation": "linear", "kernel_size": [7, 1], "activity_regularizer": null, "bias_initializer": {"class_name": "Zeros", "config": {}}, "bias_constraint": null, "padding": "same", "dilation_rate": [1, 1], "kernel_regularizer": null, "filters": 160, "data_format": "channels_last", "strides": [1, 1], "use_bias": false}, "inbound_nodes": [[["activation_47", 0, 0, {}]]]}, {"class_name": "BatchNormalization", "name": "batch_normalization_43", "config": {"beta_initializer": {"class_name": "Zeros", "config": {}}, "beta_constraint": null, "name": "batch_normalization_43", "epsilon": 0.001, "momentum": 0.99, "gamma_regularizer": null, "scale": false, "trainable": false, "moving_variance_initializer": {"class_name": "Ones", "config": {}}, "beta_regularizer": null, "moving_mean_initializer": {"class_name": "Zeros", "config": {}}, "axis": 3, "gamma_initializer": {"class_name": "Ones", "config": {}}, "gamma_constraint": null, "center": true}, "inbound_nodes": [[["conv2d_43", 0, 0, {}]]]}, {"class_name": "BatchNormalization", "name": "batch_normalization_48", "config": {"beta_initializer": {"class_name": "Zeros", "config": {}}, "beta_constraint": null, "name": "batch_normalization_48", "epsilon": 0.001, "momentum": 0.99, "gamma_regularizer": null, "scale": false, "trainable": false, "moving_variance_initializer": {"class_name": "Ones", "config": {}}, "beta_regularizer": null, "moving_mean_initializer": {"class_name": "Zeros", "config": {}}, "axis": 3, "gamma_initializer": {"class_name": "Ones", "config": {}}, "gamma_constraint": null, "center": true}, "inbound_nodes": [[["conv2d_48", 0, 0, {}]]]}, {"class_name": "Activation", "name": "activation_43", "config": {"name": "activation_43", "trainable": false, "activation": "relu"}, "inbound_nodes": [[["batch_normalization_43", 0, 0, {}]]]}, {"class_name": "Activation", "name": "activation_48", "config": {"name": "activation_48", "trainable": false, "activation": "relu"}, "inbound_nodes": [[["batch_normalization_48", 0, 0, {}]]]}, {"class_name": "AveragePooling2D", "name": "average_pooling2d_5", "config": {"pool_size": [3, 3], "name": "average_pooling2d_5", "padding": "same", "trainable": false, "data_format": "channels_last", "strides": [1, 1]}, "inbound_nodes": [[["mixed4", 0, 0, {}]]]}, {"class_name": "Conv2D", "name": "conv2d_41", "config": {"bias_regularizer": null, "kernel_initializer": {"class_name": "VarianceScaling", "config": {"mode": "fan_avg", "scale": 1.0, "distribution": "uniform", "seed": null}}, "trainable": false, "name": "conv2d_41", "kernel_constraint": null, "activation": "linear", "kernel_size": [1, 1], "activity_regularizer": null, "bias_initializer": {"class_name": "Zeros", "config": {}}, "bias_constraint": null, "padding": "same", "dilation_rate": [1, 1], "kernel_regularizer": null, "filters": 192, "data_format": "channels_last", "strides": [1, 1], "use_bias": false}, "inbound_nodes": [[["mixed4", 0, 0, {}]]]}, {"class_name": "Conv2D", "name": "conv2d_44", "config": {"bias_regularizer": null, "kernel_initializer": {"class_name": "VarianceScaling", "config": {"mode": "fan_avg", "scale": 1.0, "distribution": "uniform", "seed": null}}, "trainable": false, "name": "conv2d_44", "kernel_constraint": null, "activation": "linear", "kernel_size": [7, 1], "activity_regularizer": null, "bias_initializer": {"class_name": "Zeros", "config": {}}, "bias_constraint": null, "padding": "same", "dilation_rate": [1, 1], "kernel_regularizer": null, "filters": 192, "data_format": "channels_last", "strides": [1, 1], "use_bias": false}, "inbound_nodes": [[["activation_43", 0, 0, {}]]]}, {"class_name": "Conv2D", "name": "conv2d_49", "config": {"bias_regularizer": null, "kernel_initializer": {"class_name": "VarianceScaling", "config": {"mode": "fan_avg", "scale": 1.0, "distribution": "uniform", "seed": null}}, "trainable": false, "name": "conv2d_49", "kernel_constraint": null, "activation": "linear", "kernel_size": [1, 7], "activity_regularizer": null, "bias_initializer": {"class_name": "Zeros", "config": {}}, "bias_constraint": null, "padding": "same", "dilation_rate": [1, 1], "kernel_regularizer": null, "filters": 192, "data_format": "channels_last", "strides": [1, 1], "use_bias": false}, "inbound_nodes": [[["activation_48", 0, 0, {}]]]}, {"class_name": "Conv2D", "name": "conv2d_50", "config": {"bias_regularizer": null, "kernel_initializer": {"class_name": "VarianceScaling", "config": {"mode": "fan_avg", "scale": 1.0, "distribution": "uniform", "seed": null}}, "trainable": false, "name": "conv2d_50", "kernel_constraint": null, "activation": "linear", "kernel_size": [1, 1], "activity_regularizer": null, "bias_initializer": {"class_name": "Zeros", "config": {}}, "bias_constraint": null, "padding": "same", "dilation_rate": [1, 1], "kernel_regularizer": null, "filters": 192, "data_format": "channels_last", "strides": [1, 1], "use_bias": false}, "inbound_nodes": [[["average_pooling2d_5", 0, 0, {}]]]}, {"class_name": "BatchNormalization", "name": "batch_normalization_41", "config": {"beta_initializer": {"class_name": "Zeros", "config": {}}, "beta_constraint": null, "name": "batch_normalization_41", "epsilon": 0.001, "momentum": 0.99, "gamma_regularizer": null, "scale": false, "trainable": false, "moving_variance_initializer": {"class_name": "Ones", "config": {}}, "beta_regularizer": null, "moving_mean_initializer": {"class_name": "Zeros", "config": {}}, "axis": 3, "gamma_initializer": {"class_name": "Ones", "config": {}}, "gamma_constraint": null, "center": true}, "inbound_nodes": [[["conv2d_41", 0, 0, {}]]]}, {"class_name": "BatchNormalization", "name": "batch_normalization_44", "config": {"beta_initializer": {"class_name": "Zeros", "config": {}}, "beta_constraint": null, "name": "batch_normalization_44", "epsilon": 0.001, "momentum": 0.99, "gamma_regularizer": null, "scale": false, "trainable": false, "moving_variance_initializer": {"class_name": "Ones", "config": {}}, "beta_regularizer": null, "moving_mean_initializer": {"class_name": "Zeros", "config": {}}, "axis": 3, "gamma_initializer": {"class_name": "Ones", "config": {}}, "gamma_constraint": null, "center": true}, "inbound_nodes": [[["conv2d_44", 0, 0, {}]]]}, {"class_name": "BatchNormalization", "name": "batch_normalization_49", "config": {"beta_initializer": {"class_name": "Zeros", "config": {}}, "beta_constraint": null, "name": "batch_normalization_49", "epsilon": 0.001, "momentum": 0.99, "gamma_regularizer": null, "scale": false, "trainable": false, "moving_variance_initializer": {"class_name": "Ones", "config": {}}, "beta_regularizer": null, "moving_mean_initializer": {"class_name": "Zeros", "config": {}}, "axis": 3, "gamma_initializer": {"class_name": "Ones", "config": {}}, "gamma_constraint": null, "center": true}, "inbound_nodes": [[["conv2d_49", 0, 0, {}]]]}, {"class_name": "BatchNormalization", "name": "batch_normalization_50", "config": {"beta_initializer": {"class_name": "Zeros", "config": {}}, "beta_constraint": null, "name": "batch_normalization_50", "epsilon": 0.001, "momentum": 0.99, "gamma_regularizer": null, "scale": false, "trainable": false, "moving_variance_initializer": {"class_name": "Ones", "config": {}}, "beta_regularizer": null, "moving_mean_initializer": {"class_name": "Zeros", "config": {}}, "axis": 3, "gamma_initializer": {"class_name": "Ones", "config": {}}, "gamma_constraint": null, "center": true}, "inbound_nodes": [[["conv2d_50", 0, 0, {}]]]}, {"class_name": "Activation", "name": "activation_41", "config": {"name": "activation_41", "trainable": false, "activation": "relu"}, "inbound_nodes": [[["batch_normalization_41", 0, 0, {}]]]}, {"class_name": "Activation", "name": "activation_44", "config": {"name": "activation_44", "trainable": false, "activation": "relu"}, "inbound_nodes": [[["batch_normalization_44", 0, 0, {}]]]}, {"class_name": "Activation", "name": "activation_49", "config": {"name": "activation_49", "trainable": false, "activation": "relu"}, "inbound_nodes": [[["batch_normalization_49", 0, 0, {}]]]}, {"class_name": "Activation", "name": "activation_50", "config": {"name": "activation_50", "trainable": false, "activation": "relu"}, "inbound_nodes": [[["batch_normalization_50", 0, 0, {}]]]}, {"class_name": "Concatenate", "name": "mixed5", "config": {"trainable": false, "name": "mixed5", "axis": 3}, "inbound_nodes": [[["activation_41", 0, 0, {}], ["activation_44", 0, 0, {}], ["activation_49", 0, 0, {}], ["activation_50", 0, 0, {}]]]}, {"class_name": "Conv2D", "name": "conv2d_55", "config": {"bias_regularizer": null, "kernel_initializer": {"class_name": "VarianceScaling", "config": {"mode": "fan_avg", "scale": 1.0, "distribution": "uniform", "seed": null}}, "trainable": false, "name": "conv2d_55", "kernel_constraint": null, "activation": "linear", "kernel_size": [1, 1], "activity_regularizer": null, "bias_initializer": {"class_name": "Zeros", "config": {}}, "bias_constraint": null, "padding": "same", "dilation_rate": [1, 1], "kernel_regularizer": null, "filters": 160, "data_format": "channels_last", "strides": [1, 1], "use_bias": false}, "inbound_nodes": [[["mixed5", 0, 0, {}]]]}, {"class_name": "BatchNormalization", "name": "batch_normalization_55", "config": {"beta_initializer": {"class_name": "Zeros", "config": {}}, "beta_constraint": null, "name": "batch_normalization_55", "epsilon": 0.001, "momentum": 0.99, "gamma_regularizer": null, "scale": false, "trainable": false, "moving_variance_initializer": {"class_name": "Ones", "config": {}}, "beta_regularizer": null, "moving_mean_initializer": {"class_name": "Zeros", "config": {}}, "axis": 3, "gamma_initializer": {"class_name": "Ones", "config": {}}, "gamma_constraint": null, "center": true}, "inbound_nodes": [[["conv2d_55", 0, 0, {}]]]}, {"class_name": "Activation", "name": "activation_55", "config": {"name": "activation_55", "trainable": false, "activation": "relu"}, "inbound_nodes": [[["batch_normalization_55", 0, 0, {}]]]}, {"class_name": "Conv2D", "name": "conv2d_56", "config": {"bias_regularizer": null, "kernel_initializer": {"class_name": "VarianceScaling", "config": {"mode": "fan_avg", "scale": 1.0, "distribution": "uniform", "seed": null}}, "trainable": false, "name": "conv2d_56", "kernel_constraint": null, "activation": "linear", "kernel_size": [7, 1], "activity_regularizer": null, "bias_initializer": {"class_name": "Zeros", "config": {}}, "bias_constraint": null, "padding": "same", "dilation_rate": [1, 1], "kernel_regularizer": null, "filters": 160, "data_format": "channels_last", "strides": [1, 1], "use_bias": false}, "inbound_nodes": [[["activation_55", 0, 0, {}]]]}, {"class_name": "BatchNormalization", "name": "batch_normalization_56", "config": {"beta_initializer": {"class_name": "Zeros", "config": {}}, "beta_constraint": null, "name": "batch_normalization_56", "epsilon": 0.001, "momentum": 0.99, "gamma_regularizer": null, "scale": false, "trainable": false, "moving_variance_initializer": {"class_name": "Ones", "config": {}}, "beta_regularizer": null, "moving_mean_initializer": {"class_name": "Zeros", "config": {}}, "axis": 3, "gamma_initializer": {"class_name": "Ones", "config": {}}, "gamma_constraint": null, "center": true}, "inbound_nodes": [[["conv2d_56", 0, 0, {}]]]}, {"class_name": "Activation", "name": "activation_56", "config": {"name": "activation_56", "trainable": false, "activation": "relu"}, "inbound_nodes": [[["batch_normalization_56", 0, 0, {}]]]}, {"class_name": "Conv2D", "name": "conv2d_52", "config": {"bias_regularizer": null, "kernel_initializer": {"class_name": "VarianceScaling", "config": {"mode": "fan_avg", "scale": 1.0, "distribution": "uniform", "seed": null}}, "trainable": false, "name": "conv2d_52", "kernel_constraint": null, "activation": "linear", "kernel_size": [1, 1], "activity_regularizer": null, "bias_initializer": {"class_name": "Zeros", "config": {}}, "bias_constraint": null, "padding": "same", "dilation_rate": [1, 1], "kernel_regularizer": null, "filters": 160, "data_format": "channels_last", "strides": [1, 1], "use_bias": false}, "inbound_nodes": [[["mixed5", 0, 0, {}]]]}, {"class_name": "Conv2D", "name": "conv2d_57", "config": {"bias_regularizer": null, "kernel_initializer": {"class_name": "VarianceScaling", "config": {"mode": "fan_avg", "scale": 1.0, "distribution": "uniform", "seed": null}}, "trainable": false, "name": "conv2d_57", "kernel_constraint": null, "activation": "linear", "kernel_size": [1, 7], "activity_regularizer": null, "bias_initializer": {"class_name": "Zeros", "config": {}}, "bias_constraint": null, "padding": "same", "dilation_rate": [1, 1], "kernel_regularizer": null, "filters": 160, "data_format": "channels_last", "strides": [1, 1], "use_bias": false}, "inbound_nodes": [[["activation_56", 0, 0, {}]]]}, {"class_name": "BatchNormalization", "name": "batch_normalization_52", "config": {"beta_initializer": {"class_name": "Zeros", "config": {}}, "beta_constraint": null, "name": "batch_normalization_52", "epsilon": 0.001, "momentum": 0.99, "gamma_regularizer": null, "scale": false, "trainable": false, "moving_variance_initializer": {"class_name": "Ones", "config": {}}, "beta_regularizer": null, "moving_mean_initializer": {"class_name": "Zeros", "config": {}}, "axis": 3, "gamma_initializer": {"class_name": "Ones", "config": {}}, "gamma_constraint": null, "center": true}, "inbound_nodes": [[["conv2d_52", 0, 0, {}]]]}, {"class_name": "BatchNormalization", "name": "batch_normalization_57", "config": {"beta_initializer": {"class_name": "Zeros", "config": {}}, "beta_constraint": null, "name": "batch_normalization_57", "epsilon": 0.001, "momentum": 0.99, "gamma_regularizer": null, "scale": false, "trainable": false, "moving_variance_initializer": {"class_name": "Ones", "config": {}}, "beta_regularizer": null, "moving_mean_initializer": {"class_name": "Zeros", "config": {}}, "axis": 3, "gamma_initializer": {"class_name": "Ones", "config": {}}, "gamma_constraint": null, "center": true}, "inbound_nodes": [[["conv2d_57", 0, 0, {}]]]}, {"class_name": "Activation", "name": "activation_52", "config": {"name": "activation_52", "trainable": false, "activation": "relu"}, "inbound_nodes": [[["batch_normalization_52", 0, 0, {}]]]}, {"class_name": "Activation", "name": "activation_57", "config": {"name": "activation_57", "trainable": false, "activation": "relu"}, "inbound_nodes": [[["batch_normalization_57", 0, 0, {}]]]}, {"class_name": "Conv2D", "name": "conv2d_53", "config": {"bias_regularizer": null, "kernel_initializer": {"class_name": "VarianceScaling", "config": {"mode": "fan_avg", "scale": 1.0, "distribution": "uniform", "seed": null}}, "trainable": false, "name": "conv2d_53", "kernel_constraint": null, "activation": "linear", "kernel_size": [1, 7], "activity_regularizer": null, "bias_initializer": {"class_name": "Zeros", "config": {}}, "bias_constraint": null, "padding": "same", "dilation_rate": [1, 1], "kernel_regularizer": null, "filters": 160, "data_format": "channels_last", "strides": [1, 1], "use_bias": false}, "inbound_nodes": [[["activation_52", 0, 0, {}]]]}, {"class_name": "Conv2D", "name": "conv2d_58", "config": {"bias_regularizer": null, "kernel_initializer": {"class_name": "VarianceScaling", "config": {"mode": "fan_avg", "scale": 1.0, "distribution": "uniform", "seed": null}}, "trainable": false, "name": "conv2d_58", "kernel_constraint": null, "activation": "linear", "kernel_size": [7, 1], "activity_regularizer": null, "bias_initializer": {"class_name": "Zeros", "config": {}}, "bias_constraint": null, "padding": "same", "dilation_rate": [1, 1], "kernel_regularizer": null, "filters": 160, "data_format": "channels_last", "strides": [1, 1], "use_bias": false}, "inbound_nodes": [[["activation_57", 0, 0, {}]]]}, {"class_name": "BatchNormalization", "name": "batch_normalization_53", "config": {"beta_initializer": {"class_name": "Zeros", "config": {}}, "beta_constraint": null, "name": "batch_normalization_53", "epsilon": 0.001, "momentum": 0.99, "gamma_regularizer": null, "scale": false, "trainable": false, "moving_variance_initializer": {"class_name": "Ones", "config": {}}, "beta_regularizer": null, "moving_mean_initializer": {"class_name": "Zeros", "config": {}}, "axis": 3, "gamma_initializer": {"class_name": "Ones", "config": {}}, "gamma_constraint": null, "center": true}, "inbound_nodes": [[["conv2d_53", 0, 0, {}]]]}, {"class_name": "BatchNormalization", "name": "batch_normalization_58", "config": {"beta_initializer": {"class_name": "Zeros", "config": {}}, "beta_constraint": null, "name": "batch_normalization_58", "epsilon": 0.001, "momentum": 0.99, "gamma_regularizer": null, "scale": false, "trainable": false, "moving_variance_initializer": {"class_name": "Ones", "config": {}}, "beta_regularizer": null, "moving_mean_initializer": {"class_name": "Zeros", "config": {}}, "axis": 3, "gamma_initializer": {"class_name": "Ones", "config": {}}, "gamma_constraint": null, "center": true}, "inbound_nodes": [[["conv2d_58", 0, 0, {}]]]}, {"class_name": "Activation", "name": "activation_53", "config": {"name": "activation_53", "trainable": false, "activation": "relu"}, "inbound_nodes": [[["batch_normalization_53", 0, 0, {}]]]}, {"class_name": "Activation", "name": "activation_58", "config": {"name": "activation_58", "trainable": false, "activation": "relu"}, "inbound_nodes": [[["batch_normalization_58", 0, 0, {}]]]}, {"class_name": "AveragePooling2D", "name": "average_pooling2d_6", "config": {"pool_size": [3, 3], "name": "average_pooling2d_6", "padding": "same", "trainable": false, "data_format": "channels_last", "strides": [1, 1]}, "inbound_nodes": [[["mixed5", 0, 0, {}]]]}, {"class_name": "Conv2D", "name": "conv2d_51", "config": {"bias_regularizer": null, "kernel_initializer": {"class_name": "VarianceScaling", "config": {"mode": "fan_avg", "scale": 1.0, "distribution": "uniform", "seed": null}}, "trainable": false, "name": "conv2d_51", "kernel_constraint": null, "activation": "linear", "kernel_size": [1, 1], "activity_regularizer": null, "bias_initializer": {"class_name": "Zeros", "config": {}}, "bias_constraint": null, "padding": "same", "dilation_rate": [1, 1], "kernel_regularizer": null, "filters": 192, "data_format": "channels_last", "strides": [1, 1], "use_bias": false}, "inbound_nodes": [[["mixed5", 0, 0, {}]]]}, {"class_name": "Conv2D", "name": "conv2d_54", "config": {"bias_regularizer": null, "kernel_initializer": {"class_name": "VarianceScaling", "config": {"mode": "fan_avg", "scale": 1.0, "distribution": "uniform", "seed": null}}, "trainable": false, "name": "conv2d_54", "kernel_constraint": null, "activation": "linear", "kernel_size": [7, 1], "activity_regularizer": null, "bias_initializer": {"class_name": "Zeros", "config": {}}, "bias_constraint": null, "padding": "same", "dilation_rate": [1, 1], "kernel_regularizer": null, "filters": 192, "data_format": "channels_last", "strides": [1, 1], "use_bias": false}, "inbound_nodes": [[["activation_53", 0, 0, {}]]]}, {"class_name": "Conv2D", "name": "conv2d_59", "config": {"bias_regularizer": null, "kernel_initializer": {"class_name": "VarianceScaling", "config": {"mode": "fan_avg", "scale": 1.0, "distribution": "uniform", "seed": null}}, "trainable": false, "name": "conv2d_59", "kernel_constraint": null, "activation": "linear", "kernel_size": [1, 7], "activity_regularizer": null, "bias_initializer": {"class_name": "Zeros", "config": {}}, "bias_constraint": null, "padding": "same", "dilation_rate": [1, 1], "kernel_regularizer": null, "filters": 192, "data_format": "channels_last", "strides": [1, 1], "use_bias": false}, "inbound_nodes": [[["activation_58", 0, 0, {}]]]}, {"class_name": "Conv2D", "name": "conv2d_60", "config": {"bias_regularizer": null, "kernel_initializer": {"class_name": "VarianceScaling", "config": {"mode": "fan_avg", "scale": 1.0, "distribution": "uniform", "seed": null}}, "trainable": false, "name": "conv2d_60", "kernel_constraint": null, "activation": "linear", "kernel_size": [1, 1], "activity_regularizer": null, "bias_initializer": {"class_name": "Zeros", "config": {}}, "bias_constraint": null, "padding": "same", "dilation_rate": [1, 1], "kernel_regularizer": null, "filters": 192, "data_format": "channels_last", "strides": [1, 1], "use_bias": false}, "inbound_nodes": [[["average_pooling2d_6", 0, 0, {}]]]}, {"class_name": "BatchNormalization", "name": "batch_normalization_51", "config": {"beta_initializer": {"class_name": "Zeros", "config": {}}, "beta_constraint": null, "name": "batch_normalization_51", "epsilon": 0.001, "momentum": 0.99, "gamma_regularizer": null, "scale": false, "trainable": false, "moving_variance_initializer": {"class_name": "Ones", "config": {}}, "beta_regularizer": null, "moving_mean_initializer": {"class_name": "Zeros", "config": {}}, "axis": 3, "gamma_initializer": {"class_name": "Ones", "config": {}}, "gamma_constraint": null, "center": true}, "inbound_nodes": [[["conv2d_51", 0, 0, {}]]]}, {"class_name": "BatchNormalization", "name": "batch_normalization_54", "config": {"beta_initializer": {"class_name": "Zeros", "config": {}}, "beta_constraint": null, "name": "batch_normalization_54", "epsilon": 0.001, "momentum": 0.99, "gamma_regularizer": null, "scale": false, "trainable": false, "moving_variance_initializer": {"class_name": "Ones", "config": {}}, "beta_regularizer": null, "moving_mean_initializer": {"class_name": "Zeros", "config": {}}, "axis": 3, "gamma_initializer": {"class_name": "Ones", "config": {}}, "gamma_constraint": null, "center": true}, "inbound_nodes": [[["conv2d_54", 0, 0, {}]]]}, {"class_name": "BatchNormalization", "name": "batch_normalization_59", "config": {"beta_initializer": {"class_name": "Zeros", "config": {}}, "beta_constraint": null, "name": "batch_normalization_59", "epsilon": 0.001, "momentum": 0.99, "gamma_regularizer": null, "scale": false, "trainable": false, "moving_variance_initializer": {"class_name": "Ones", "config": {}}, "beta_regularizer": null, "moving_mean_initializer": {"class_name": "Zeros", "config": {}}, "axis": 3, "gamma_initializer": {"class_name": "Ones", "config": {}}, "gamma_constraint": null, "center": true}, "inbound_nodes": [[["conv2d_59", 0, 0, {}]]]}, {"class_name": "BatchNormalization", "name": "batch_normalization_60", "config": {"beta_initializer": {"class_name": "Zeros", "config": {}}, "beta_constraint": null, "name": "batch_normalization_60", "epsilon": 0.001, "momentum": 0.99, "gamma_regularizer": null, "scale": false, "trainable": false, "moving_variance_initializer": {"class_name": "Ones", "config": {}}, "beta_regularizer": null, "moving_mean_initializer": {"class_name": "Zeros", "config": {}}, "axis": 3, "gamma_initializer": {"class_name": "Ones", "config": {}}, "gamma_constraint": null, "center": true}, "inbound_nodes": [[["conv2d_60", 0, 0, {}]]]}, {"class_name": "Activation", "name": "activation_51", "config": {"name": "activation_51", "trainable": false, "activation": "relu"}, "inbound_nodes": [[["batch_normalization_51", 0, 0, {}]]]}, {"class_name": "Activation", "name": "activation_54", "config": {"name": "activation_54", "trainable": false, "activation": "relu"}, "inbound_nodes": [[["batch_normalization_54", 0, 0, {}]]]}, {"class_name": "Activation", "name": "activation_59", "config": {"name": "activation_59", "trainable": false, "activation": "relu"}, "inbound_nodes": [[["batch_normalization_59", 0, 0, {}]]]}, {"class_name": "Activation", "name": "activation_60", "config": {"name": "activation_60", "trainable": false, "activation": "relu"}, "inbound_nodes": [[["batch_normalization_60", 0, 0, {}]]]}, {"class_name": "Concatenate", "name": "mixed6", "config": {"trainable": false, "name": "mixed6", "axis": 3}, "inbound_nodes": [[["activation_51", 0, 0, {}], ["activation_54", 0, 0, {}], ["activation_59", 0, 0, {}], ["activation_60", 0, 0, {}]]]}, {"class_name": "Conv2D", "name": "conv2d_65", "config": {"bias_regularizer": null, "kernel_initializer": {"class_name": "VarianceScaling", "config": {"mode": "fan_avg", "scale": 1.0, "distribution": "uniform", "seed": null}}, "trainable": false, "name": "conv2d_65", "kernel_constraint": null, "activation": "linear", "kernel_size": [1, 1], "activity_regularizer": null, "bias_initializer": {"class_name": "Zeros", "config": {}}, "bias_constraint": null, "padding": "same", "dilation_rate": [1, 1], "kernel_regularizer": null, "filters": 192, "data_format": "channels_last", "strides": [1, 1], "use_bias": false}, "inbound_nodes": [[["mixed6", 0, 0, {}]]]}, {"class_name": "BatchNormalization", "name": "batch_normalization_65", "config": {"beta_initializer": {"class_name": "Zeros", "config": {}}, "beta_constraint": null, "name": "batch_normalization_65", "epsilon": 0.001, "momentum": 0.99, "gamma_regularizer": null, "scale": false, "trainable": false, "moving_variance_initializer": {"class_name": "Ones", "config": {}}, "beta_regularizer": null, "moving_mean_initializer": {"class_name": "Zeros", "config": {}}, "axis": 3, "gamma_initializer": {"class_name": "Ones", "config": {}}, "gamma_constraint": null, "center": true}, "inbound_nodes": [[["conv2d_65", 0, 0, {}]]]}, {"class_name": "Activation", "name": "activation_65", "config": {"name": "activation_65", "trainable": false, "activation": "relu"}, "inbound_nodes": [[["batch_normalization_65", 0, 0, {}]]]}, {"class_name": "Conv2D", "name": "conv2d_66", "config": {"bias_regularizer": null, "kernel_initializer": {"class_name": "VarianceScaling", "config": {"mode": "fan_avg", "scale": 1.0, "distribution": "uniform", "seed": null}}, "trainable": false, "name": "conv2d_66", "kernel_constraint": null, "activation": "linear", "kernel_size": [7, 1], "activity_regularizer": null, "bias_initializer": {"class_name": "Zeros", "config": {}}, "bias_constraint": null, "padding": "same", "dilation_rate": [1, 1], "kernel_regularizer": null, "filters": 192, "data_format": "channels_last", "strides": [1, 1], "use_bias": false}, "inbound_nodes": [[["activation_65", 0, 0, {}]]]}, {"class_name": "BatchNormalization", "name": "batch_normalization_66", "config": {"beta_initializer": {"class_name": "Zeros", "config": {}}, "beta_constraint": null, "name": "batch_normalization_66", "epsilon": 0.001, "momentum": 0.99, "gamma_regularizer": null, "scale": false, "trainable": false, "moving_variance_initializer": {"class_name": "Ones", "config": {}}, "beta_regularizer": null, "moving_mean_initializer": {"class_name": "Zeros", "config": {}}, "axis": 3, "gamma_initializer": {"class_name": "Ones", "config": {}}, "gamma_constraint": null, "center": true}, "inbound_nodes": [[["conv2d_66", 0, 0, {}]]]}, {"class_name": "Activation", "name": "activation_66", "config": {"name": "activation_66", "trainable": false, "activation": "relu"}, "inbound_nodes": [[["batch_normalization_66", 0, 0, {}]]]}, {"class_name": "Conv2D", "name": "conv2d_62", "config": {"bias_regularizer": null, "kernel_initializer": {"class_name": "VarianceScaling", "config": {"mode": "fan_avg", "scale": 1.0, "distribution": "uniform", "seed": null}}, "trainable": false, "name": "conv2d_62", "kernel_constraint": null, "activation": "linear", "kernel_size": [1, 1], "activity_regularizer": null, "bias_initializer": {"class_name": "Zeros", "config": {}}, "bias_constraint": null, "padding": "same", "dilation_rate": [1, 1], "kernel_regularizer": null, "filters": 192, "data_format": "channels_last", "strides": [1, 1], "use_bias": false}, "inbound_nodes": [[["mixed6", 0, 0, {}]]]}, {"class_name": "Conv2D", "name": "conv2d_67", "config": {"bias_regularizer": null, "kernel_initializer": {"class_name": "VarianceScaling", "config": {"mode": "fan_avg", "scale": 1.0, "distribution": "uniform", "seed": null}}, "trainable": false, "name": "conv2d_67", "kernel_constraint": null, "activation": "linear", "kernel_size": [1, 7], "activity_regularizer": null, "bias_initializer": {"class_name": "Zeros", "config": {}}, "bias_constraint": null, "padding": "same", "dilation_rate": [1, 1], "kernel_regularizer": null, "filters": 192, "data_format": "channels_last", "strides": [1, 1], "use_bias": false}, "inbound_nodes": [[["activation_66", 0, 0, {}]]]}, {"class_name": "BatchNormalization", "name": "batch_normalization_62", "config": {"beta_initializer": {"class_name": "Zeros", "config": {}}, "beta_constraint": null, "name": "batch_normalization_62", "epsilon": 0.001, "momentum": 0.99, "gamma_regularizer": null, "scale": false, "trainable": false, "moving_variance_initializer": {"class_name": "Ones", "config": {}}, "beta_regularizer": null, "moving_mean_initializer": {"class_name": "Zeros", "config": {}}, "axis": 3, "gamma_initializer": {"class_name": "Ones", "config": {}}, "gamma_constraint": null, "center": true}, "inbound_nodes": [[["conv2d_62", 0, 0, {}]]]}, {"class_name": "BatchNormalization", "name": "batch_normalization_67", "config": {"beta_initializer": {"class_name": "Zeros", "config": {}}, "beta_constraint": null, "name": "batch_normalization_67", "epsilon": 0.001, "momentum": 0.99, "gamma_regularizer": null, "scale": false, "trainable": false, "moving_variance_initializer": {"class_name": "Ones", "config": {}}, "beta_regularizer": null, "moving_mean_initializer": {"class_name": "Zeros", "config": {}}, "axis": 3, "gamma_initializer": {"class_name": "Ones", "config": {}}, "gamma_constraint": null, "center": true}, "inbound_nodes": [[["conv2d_67", 0, 0, {}]]]}, {"class_name": "Activation", "name": "activation_62", "config": {"name": "activation_62", "trainable": false, "activation": "relu"}, "inbound_nodes": [[["batch_normalization_62", 0, 0, {}]]]}, {"class_name": "Activation", "name": "activation_67", "config": {"name": "activation_67", "trainable": false, "activation": "relu"}, "inbound_nodes": [[["batch_normalization_67", 0, 0, {}]]]}, {"class_name": "Conv2D", "name": "conv2d_63", "config": {"bias_regularizer": null, "kernel_initializer": {"class_name": "VarianceScaling", "config": {"mode": "fan_avg", "scale": 1.0, "distribution": "uniform", "seed": null}}, "trainable": false, "name": "conv2d_63", "kernel_constraint": null, "activation": "linear", "kernel_size": [1, 7], "activity_regularizer": null, "bias_initializer": {"class_name": "Zeros", "config": {}}, "bias_constraint": null, "padding": "same", "dilation_rate": [1, 1], "kernel_regularizer": null, "filters": 192, "data_format": "channels_last", "strides": [1, 1], "use_bias": false}, "inbound_nodes": [[["activation_62", 0, 0, {}]]]}, {"class_name": "Conv2D", "name": "conv2d_68", "config": {"bias_regularizer": null, "kernel_initializer": {"class_name": "VarianceScaling", "config": {"mode": "fan_avg", "scale": 1.0, "distribution": "uniform", "seed": null}}, "trainable": false, "name": "conv2d_68", "kernel_constraint": null, "activation": "linear", "kernel_size": [7, 1], "activity_regularizer": null, "bias_initializer": {"class_name": "Zeros", "config": {}}, "bias_constraint": null, "padding": "same", "dilation_rate": [1, 1], "kernel_regularizer": null, "filters": 192, "data_format": "channels_last", "strides": [1, 1], "use_bias": false}, "inbound_nodes": [[["activation_67", 0, 0, {}]]]}, {"class_name": "BatchNormalization", "name": "batch_normalization_63", "config": {"beta_initializer": {"class_name": "Zeros", "config": {}}, "beta_constraint": null, "name": "batch_normalization_63", "epsilon": 0.001, "momentum": 0.99, "gamma_regularizer": null, "scale": false, "trainable": false, "moving_variance_initializer": {"class_name": "Ones", "config": {}}, "beta_regularizer": null, "moving_mean_initializer": {"class_name": "Zeros", "config": {}}, "axis": 3, "gamma_initializer": {"class_name": "Ones", "config": {}}, "gamma_constraint": null, "center": true}, "inbound_nodes": [[["conv2d_63", 0, 0, {}]]]}, {"class_name": "BatchNormalization", "name": "batch_normalization_68", "config": {"beta_initializer": {"class_name": "Zeros", "config": {}}, "beta_constraint": null, "name": "batch_normalization_68", "epsilon": 0.001, "momentum": 0.99, "gamma_regularizer": null, "scale": false, "trainable": false, "moving_variance_initializer": {"class_name": "Ones", "config": {}}, "beta_regularizer": null, "moving_mean_initializer": {"class_name": "Zeros", "config": {}}, "axis": 3, "gamma_initializer": {"class_name": "Ones", "config": {}}, "gamma_constraint": null, "center": true}, "inbound_nodes": [[["conv2d_68", 0, 0, {}]]]}, {"class_name": "Activation", "name": "activation_63", "config": {"name": "activation_63", "trainable": false, "activation": "relu"}, "inbound_nodes": [[["batch_normalization_63", 0, 0, {}]]]}, {"class_name": "Activation", "name": "activation_68", "config": {"name": "activation_68", "trainable": false, "activation": "relu"}, "inbound_nodes": [[["batch_normalization_68", 0, 0, {}]]]}, {"class_name": "AveragePooling2D", "name": "average_pooling2d_7", "config": {"pool_size": [3, 3], "name": "average_pooling2d_7", "padding": "same", "trainable": false, "data_format": "channels_last", "strides": [1, 1]}, "inbound_nodes": [[["mixed6", 0, 0, {}]]]}, {"class_name": "Conv2D", "name": "conv2d_61", "config": {"bias_regularizer": null, "kernel_initializer": {"class_name": "VarianceScaling", "config": {"mode": "fan_avg", "scale": 1.0, "distribution": "uniform", "seed": null}}, "trainable": false, "name": "conv2d_61", "kernel_constraint": null, "activation": "linear", "kernel_size": [1, 1], "activity_regularizer": null, "bias_initializer": {"class_name": "Zeros", "config": {}}, "bias_constraint": null, "padding": "same", "dilation_rate": [1, 1], "kernel_regularizer": null, "filters": 192, "data_format": "channels_last", "strides": [1, 1], "use_bias": false}, "inbound_nodes": [[["mixed6", 0, 0, {}]]]}, {"class_name": "Conv2D", "name": "conv2d_64", "config": {"bias_regularizer": null, "kernel_initializer": {"class_name": "VarianceScaling", "config": {"mode": "fan_avg", "scale": 1.0, "distribution": "uniform", "seed": null}}, "trainable": false, "name": "conv2d_64", "kernel_constraint": null, "activation": "linear", "kernel_size": [7, 1], "activity_regularizer": null, "bias_initializer": {"class_name": "Zeros", "config": {}}, "bias_constraint": null, "padding": "same", "dilation_rate": [1, 1], "kernel_regularizer": null, "filters": 192, "data_format": "channels_last", "strides": [1, 1], "use_bias": false}, "inbound_nodes": [[["activation_63", 0, 0, {}]]]}, {"class_name": "Conv2D", "name": "conv2d_69", "config": {"bias_regularizer": null, "kernel_initializer": {"class_name": "VarianceScaling", "config": {"mode": "fan_avg", "scale": 1.0, "distribution": "uniform", "seed": null}}, "trainable": false, "name": "conv2d_69", "kernel_constraint": null, "activation": "linear", "kernel_size": [1, 7], "activity_regularizer": null, "bias_initializer": {"class_name": "Zeros", "config": {}}, "bias_constraint": null, "padding": "same", "dilation_rate": [1, 1], "kernel_regularizer": null, "filters": 192, "data_format": "channels_last", "strides": [1, 1], "use_bias": false}, "inbound_nodes": [[["activation_68", 0, 0, {}]]]}, {"class_name": "Conv2D", "name": "conv2d_70", "config": {"bias_regularizer": null, "kernel_initializer": {"class_name": "VarianceScaling", "config": {"mode": "fan_avg", "scale": 1.0, "distribution": "uniform", "seed": null}}, "trainable": false, "name": "conv2d_70", "kernel_constraint": null, "activation": "linear", "kernel_size": [1, 1], "activity_regularizer": null, "bias_initializer": {"class_name": "Zeros", "config": {}}, "bias_constraint": null, "padding": "same", "dilation_rate": [1, 1], "kernel_regularizer": null, "filters": 192, "data_format": "channels_last", "strides": [1, 1], "use_bias": false}, "inbound_nodes": [[["average_pooling2d_7", 0, 0, {}]]]}, {"class_name": "BatchNormalization", "name": "batch_normalization_61", "config": {"beta_initializer": {"class_name": "Zeros", "config": {}}, "beta_constraint": null, "name": "batch_normalization_61", "epsilon": 0.001, "momentum": 0.99, "gamma_regularizer": null, "scale": false, "trainable": false, "moving_variance_initializer": {"class_name": "Ones", "config": {}}, "beta_regularizer": null, "moving_mean_initializer": {"class_name": "Zeros", "config": {}}, "axis": 3, "gamma_initializer": {"class_name": "Ones", "config": {}}, "gamma_constraint": null, "center": true}, "inbound_nodes": [[["conv2d_61", 0, 0, {}]]]}, {"class_name": "BatchNormalization", "name": "batch_normalization_64", "config": {"beta_initializer": {"class_name": "Zeros", "config": {}}, "beta_constraint": null, "name": "batch_normalization_64", "epsilon": 0.001, "momentum": 0.99, "gamma_regularizer": null, "scale": false, "trainable": false, "moving_variance_initializer": {"class_name": "Ones", "config": {}}, "beta_regularizer": null, "moving_mean_initializer": {"class_name": "Zeros", "config": {}}, "axis": 3, "gamma_initializer": {"class_name": "Ones", "config": {}}, "gamma_constraint": null, "center": true}, "inbound_nodes": [[["conv2d_64", 0, 0, {}]]]}, {"class_name": "BatchNormalization", "name": "batch_normalization_69", "config": {"beta_initializer": {"class_name": "Zeros", "config": {}}, "beta_constraint": null, "name": "batch_normalization_69", "epsilon": 0.001, "momentum": 0.99, "gamma_regularizer": null, "scale": false, "trainable": false, "moving_variance_initializer": {"class_name": "Ones", "config": {}}, "beta_regularizer": null, "moving_mean_initializer": {"class_name": "Zeros", "config": {}}, "axis": 3, "gamma_initializer": {"class_name": "Ones", "config": {}}, "gamma_constraint": null, "center": true}, "inbound_nodes": [[["conv2d_69", 0, 0, {}]]]}, {"class_name": "BatchNormalization", "name": "batch_normalization_70", "config": {"beta_initializer": {"class_name": "Zeros", "config": {}}, "beta_constraint": null, "name": "batch_normalization_70", "epsilon": 0.001, "momentum": 0.99, "gamma_regularizer": null, "scale": false, "trainable": false, "moving_variance_initializer": {"class_name": "Ones", "config": {}}, "beta_regularizer": null, "moving_mean_initializer": {"class_name": "Zeros", "config": {}}, "axis": 3, "gamma_initializer": {"class_name": "Ones", "config": {}}, "gamma_constraint": null, "center": true}, "inbound_nodes": [[["conv2d_70", 0, 0, {}]]]}, {"class_name": "Activation", "name": "activation_61", "config": {"name": "activation_61", "trainable": false, "activation": "relu"}, "inbound_nodes": [[["batch_normalization_61", 0, 0, {}]]]}, {"class_name": "Activation", "name": "activation_64", "config": {"name": "activation_64", "trainable": false, "activation": "relu"}, "inbound_nodes": [[["batch_normalization_64", 0, 0, {}]]]}, {"class_name": "Activation", "name": "activation_69", "config": {"name": "activation_69", "trainable": false, "activation": "relu"}, "inbound_nodes": [[["batch_normalization_69", 0, 0, {}]]]}, {"class_name": "Activation", "name": "activation_70", "config": {"name": "activation_70", "trainable": false, "activation": "relu"}, "inbound_nodes": [[["batch_normalization_70", 0, 0, {}]]]}, {"class_name": "Concatenate", "name": "mixed7", "config": {"trainable": false, "name": "mixed7", "axis": 3}, "inbound_nodes": [[["activation_61", 0, 0, {}], ["activation_64", 0, 0, {}], ["activation_69", 0, 0, {}], ["activation_70", 0, 0, {}]]]}, {"class_name": "Conv2D", "name": "conv2d_73", "config": {"bias_regularizer": null, "kernel_initializer": {"class_name": "VarianceScaling", "config": {"mode": "fan_avg", "scale": 1.0, "distribution": "uniform", "seed": null}}, "trainable": false, "name": "conv2d_73", "kernel_constraint": null, "activation": "linear", "kernel_size": [1, 1], "activity_regularizer": null, "bias_initializer": {"class_name": "Zeros", "config": {}}, "bias_constraint": null, "padding": "same", "dilation_rate": [1, 1], "kernel_regularizer": null, "filters": 192, "data_format": "channels_last", "strides": [1, 1], "use_bias": false}, "inbound_nodes": [[["mixed7", 0, 0, {}]]]}, {"class_name": "BatchNormalization", "name": "batch_normalization_73", "config": {"beta_initializer": {"class_name": "Zeros", "config": {}}, "beta_constraint": null, "name": "batch_normalization_73", "epsilon": 0.001, "momentum": 0.99, "gamma_regularizer": null, "scale": false, "trainable": false, "moving_variance_initializer": {"class_name": "Ones", "config": {}}, "beta_regularizer": null, "moving_mean_initializer": {"class_name": "Zeros", "config": {}}, "axis": 3, "gamma_initializer": {"class_name": "Ones", "config": {}}, "gamma_constraint": null, "center": true}, "inbound_nodes": [[["conv2d_73", 0, 0, {}]]]}, {"class_name": "Activation", "name": "activation_73", "config": {"name": "activation_73", "trainable": false, "activation": "relu"}, "inbound_nodes": [[["batch_normalization_73", 0, 0, {}]]]}, {"class_name": "Conv2D", "name": "conv2d_74", "config": {"bias_regularizer": null, "kernel_initializer": {"class_name": "VarianceScaling", "config": {"mode": "fan_avg", "scale": 1.0, "distribution": "uniform", "seed": null}}, "trainable": false, "name": "conv2d_74", "kernel_constraint": null, "activation": "linear", "kernel_size": [1, 7], "activity_regularizer": null, "bias_initializer": {"class_name": "Zeros", "config": {}}, "bias_constraint": null, "padding": "same", "dilation_rate": [1, 1], "kernel_regularizer": null, "filters": 192, "data_format": "channels_last", "strides": [1, 1], "use_bias": false}, "inbound_nodes": [[["activation_73", 0, 0, {}]]]}, {"class_name": "BatchNormalization", "name": "batch_normalization_74", "config": {"beta_initializer": {"class_name": "Zeros", "config": {}}, "beta_constraint": null, "name": "batch_normalization_74", "epsilon": 0.001, "momentum": 0.99, "gamma_regularizer": null, "scale": false, "trainable": false, "moving_variance_initializer": {"class_name": "Ones", "config": {}}, "beta_regularizer": null, "moving_mean_initializer": {"class_name": "Zeros", "config": {}}, "axis": 3, "gamma_initializer": {"class_name": "Ones", "config": {}}, "gamma_constraint": null, "center": true}, "inbound_nodes": [[["conv2d_74", 0, 0, {}]]]}, {"class_name": "Activation", "name": "activation_74", "config": {"name": "activation_74", "trainable": false, "activation": "relu"}, "inbound_nodes": [[["batch_normalization_74", 0, 0, {}]]]}, {"class_name": "Conv2D", "name": "conv2d_71", "config": {"bias_regularizer": null, "kernel_initializer": {"class_name": "VarianceScaling", "config": {"mode": "fan_avg", "scale": 1.0, "distribution": "uniform", "seed": null}}, "trainable": false, "name": "conv2d_71", "kernel_constraint": null, "activation": "linear", "kernel_size": [1, 1], "activity_regularizer": null, "bias_initializer": {"class_name": "Zeros", "config": {}}, "bias_constraint": null, "padding": "same", "dilation_rate": [1, 1], "kernel_regularizer": null, "filters": 192, "data_format": "channels_last", "strides": [1, 1], "use_bias": false}, "inbound_nodes": [[["mixed7", 0, 0, {}]]]}, {"class_name": "Conv2D", "name": "conv2d_75", "config": {"bias_regularizer": null, "kernel_initializer": {"class_name": "VarianceScaling", "config": {"mode": "fan_avg", "scale": 1.0, "distribution": "uniform", "seed": null}}, "trainable": false, "name": "conv2d_75", "kernel_constraint": null, "activation": "linear", "kernel_size": [7, 1], "activity_regularizer": null, "bias_initializer": {"class_name": "Zeros", "config": {}}, "bias_constraint": null, "padding": "same", "dilation_rate": [1, 1], "kernel_regularizer": null, "filters": 192, "data_format": "channels_last", "strides": [1, 1], "use_bias": false}, "inbound_nodes": [[["activation_74", 0, 0, {}]]]}, {"class_name": "BatchNormalization", "name": "batch_normalization_71", "config": {"beta_initializer": {"class_name": "Zeros", "config": {}}, "beta_constraint": null, "name": "batch_normalization_71", "epsilon": 0.001, "momentum": 0.99, "gamma_regularizer": null, "scale": false, "trainable": false, "moving_variance_initializer": {"class_name": "Ones", "config": {}}, "beta_regularizer": null, "moving_mean_initializer": {"class_name": "Zeros", "config": {}}, "axis": 3, "gamma_initializer": {"class_name": "Ones", "config": {}}, "gamma_constraint": null, "center": true}, "inbound_nodes": [[["conv2d_71", 0, 0, {}]]]}, {"class_name": "BatchNormalization", "name": "batch_normalization_75", "config": {"beta_initializer": {"class_name": "Zeros", "config": {}}, "beta_constraint": null, "name": "batch_normalization_75", "epsilon": 0.001, "momentum": 0.99, "gamma_regularizer": null, "scale": false, "trainable": false, "moving_variance_initializer": {"class_name": "Ones", "config": {}}, "beta_regularizer": null, "moving_mean_initializer": {"class_name": "Zeros", "config": {}}, "axis": 3, "gamma_initializer": {"class_name": "Ones", "config": {}}, "gamma_constraint": null, "center": true}, "inbound_nodes": [[["conv2d_75", 0, 0, {}]]]}, {"class_name": "Activation", "name": "activation_71", "config": {"name": "activation_71", "trainable": false, "activation": "relu"}, "inbound_nodes": [[["batch_normalization_71", 0, 0, {}]]]}, {"class_name": "Activation", "name": "activation_75", "config": {"name": "activation_75", "trainable": false, "activation": "relu"}, "inbound_nodes": [[["batch_normalization_75", 0, 0, {}]]]}, {"class_name": "Conv2D", "name": "conv2d_72", "config": {"bias_regularizer": null, "kernel_initializer": {"class_name": "VarianceScaling", "config": {"mode": "fan_avg", "scale": 1.0, "distribution": "uniform", "seed": null}}, "trainable": false, "name": "conv2d_72", "kernel_constraint": null, "activation": "linear", "kernel_size": [3, 3], "activity_regularizer": null, "bias_initializer": {"class_name": "Zeros", "config": {}}, "bias_constraint": null, "padding": "valid", "dilation_rate": [1, 1], "kernel_regularizer": null, "filters": 320, "data_format": "channels_last", "strides": [2, 2], "use_bias": false}, "inbound_nodes": [[["activation_71", 0, 0, {}]]]}, {"class_name": "Conv2D", "name": "conv2d_76", "config": {"bias_regularizer": null, "kernel_initializer": {"class_name": "VarianceScaling", "config": {"mode": "fan_avg", "scale": 1.0, "distribution": "uniform", "seed": null}}, "trainable": false, "name": "conv2d_76", "kernel_constraint": null, "activation": "linear", "kernel_size": [3, 3], "activity_regularizer": null, "bias_initializer": {"class_name": "Zeros", "config": {}}, "bias_constraint": null, "padding": "valid", "dilation_rate": [1, 1], "kernel_regularizer": null, "filters": 192, "data_format": "channels_last", "strides": [2, 2], "use_bias": false}, "inbound_nodes": [[["activation_75", 0, 0, {}]]]}, {"class_name": "BatchNormalization", "name": "batch_normalization_72", "config": {"beta_initializer": {"class_name": "Zeros", "config": {}}, "beta_constraint": null, "name": "batch_normalization_72", "epsilon": 0.001, "momentum": 0.99, "gamma_regularizer": null, "scale": false, "trainable": false, "moving_variance_initializer": {"class_name": "Ones", "config": {}}, "beta_regularizer": null, "moving_mean_initializer": {"class_name": "Zeros", "config": {}}, "axis": 3, "gamma_initializer": {"class_name": "Ones", "config": {}}, "gamma_constraint": null, "center": true}, "inbound_nodes": [[["conv2d_72", 0, 0, {}]]]}, {"class_name": "BatchNormalization", "name": "batch_normalization_76", "config": {"beta_initializer": {"class_name": "Zeros", "config": {}}, "beta_constraint": null, "name": "batch_normalization_76", "epsilon": 0.001, "momentum": 0.99, "gamma_regularizer": null, "scale": false, "trainable": false, "moving_variance_initializer": {"class_name": "Ones", "config": {}}, "beta_regularizer": null, "moving_mean_initializer": {"class_name": "Zeros", "config": {}}, "axis": 3, "gamma_initializer": {"class_name": "Ones", "config": {}}, "gamma_constraint": null, "center": true}, "inbound_nodes": [[["conv2d_76", 0, 0, {}]]]}, {"class_name": "Activation", "name": "activation_72", "config": {"name": "activation_72", "trainable": false, "activation": "relu"}, "inbound_nodes": [[["batch_normalization_72", 0, 0, {}]]]}, {"class_name": "Activation", "name": "activation_76", "config": {"name": "activation_76", "trainable": false, "activation": "relu"}, "inbound_nodes": [[["batch_normalization_76", 0, 0, {}]]]}, {"class_name": "MaxPooling2D", "name": "max_pooling2d_4", "config": {"pool_size": [3, 3], "name": "max_pooling2d_4", "padding": "valid", "trainable": false, "data_format": "channels_last", "strides": [2, 2]}, "inbound_nodes": [[["mixed7", 0, 0, {}]]]}, {"class_name": "Concatenate", "name": "mixed8", "config": {"trainable": false, "name": "mixed8", "axis": 3}, "inbound_nodes": [[["activation_72", 0, 0, {}], ["activation_76", 0, 0, {}], ["max_pooling2d_4", 0, 0, {}]]]}, {"class_name": "Conv2D", "name": "conv2d_81", "config": {"bias_regularizer": null, "kernel_initializer": {"class_name": "VarianceScaling", "config": {"mode": "fan_avg", "scale": 1.0, "distribution": "uniform", "seed": null}}, "trainable": false, "name": "conv2d_81", "kernel_constraint": null, "activation": "linear", "kernel_size": [1, 1], "activity_regularizer": null, "bias_initializer": {"class_name": "Zeros", "config": {}}, "bias_constraint": null, "padding": "same", "dilation_rate": [1, 1], "kernel_regularizer": null, "filters": 448, "data_format": "channels_last", "strides": [1, 1], "use_bias": false}, "inbound_nodes": [[["mixed8", 0, 0, {}]]]}, {"class_name": "BatchNormalization", "name": "batch_normalization_81", "config": {"beta_initializer": {"class_name": "Zeros", "config": {}}, "beta_constraint": null, "name": "batch_normalization_81", "epsilon": 0.001, "momentum": 0.99, "gamma_regularizer": null, "scale": false, "trainable": false, "moving_variance_initializer": {"class_name": "Ones", "config": {}}, "beta_regularizer": null, "moving_mean_initializer": {"class_name": "Zeros", "config": {}}, "axis": 3, "gamma_initializer": {"class_name": "Ones", "config": {}}, "gamma_constraint": null, "center": true}, "inbound_nodes": [[["conv2d_81", 0, 0, {}]]]}, {"class_name": "Activation", "name": "activation_81", "config": {"name": "activation_81", "trainable": false, "activation": "relu"}, "inbound_nodes": [[["batch_normalization_81", 0, 0, {}]]]}, {"class_name": "Conv2D", "name": "conv2d_78", "config": {"bias_regularizer": null, "kernel_initializer": {"class_name": "VarianceScaling", "config": {"mode": "fan_avg", "scale": 1.0, "distribution": "uniform", "seed": null}}, "trainable": false, "name": "conv2d_78", "kernel_constraint": null, "activation": "linear", "kernel_size": [1, 1], "activity_regularizer": null, "bias_initializer": {"class_name": "Zeros", "config": {}}, "bias_constraint": null, "padding": "same", "dilation_rate": [1, 1], "kernel_regularizer": null, "filters": 384, "data_format": "channels_last", "strides": [1, 1], "use_bias": false}, "inbound_nodes": [[["mixed8", 0, 0, {}]]]}, {"class_name": "Conv2D", "name": "conv2d_82", "config": {"bias_regularizer": null, "kernel_initializer": {"class_name": "VarianceScaling", "config": {"mode": "fan_avg", "scale": 1.0, "distribution": "uniform", "seed": null}}, "trainable": false, "name": "conv2d_82", "kernel_constraint": null, "activation": "linear", "kernel_size": [3, 3], "activity_regularizer": null, "bias_initializer": {"class_name": "Zeros", "config": {}}, "bias_constraint": null, "padding": "same", "dilation_rate": [1, 1], "kernel_regularizer": null, "filters": 384, "data_format": "channels_last", "strides": [1, 1], "use_bias": false}, "inbound_nodes": [[["activation_81", 0, 0, {}]]]}, {"class_name": "BatchNormalization", "name": "batch_normalization_78", "config": {"beta_initializer": {"class_name": "Zeros", "config": {}}, "beta_constraint": null, "name": "batch_normalization_78", "epsilon": 0.001, "momentum": 0.99, "gamma_regularizer": null, "scale": false, "trainable": false, "moving_variance_initializer": {"class_name": "Ones", "config": {}}, "beta_regularizer": null, "moving_mean_initializer": {"class_name": "Zeros", "config": {}}, "axis": 3, "gamma_initializer": {"class_name": "Ones", "config": {}}, "gamma_constraint": null, "center": true}, "inbound_nodes": [[["conv2d_78", 0, 0, {}]]]}, {"class_name": "BatchNormalization", "name": "batch_normalization_82", "config": {"beta_initializer": {"class_name": "Zeros", "config": {}}, "beta_constraint": null, "name": "batch_normalization_82", "epsilon": 0.001, "momentum": 0.99, "gamma_regularizer": null, "scale": false, "trainable": false, "moving_variance_initializer": {"class_name": "Ones", "config": {}}, "beta_regularizer": null, "moving_mean_initializer": {"class_name": "Zeros", "config": {}}, "axis": 3, "gamma_initializer": {"class_name": "Ones", "config": {}}, "gamma_constraint": null, "center": true}, "inbound_nodes": [[["conv2d_82", 0, 0, {}]]]}, {"class_name": "Activation", "name": "activation_78", "config": {"name": "activation_78", "trainable": false, "activation": "relu"}, "inbound_nodes": [[["batch_normalization_78", 0, 0, {}]]]}, {"class_name": "Activation", "name": "activation_82", "config": {"name": "activation_82", "trainable": false, "activation": "relu"}, "inbound_nodes": [[["batch_normalization_82", 0, 0, {}]]]}, {"class_name": "Conv2D", "name": "conv2d_79", "config": {"bias_regularizer": null, "kernel_initializer": {"class_name": "VarianceScaling", "config": {"mode": "fan_avg", "scale": 1.0, "distribution": "uniform", "seed": null}}, "trainable": false, "name": "conv2d_79", "kernel_constraint": null, "activation": "linear", "kernel_size": [1, 3], "activity_regularizer": null, "bias_initializer": {"class_name": "Zeros", "config": {}}, "bias_constraint": null, "padding": "same", "dilation_rate": [1, 1], "kernel_regularizer": null, "filters": 384, "data_format": "channels_last", "strides": [1, 1], "use_bias": false}, "inbound_nodes": [[["activation_78", 0, 0, {}]]]}, {"class_name": "Conv2D", "name": "conv2d_80", "config": {"bias_regularizer": null, "kernel_initializer": {"class_name": "VarianceScaling", "config": {"mode": "fan_avg", "scale": 1.0, "distribution": "uniform", "seed": null}}, "trainable": false, "name": "conv2d_80", "kernel_constraint": null, "activation": "linear", "kernel_size": [3, 1], "activity_regularizer": null, "bias_initializer": {"class_name": "Zeros", "config": {}}, "bias_constraint": null, "padding": "same", "dilation_rate": [1, 1], "kernel_regularizer": null, "filters": 384, "data_format": "channels_last", "strides": [1, 1], "use_bias": false}, "inbound_nodes": [[["activation_78", 0, 0, {}]]]}, {"class_name": "Conv2D", "name": "conv2d_83", "config": {"bias_regularizer": null, "kernel_initializer": {"class_name": "VarianceScaling", "config": {"mode": "fan_avg", "scale": 1.0, "distribution": "uniform", "seed": null}}, "trainable": false, "name": "conv2d_83", "kernel_constraint": null, "activation": "linear", "kernel_size": [1, 3], "activity_regularizer": null, "bias_initializer": {"class_name": "Zeros", "config": {}}, "bias_constraint": null, "padding": "same", "dilation_rate": [1, 1], "kernel_regularizer": null, "filters": 384, "data_format": "channels_last", "strides": [1, 1], "use_bias": false}, "inbound_nodes": [[["activation_82", 0, 0, {}]]]}, {"class_name": "Conv2D", "name": "conv2d_84", "config": {"bias_regularizer": null, "kernel_initializer": {"class_name": "VarianceScaling", "config": {"mode": "fan_avg", "scale": 1.0, "distribution": "uniform", "seed": null}}, "trainable": false, "name": "conv2d_84", "kernel_constraint": null, "activation": "linear", "kernel_size": [3, 1], "activity_regularizer": null, "bias_initializer": {"class_name": "Zeros", "config": {}}, "bias_constraint": null, "padding": "same", "dilation_rate": [1, 1], "kernel_regularizer": null, "filters": 384, "data_format": "channels_last", "strides": [1, 1], "use_bias": false}, "inbound_nodes": [[["activation_82", 0, 0, {}]]]}, {"class_name": "AveragePooling2D", "name": "average_pooling2d_8", "config": {"pool_size": [3, 3], "name": "average_pooling2d_8", "padding": "same", "trainable": false, "data_format": "channels_last", "strides": [1, 1]}, "inbound_nodes": [[["mixed8", 0, 0, {}]]]}, {"class_name": "Conv2D", "name": "conv2d_77", "config": {"bias_regularizer": null, "kernel_initializer": {"class_name": "VarianceScaling", "config": {"mode": "fan_avg", "scale": 1.0, "distribution": "uniform", "seed": null}}, "trainable": false, "name": "conv2d_77", "kernel_constraint": null, "activation": "linear", "kernel_size": [1, 1], "activity_regularizer": null, "bias_initializer": {"class_name": "Zeros", "config": {}}, "bias_constraint": null, "padding": "same", "dilation_rate": [1, 1], "kernel_regularizer": null, "filters": 320, "data_format": "channels_last", "strides": [1, 1], "use_bias": false}, "inbound_nodes": [[["mixed8", 0, 0, {}]]]}, {"class_name": "BatchNormalization", "name": "batch_normalization_79", "config": {"beta_initializer": {"class_name": "Zeros", "config": {}}, "beta_constraint": null, "name": "batch_normalization_79", "epsilon": 0.001, "momentum": 0.99, "gamma_regularizer": null, "scale": false, "trainable": false, "moving_variance_initializer": {"class_name": "Ones", "config": {}}, "beta_regularizer": null, "moving_mean_initializer": {"class_name": "Zeros", "config": {}}, "axis": 3, "gamma_initializer": {"class_name": "Ones", "config": {}}, "gamma_constraint": null, "center": true}, "inbound_nodes": [[["conv2d_79", 0, 0, {}]]]}, {"class_name": "BatchNormalization", "name": "batch_normalization_80", "config": {"beta_initializer": {"class_name": "Zeros", "config": {}}, "beta_constraint": null, "name": "batch_normalization_80", "epsilon": 0.001, "momentum": 0.99, "gamma_regularizer": null, "scale": false, "trainable": false, "moving_variance_initializer": {"class_name": "Ones", "config": {}}, "beta_regularizer": null, "moving_mean_initializer": {"class_name": "Zeros", "config": {}}, "axis": 3, "gamma_initializer": {"class_name": "Ones", "config": {}}, "gamma_constraint": null, "center": true}, "inbound_nodes": [[["conv2d_80", 0, 0, {}]]]}, {"class_name": "BatchNormalization", "name": "batch_normalization_83", "config": {"beta_initializer": {"class_name": "Zeros", "config": {}}, "beta_constraint": null, "name": "batch_normalization_83", "epsilon": 0.001, "momentum": 0.99, "gamma_regularizer": null, "scale": false, "trainable": false, "moving_variance_initializer": {"class_name": "Ones", "config": {}}, "beta_regularizer": null, "moving_mean_initializer": {"class_name": "Zeros", "config": {}}, "axis": 3, "gamma_initializer": {"class_name": "Ones", "config": {}}, "gamma_constraint": null, "center": true}, "inbound_nodes": [[["conv2d_83", 0, 0, {}]]]}, {"class_name": "BatchNormalization", "name": "batch_normalization_84", "config": {"beta_initializer": {"class_name": "Zeros", "config": {}}, "beta_constraint": null, "name": "batch_normalization_84", "epsilon": 0.001, "momentum": 0.99, "gamma_regularizer": null, "scale": false, "trainable": false, "moving_variance_initializer": {"class_name": "Ones", "config": {}}, "beta_regularizer": null, "moving_mean_initializer": {"class_name": "Zeros", "config": {}}, "axis": 3, "gamma_initializer": {"class_name": "Ones", "config": {}}, "gamma_constraint": null, "center": true}, "inbound_nodes": [[["conv2d_84", 0, 0, {}]]]}, {"class_name": "Conv2D", "name": "conv2d_85", "config": {"bias_regularizer": null, "kernel_initializer": {"class_name": "VarianceScaling", "config": {"mode": "fan_avg", "scale": 1.0, "distribution": "uniform", "seed": null}}, "trainable": false, "name": "conv2d_85", "kernel_constraint": null, "activation": "linear", "kernel_size": [1, 1], "activity_regularizer": null, "bias_initializer": {"class_name": "Zeros", "config": {}}, "bias_constraint": null, "padding": "same", "dilation_rate": [1, 1], "kernel_regularizer": null, "filters": 192, "data_format": "channels_last", "strides": [1, 1], "use_bias": false}, "inbound_nodes": [[["average_pooling2d_8", 0, 0, {}]]]}, {"class_name": "BatchNormalization", "name": "batch_normalization_77", "config": {"beta_initializer": {"class_name": "Zeros", "config": {}}, "beta_constraint": null, "name": "batch_normalization_77", "epsilon": 0.001, "momentum": 0.99, "gamma_regularizer": null, "scale": false, "trainable": false, "moving_variance_initializer": {"class_name": "Ones", "config": {}}, "beta_regularizer": null, "moving_mean_initializer": {"class_name": "Zeros", "config": {}}, "axis": 3, "gamma_initializer": {"class_name": "Ones", "config": {}}, "gamma_constraint": null, "center": true}, "inbound_nodes": [[["conv2d_77", 0, 0, {}]]]}, {"class_name": "Activation", "name": "activation_79", "config": {"name": "activation_79", "trainable": false, "activation": "relu"}, "inbound_nodes": [[["batch_normalization_79", 0, 0, {}]]]}, {"class_name": "Activation", "name": "activation_80", "config": {"name": "activation_80", "trainable": false, "activation": "relu"}, "inbound_nodes": [[["batch_normalization_80", 0, 0, {}]]]}, {"class_name": "Activation", "name": "activation_83", "config": {"name": "activation_83", "trainable": false, "activation": "relu"}, "inbound_nodes": [[["batch_normalization_83", 0, 0, {}]]]}, {"class_name": "Activation", "name": "activation_84", "config": {"name": "activation_84", "trainable": false, "activation": "relu"}, "inbound_nodes": [[["batch_normalization_84", 0, 0, {}]]]}, {"class_name": "BatchNormalization", "name": "batch_normalization_85", "config": {"beta_initializer": {"class_name": "Zeros", "config": {}}, "beta_constraint": null, "name": "batch_normalization_85", "epsilon": 0.001, "momentum": 0.99, "gamma_regularizer": null, "scale": false, "trainable": false, "moving_variance_initializer": {"class_name": "Ones", "config": {}}, "beta_regularizer": null, "moving_mean_initializer": {"class_name": "Zeros", "config": {}}, "axis": 3, "gamma_initializer": {"class_name": "Ones", "config": {}}, "gamma_constraint": null, "center": true}, "inbound_nodes": [[["conv2d_85", 0, 0, {}]]]}, {"class_name": "Activation", "name": "activation_77", "config": {"name": "activation_77", "trainable": false, "activation": "relu"}, "inbound_nodes": [[["batch_normalization_77", 0, 0, {}]]]}, {"class_name": "Concatenate", "name": "mixed9_0", "config": {"trainable": false, "name": "mixed9_0", "axis": 3}, "inbound_nodes": [[["activation_79", 0, 0, {}], ["activation_80", 0, 0, {}]]]}, {"class_name": "Concatenate", "name": "concatenate_1", "config": {"trainable": false, "name": "concatenate_1", "axis": 3}, "inbound_nodes": [[["activation_83", 0, 0, {}], ["activation_84", 0, 0, {}]]]}, {"class_name": "Activation", "name": "activation_85", "config": {"name": "activation_85", "trainable": false, "activation": "relu"}, "inbound_nodes": [[["batch_normalization_85", 0, 0, {}]]]}, {"class_name": "Concatenate", "name": "mixed9", "config": {"trainable": false, "name": "mixed9", "axis": 3}, "inbound_nodes": [[["activation_77", 0, 0, {}], ["mixed9_0", 0, 0, {}], ["concatenate_1", 0, 0, {}], ["activation_85", 0, 0, {}]]]}, {"class_name": "Conv2D", "name": "conv2d_90", "config": {"bias_regularizer": null, "kernel_initializer": {"class_name": "VarianceScaling", "config": {"mode": "fan_avg", "scale": 1.0, "distribution": "uniform", "seed": null}}, "trainable": false, "name": "conv2d_90", "kernel_constraint": null, "activation": "linear", "kernel_size": [1, 1], "activity_regularizer": null, "bias_initializer": {"class_name": "Zeros", "config": {}}, "bias_constraint": null, "padding": "same", "dilation_rate": [1, 1], "kernel_regularizer": null, "filters": 448, "data_format": "channels_last", "strides": [1, 1], "use_bias": false}, "inbound_nodes": [[["mixed9", 0, 0, {}]]]}, {"class_name": "BatchNormalization", "name": "batch_normalization_90", "config": {"beta_initializer": {"class_name": "Zeros", "config": {}}, "beta_constraint": null, "name": "batch_normalization_90", "epsilon": 0.001, "momentum": 0.99, "gamma_regularizer": null, "scale": false, "trainable": false, "moving_variance_initializer": {"class_name": "Ones", "config": {}}, "beta_regularizer": null, "moving_mean_initializer": {"class_name": "Zeros", "config": {}}, "axis": 3, "gamma_initializer": {"class_name": "Ones", "config": {}}, "gamma_constraint": null, "center": true}, "inbound_nodes": [[["conv2d_90", 0, 0, {}]]]}, {"class_name": "Activation", "name": "activation_90", "config": {"name": "activation_90", "trainable": false, "activation": "relu"}, "inbound_nodes": [[["batch_normalization_90", 0, 0, {}]]]}, {"class_name": "Conv2D", "name": "conv2d_87", "config": {"bias_regularizer": null, "kernel_initializer": {"class_name": "VarianceScaling", "config": {"mode": "fan_avg", "scale": 1.0, "distribution": "uniform", "seed": null}}, "trainable": false, "name": "conv2d_87", "kernel_constraint": null, "activation": "linear", "kernel_size": [1, 1], "activity_regularizer": null, "bias_initializer": {"class_name": "Zeros", "config": {}}, "bias_constraint": null, "padding": "same", "dilation_rate": [1, 1], "kernel_regularizer": null, "filters": 384, "data_format": "channels_last", "strides": [1, 1], "use_bias": false}, "inbound_nodes": [[["mixed9", 0, 0, {}]]]}, {"class_name": "Conv2D", "name": "conv2d_91", "config": {"bias_regularizer": null, "kernel_initializer": {"class_name": "VarianceScaling", "config": {"mode": "fan_avg", "scale": 1.0, "distribution": "uniform", "seed": null}}, "trainable": false, "name": "conv2d_91", "kernel_constraint": null, "activation": "linear", "kernel_size": [3, 3], "activity_regularizer": null, "bias_initializer": {"class_name": "Zeros", "config": {}}, "bias_constraint": null, "padding": "same", "dilation_rate": [1, 1], "kernel_regularizer": null, "filters": 384, "data_format": "channels_last", "strides": [1, 1], "use_bias": false}, "inbound_nodes": [[["activation_90", 0, 0, {}]]]}, {"class_name": "BatchNormalization", "name": "batch_normalization_87", "config": {"beta_initializer": {"class_name": "Zeros", "config": {}}, "beta_constraint": null, "name": "batch_normalization_87", "epsilon": 0.001, "momentum": 0.99, "gamma_regularizer": null, "scale": false, "trainable": false, "moving_variance_initializer": {"class_name": "Ones", "config": {}}, "beta_regularizer": null, "moving_mean_initializer": {"class_name": "Zeros", "config": {}}, "axis": 3, "gamma_initializer": {"class_name": "Ones", "config": {}}, "gamma_constraint": null, "center": true}, "inbound_nodes": [[["conv2d_87", 0, 0, {}]]]}, {"class_name": "BatchNormalization", "name": "batch_normalization_91", "config": {"beta_initializer": {"class_name": "Zeros", "config": {}}, "beta_constraint": null, "name": "batch_normalization_91", "epsilon": 0.001, "momentum": 0.99, "gamma_regularizer": null, "scale": false, "trainable": false, "moving_variance_initializer": {"class_name": "Ones", "config": {}}, "beta_regularizer": null, "moving_mean_initializer": {"class_name": "Zeros", "config": {}}, "axis": 3, "gamma_initializer": {"class_name": "Ones", "config": {}}, "gamma_constraint": null, "center": true}, "inbound_nodes": [[["conv2d_91", 0, 0, {}]]]}, {"class_name": "Activation", "name": "activation_87", "config": {"name": "activation_87", "trainable": false, "activation": "relu"}, "inbound_nodes": [[["batch_normalization_87", 0, 0, {}]]]}, {"class_name": "Activation", "name": "activation_91", "config": {"name": "activation_91", "trainable": false, "activation": "relu"}, "inbound_nodes": [[["batch_normalization_91", 0, 0, {}]]]}, {"class_name": "Conv2D", "name": "conv2d_88", "config": {"bias_regularizer": null, "kernel_initializer": {"class_name": "VarianceScaling", "config": {"mode": "fan_avg", "scale": 1.0, "distribution": "uniform", "seed": null}}, "trainable": false, "name": "conv2d_88", "kernel_constraint": null, "activation": "linear", "kernel_size": [1, 3], "activity_regularizer": null, "bias_initializer": {"class_name": "Zeros", "config": {}}, "bias_constraint": null, "padding": "same", "dilation_rate": [1, 1], "kernel_regularizer": null, "filters": 384, "data_format": "channels_last", "strides": [1, 1], "use_bias": false}, "inbound_nodes": [[["activation_87", 0, 0, {}]]]}, {"class_name": "Conv2D", "name": "conv2d_89", "config": {"bias_regularizer": null, "kernel_initializer": {"class_name": "VarianceScaling", "config": {"mode": "fan_avg", "scale": 1.0, "distribution": "uniform", "seed": null}}, "trainable": false, "name": "conv2d_89", "kernel_constraint": null, "activation": "linear", "kernel_size": [3, 1], "activity_regularizer": null, "bias_initializer": {"class_name": "Zeros", "config": {}}, "bias_constraint": null, "padding": "same", "dilation_rate": [1, 1], "kernel_regularizer": null, "filters": 384, "data_format": "channels_last", "strides": [1, 1], "use_bias": false}, "inbound_nodes": [[["activation_87", 0, 0, {}]]]}, {"class_name": "Conv2D", "name": "conv2d_92", "config": {"bias_regularizer": null, "kernel_initializer": {"class_name": "VarianceScaling", "config": {"mode": "fan_avg", "scale": 1.0, "distribution": "uniform", "seed": null}}, "trainable": false, "name": "conv2d_92", "kernel_constraint": null, "activation": "linear", "kernel_size": [1, 3], "activity_regularizer": null, "bias_initializer": {"class_name": "Zeros", "config": {}}, "bias_constraint": null, "padding": "same", "dilation_rate": [1, 1], "kernel_regularizer": null, "filters": 384, "data_format": "channels_last", "strides": [1, 1], "use_bias": false}, "inbound_nodes": [[["activation_91", 0, 0, {}]]]}, {"class_name": "Conv2D", "name": "conv2d_93", "config": {"bias_regularizer": null, "kernel_initializer": {"class_name": "VarianceScaling", "config": {"mode": "fan_avg", "scale": 1.0, "distribution": "uniform", "seed": null}}, "trainable": false, "name": "conv2d_93", "kernel_constraint": null, "activation": "linear", "kernel_size": [3, 1], "activity_regularizer": null, "bias_initializer": {"class_name": "Zeros", "config": {}}, "bias_constraint": null, "padding": "same", "dilation_rate": [1, 1], "kernel_regularizer": null, "filters": 384, "data_format": "channels_last", "strides": [1, 1], "use_bias": false}, "inbound_nodes": [[["activation_91", 0, 0, {}]]]}, {"class_name": "AveragePooling2D", "name": "average_pooling2d_9", "config": {"pool_size": [3, 3], "name": "average_pooling2d_9", "padding": "same", "trainable": false, "data_format": "channels_last", "strides": [1, 1]}, "inbound_nodes": [[["mixed9", 0, 0, {}]]]}, {"class_name": "Conv2D", "name": "conv2d_86", "config": {"bias_regularizer": null, "kernel_initializer": {"class_name": "VarianceScaling", "config": {"mode": "fan_avg", "scale": 1.0, "distribution": "uniform", "seed": null}}, "trainable": false, "name": "conv2d_86", "kernel_constraint": null, "activation": "linear", "kernel_size": [1, 1], "activity_regularizer": null, "bias_initializer": {"class_name": "Zeros", "config": {}}, "bias_constraint": null, "padding": "same", "dilation_rate": [1, 1], "kernel_regularizer": null, "filters": 320, "data_format": "channels_last", "strides": [1, 1], "use_bias": false}, "inbound_nodes": [[["mixed9", 0, 0, {}]]]}, {"class_name": "BatchNormalization", "name": "batch_normalization_88", "config": {"beta_initializer": {"class_name": "Zeros", "config": {}}, "beta_constraint": null, "name": "batch_normalization_88", "epsilon": 0.001, "momentum": 0.99, "gamma_regularizer": null, "scale": false, "trainable": false, "moving_variance_initializer": {"class_name": "Ones", "config": {}}, "beta_regularizer": null, "moving_mean_initializer": {"class_name": "Zeros", "config": {}}, "axis": 3, "gamma_initializer": {"class_name": "Ones", "config": {}}, "gamma_constraint": null, "center": true}, "inbound_nodes": [[["conv2d_88", 0, 0, {}]]]}, {"class_name": "BatchNormalization", "name": "batch_normalization_89", "config": {"beta_initializer": {"class_name": "Zeros", "config": {}}, "beta_constraint": null, "name": "batch_normalization_89", "epsilon": 0.001, "momentum": 0.99, "gamma_regularizer": null, "scale": false, "trainable": false, "moving_variance_initializer": {"class_name": "Ones", "config": {}}, "beta_regularizer": null, "moving_mean_initializer": {"class_name": "Zeros", "config": {}}, "axis": 3, "gamma_initializer": {"class_name": "Ones", "config": {}}, "gamma_constraint": null, "center": true}, "inbound_nodes": [[["conv2d_89", 0, 0, {}]]]}, {"class_name": "BatchNormalization", "name": "batch_normalization_92", "config": {"beta_initializer": {"class_name": "Zeros", "config": {}}, "beta_constraint": null, "name": "batch_normalization_92", "epsilon": 0.001, "momentum": 0.99, "gamma_regularizer": null, "scale": false, "trainable": false, "moving_variance_initializer": {"class_name": "Ones", "config": {}}, "beta_regularizer": null, "moving_mean_initializer": {"class_name": "Zeros", "config": {}}, "axis": 3, "gamma_initializer": {"class_name": "Ones", "config": {}}, "gamma_constraint": null, "center": true}, "inbound_nodes": [[["conv2d_92", 0, 0, {}]]]}, {"class_name": "BatchNormalization", "name": "batch_normalization_93", "config": {"beta_initializer": {"class_name": "Zeros", "config": {}}, "beta_constraint": null, "name": "batch_normalization_93", "epsilon": 0.001, "momentum": 0.99, "gamma_regularizer": null, "scale": false, "trainable": false, "moving_variance_initializer": {"class_name": "Ones", "config": {}}, "beta_regularizer": null, "moving_mean_initializer": {"class_name": "Zeros", "config": {}}, "axis": 3, "gamma_initializer": {"class_name": "Ones", "config": {}}, "gamma_constraint": null, "center": true}, "inbound_nodes": [[["conv2d_93", 0, 0, {}]]]}, {"class_name": "Conv2D", "name": "conv2d_94", "config": {"bias_regularizer": null, "kernel_initializer": {"class_name": "VarianceScaling", "config": {"mode": "fan_avg", "scale": 1.0, "distribution": "uniform", "seed": null}}, "trainable": false, "name": "conv2d_94", "kernel_constraint": null, "activation": "linear", "kernel_size": [1, 1], "activity_regularizer": null, "bias_initializer": {"class_name": "Zeros", "config": {}}, "bias_constraint": null, "padding": "same", "dilation_rate": [1, 1], "kernel_regularizer": null, "filters": 192, "data_format": "channels_last", "strides": [1, 1], "use_bias": false}, "inbound_nodes": [[["average_pooling2d_9", 0, 0, {}]]]}, {"class_name": "BatchNormalization", "name": "batch_normalization_86", "config": {"beta_initializer": {"class_name": "Zeros", "config": {}}, "beta_constraint": null, "name": "batch_normalization_86", "epsilon": 0.001, "momentum": 0.99, "gamma_regularizer": null, "scale": false, "trainable": false, "moving_variance_initializer": {"class_name": "Ones", "config": {}}, "beta_regularizer": null, "moving_mean_initializer": {"class_name": "Zeros", "config": {}}, "axis": 3, "gamma_initializer": {"class_name": "Ones", "config": {}}, "gamma_constraint": null, "center": true}, "inbound_nodes": [[["conv2d_86", 0, 0, {}]]]}, {"class_name": "Activation", "name": "activation_88", "config": {"name": "activation_88", "trainable": false, "activation": "relu"}, "inbound_nodes": [[["batch_normalization_88", 0, 0, {}]]]}, {"class_name": "Activation", "name": "activation_89", "config": {"name": "activation_89", "trainable": false, "activation": "relu"}, "inbound_nodes": [[["batch_normalization_89", 0, 0, {}]]]}, {"class_name": "Activation", "name": "activation_92", "config": {"name": "activation_92", "trainable": false, "activation": "relu"}, "inbound_nodes": [[["batch_normalization_92", 0, 0, {}]]]}, {"class_name": "Activation", "name": "activation_93", "config": {"name": "activation_93", "trainable": false, "activation": "relu"}, "inbound_nodes": [[["batch_normalization_93", 0, 0, {}]]]}, {"class_name": "BatchNormalization", "name": "batch_normalization_94", "config": {"beta_initializer": {"class_name": "Zeros", "config": {}}, "beta_constraint": null, "name": "batch_normalization_94", "epsilon": 0.001, "momentum": 0.99, "gamma_regularizer": null, "scale": false, "trainable": false, "moving_variance_initializer": {"class_name": "Ones", "config": {}}, "beta_regularizer": null, "moving_mean_initializer": {"class_name": "Zeros", "config": {}}, "axis": 3, "gamma_initializer": {"class_name": "Ones", "config": {}}, "gamma_constraint": null, "center": true}, "inbound_nodes": [[["conv2d_94", 0, 0, {}]]]}, {"class_name": "Activation", "name": "activation_86", "config": {"name": "activation_86", "trainable": false, "activation": "relu"}, "inbound_nodes": [[["batch_normalization_86", 0, 0, {}]]]}, {"class_name": "Concatenate", "name": "mixed9_1", "config": {"trainable": false, "name": "mixed9_1", "axis": 3}, "inbound_nodes": [[["activation_88", 0, 0, {}], ["activation_89", 0, 0, {}]]]}, {"class_name": "Concatenate", "name": "concatenate_2", "config": {"trainable": false, "name": "concatenate_2", "axis": 3}, "inbound_nodes": [[["activation_92", 0, 0, {}], ["activation_93", 0, 0, {}]]]}, {"class_name": "Activation", "name": "activation_94", "config": {"name": "activation_94", "trainable": false, "activation": "relu"}, "inbound_nodes": [[["batch_normalization_94", 0, 0, {}]]]}, {"class_name": "Concatenate", "name": "mixed10", "config": {"trainable": false, "name": "mixed10", "axis": 3}, "inbound_nodes": [[["activation_86", 0, 0, {}], ["mixed9_1", 0, 0, {}], ["concatenate_2", 0, 0, {}], ["activation_94", 0, 0, {}]]]}, {"class_name": "GlobalAveragePooling2D", "name": "global_average_pooling2d_1", "config": {"name": "global_average_pooling2d_1", "trainable": false, "data_format": "channels_last"}, "inbound_nodes": [[["mixed10", 0, 0, {}]]]}, {"class_name": "Dense", "name": "dense_1", "config": {"bias_regularizer": null, "kernel_initializer": {"class_name": "VarianceScaling", "config": {"mode": "fan_avg", "scale": 1.0, "distribution": "uniform", "seed": null}}, "name": "dense_1", "kernel_constraint": null, "activation": "sigmoid", "units": 5, "bias_initializer": {"class_name": "Zeros", "config": {}}, "activity_regularizer": null, "bias_constraint": null, "kernel_regularizer": null, "trainable": true, "use_bias": true}, "inbound_nodes": [[["global_average_pooling2d_1", 0, 0, {}]]]}]}}, "training_config": {"metrics": ["accuracy"], "loss": "binary_crossentropy", "loss_weights": null, "sample_weight_mode": null, "optimizer_config": {"class_name": "Adam", "config": {"beta_2": 0.9990000128746033, "lr": 0.0010000000474974513, "epsilon": 1e-07, "amsgrad": false, "beta_1": 0.8999999761581421, "decay": 0.0}}}}, "weightsManifest": [{"paths": ["group1-shard1of1"], "weights": [{"name": "batch_normalization_1/beta", "shape": [32], "dtype": "float32"}, {"name": "batch_normalization_1/moving_mean", "shape": [32], "dtype": "float32"}, {"name": "batch_normalization_1/moving_variance", "shape": [32], "dtype": "float32"}]}, {"paths": ["group2-shard1of1"], "weights": [{"name": "batch_normalization_10/beta", "shape": [96], "dtype": "float32"}, {"name": "batch_normalization_10/moving_mean", "shape": [96], "dtype": "float32"}, {"name": "batch_normalization_10/moving_variance", "shape": [96], "dtype": "float32"}]}, {"paths": ["group3-shard1of1"], "weights": [{"name": "batch_normalization_11/beta", "shape": [96], "dtype": "float32"}, {"name": "batch_normalization_11/moving_mean", "shape": [96], "dtype": "float32"}, {"name": "batch_normalization_11/moving_variance", "shape": [96], "dtype": "float32"}]}, {"paths": ["group4-shard1of1"], "weights": [{"name": "batch_normalization_12/beta", "shape": [32], "dtype": "float32"}, {"name": "batch_normalization_12/moving_mean", "shape": [32], "dtype": "float32"}, {"name": "batch_normalization_12/moving_variance", "shape": [32], "dtype": "float32"}]}, {"paths": ["group5-shard1of1"], "weights": [{"name": "batch_normalization_13/beta", "shape": [64], "dtype": "float32"}, {"name": "batch_normalization_13/moving_mean", "shape": [64], "dtype": "float32"}, {"name": "batch_normalization_13/moving_variance", "shape": [64], "dtype": "float32"}]}, {"paths": ["group6-shard1of1"], "weights": [{"name": "batch_normalization_14/beta", "shape": [48], "dtype": "float32"}, {"name": "batch_normalization_14/moving_mean", "shape": [48], "dtype": "float32"}, {"name": "batch_normalization_14/moving_variance", "shape": [48], "dtype": "float32"}]}, {"paths": ["group7-shard1of1"], "weights": [{"name": "batch_normalization_15/beta", "shape": [64], "dtype": "float32"}, {"name": "batch_normalization_15/moving_mean", "shape": [64], "dtype": "float32"}, {"name": "batch_normalization_15/moving_variance", "shape": [64], "dtype": "float32"}]}, {"paths": ["group8-shard1of1"], "weights": [{"name": "batch_normalization_16/beta", "shape": [64], "dtype": "float32"}, {"name": "batch_normalization_16/moving_mean", "shape": [64], "dtype": "float32"}, {"name": "batch_normalization_16/moving_variance", "shape": [64], "dtype": "float32"}]}, {"paths": ["group9-shard1of1"], "weights": [{"name": "batch_normalization_17/beta", "shape": [96], "dtype": "float32"}, {"name": "batch_normalization_17/moving_mean", "shape": [96], "dtype": "float32"}, {"name": "batch_normalization_17/moving_variance", "shape": [96], "dtype": "float32"}]}, {"paths": ["group10-shard1of1"], "weights": [{"name": "batch_normalization_18/beta", "shape": [96], "dtype": "float32"}, {"name": "batch_normalization_18/moving_mean", "shape": [96], "dtype": "float32"}, {"name": "batch_normalization_18/moving_variance", "shape": [96], "dtype": "float32"}]}, {"paths": ["group11-shard1of1"], "weights": [{"name": "batch_normalization_19/beta", "shape": [64], "dtype": "float32"}, {"name": "batch_normalization_19/moving_mean", "shape": [64], "dtype": "float32"}, {"name": "batch_normalization_19/moving_variance", "shape": [64], "dtype": "float32"}]}, {"paths": ["group12-shard1of1"], "weights": [{"name": "batch_normalization_2/beta", "shape": [32], "dtype": "float32"}, {"name": "batch_normalization_2/moving_mean", "shape": [32], "dtype": "float32"}, {"name": "batch_normalization_2/moving_variance", "shape": [32], "dtype": "float32"}]}, {"paths": ["group13-shard1of1"], "weights": [{"name": "batch_normalization_20/beta", "shape": [64], "dtype": "float32"}, {"name": "batch_normalization_20/moving_mean", "shape": [64], "dtype": "float32"}, {"name": "batch_normalization_20/moving_variance", "shape": [64], "dtype": "float32"}]}, {"paths": ["group14-shard1of1"], "weights": [{"name": "batch_normalization_21/beta", "shape": [48], "dtype": "float32"}, {"name": "batch_normalization_21/moving_mean", "shape": [48], "dtype": "float32"}, {"name": "batch_normalization_21/moving_variance", "shape": [48], "dtype": "float32"}]}, {"paths": ["group15-shard1of1"], "weights": [{"name": "batch_normalization_22/beta", "shape": [64], "dtype": "float32"}, {"name": "batch_normalization_22/moving_mean", "shape": [64], "dtype": "float32"}, {"name": "batch_normalization_22/moving_variance", "shape": [64], "dtype": "float32"}]}, {"paths": ["group16-shard1of1"], "weights": [{"name": "batch_normalization_23/beta", "shape": [64], "dtype": "float32"}, {"name": "batch_normalization_23/moving_mean", "shape": [64], "dtype": "float32"}, {"name": "batch_normalization_23/moving_variance", "shape": [64], "dtype": "float32"}]}, {"paths": ["group17-shard1of1"], "weights": [{"name": "batch_normalization_24/beta", "shape": [96], "dtype": "float32"}, {"name": "batch_normalization_24/moving_mean", "shape": [96], "dtype": "float32"}, {"name": "batch_normalization_24/moving_variance", "shape": [96], "dtype": "float32"}]}, {"paths": ["group18-shard1of1"], "weights": [{"name": "batch_normalization_25/beta", "shape": [96], "dtype": "float32"}, {"name": "batch_normalization_25/moving_mean", "shape": [96], "dtype": "float32"}, {"name": "batch_normalization_25/moving_variance", "shape": [96], "dtype": "float32"}]}, {"paths": ["group19-shard1of1"], "weights": [{"name": "batch_normalization_26/beta", "shape": [64], "dtype": "float32"}, {"name": "batch_normalization_26/moving_mean", "shape": [64], "dtype": "float32"}, {"name": "batch_normalization_26/moving_variance", "shape": [64], "dtype": "float32"}]}, {"paths": ["group20-shard1of1"], "weights": [{"name": "batch_normalization_27/beta", "shape": [384], "dtype": "float32"}, {"name": "batch_normalization_27/moving_mean", "shape": [384], "dtype": "float32"}, {"name": "batch_normalization_27/moving_variance", "shape": [384], "dtype": "float32"}]}, {"paths": ["group21-shard1of1"], "weights": [{"name": "batch_normalization_28/beta", "shape": [64], "dtype": "float32"}, {"name": "batch_normalization_28/moving_mean", "shape": [64], "dtype": "float32"}, {"name": "batch_normalization_28/moving_variance", "shape": [64], "dtype": "float32"}]}, {"paths": ["group22-shard1of1"], "weights": [{"name": "batch_normalization_29/beta", "shape": [96], "dtype": "float32"}, {"name": "batch_normalization_29/moving_mean", "shape": [96], "dtype": "float32"}, {"name": "batch_normalization_29/moving_variance", "shape": [96], "dtype": "float32"}]}, {"paths": ["group23-shard1of1"], "weights": [{"name": "batch_normalization_3/beta", "shape": [64], "dtype": "float32"}, {"name": "batch_normalization_3/moving_mean", "shape": [64], "dtype": "float32"}, {"name": "batch_normalization_3/moving_variance", "shape": [64], "dtype": "float32"}]}, {"paths": ["group24-shard1of1"], "weights": [{"name": "batch_normalization_30/beta", "shape": [96], "dtype": "float32"}, {"name": "batch_normalization_30/moving_mean", "shape": [96], "dtype": "float32"}, {"name": "batch_normalization_30/moving_variance", "shape": [96], "dtype": "float32"}]}, {"paths": ["group25-shard1of1"], "weights": [{"name": "batch_normalization_31/beta", "shape": [192], "dtype": "float32"}, {"name": "batch_normalization_31/moving_mean", "shape": [192], "dtype": "float32"}, {"name": "batch_normalization_31/moving_variance", "shape": [192], "dtype": "float32"}]}, {"paths": ["group26-shard1of1"], "weights": [{"name": "batch_normalization_32/beta", "shape": [128], "dtype": "float32"}, {"name": "batch_normalization_32/moving_mean", "shape": [128], "dtype": "float32"}, {"name": "batch_normalization_32/moving_variance", "shape": [128], "dtype": "float32"}]}, {"paths": ["group27-shard1of1"], "weights": [{"name": "batch_normalization_33/beta", "shape": [128], "dtype": "float32"}, {"name": "batch_normalization_33/moving_mean", "shape": [128], "dtype": "float32"}, {"name": "batch_normalization_33/moving_variance", "shape": [128], "dtype": "float32"}]}, {"paths": ["group28-shard1of1"], "weights": [{"name": "batch_normalization_34/beta", "shape": [192], "dtype": "float32"}, {"name": "batch_normalization_34/moving_mean", "shape": [192], "dtype": "float32"}, {"name": "batch_normalization_34/moving_variance", "shape": [192], "dtype": "float32"}]}, {"paths": ["group29-shard1of1"], "weights": [{"name": "batch_normalization_35/beta", "shape": [128], "dtype": "float32"}, {"name": "batch_normalization_35/moving_mean", "shape": [128], "dtype": "float32"}, {"name": "batch_normalization_35/moving_variance", "shape": [128], "dtype": "float32"}]}, {"paths": ["group30-shard1of1"], "weights": [{"name": "batch_normalization_36/beta", "shape": [128], "dtype": "float32"}, {"name": "batch_normalization_36/moving_mean", "shape": [128], "dtype": "float32"}, {"name": "batch_normalization_36/moving_variance", "shape": [128], "dtype": "float32"}]}, {"paths": ["group31-shard1of1"], "weights": [{"name": "batch_normalization_37/beta", "shape": [128], "dtype": "float32"}, {"name": "batch_normalization_37/moving_mean", "shape": [128], "dtype": "float32"}, {"name": "batch_normalization_37/moving_variance", "shape": [128], "dtype": "float32"}]}, {"paths": ["group32-shard1of1"], "weights": [{"name": "batch_normalization_38/beta", "shape": [128], "dtype": "float32"}, {"name": "batch_normalization_38/moving_mean", "shape": [128], "dtype": "float32"}, {"name": "batch_normalization_38/moving_variance", "shape": [128], "dtype": "float32"}]}, {"paths": ["group33-shard1of1"], "weights": [{"name": "batch_normalization_39/beta", "shape": [192], "dtype": "float32"}, {"name": "batch_normalization_39/moving_mean", "shape": [192], "dtype": "float32"}, {"name": "batch_normalization_39/moving_variance", "shape": [192], "dtype": "float32"}]}, {"paths": ["group34-shard1of1"], "weights": [{"name": "batch_normalization_4/beta", "shape": [80], "dtype": "float32"}, {"name": "batch_normalization_4/moving_mean", "shape": [80], "dtype": "float32"}, {"name": "batch_normalization_4/moving_variance", "shape": [80], "dtype": "float32"}]}, {"paths": ["group35-shard1of1"], "weights": [{"name": "batch_normalization_40/beta", "shape": [192], "dtype": "float32"}, {"name": "batch_normalization_40/moving_mean", "shape": [192], "dtype": "float32"}, {"name": "batch_normalization_40/moving_variance", "shape": [192], "dtype": "float32"}]}, {"paths": ["group36-shard1of1"], "weights": [{"name": "batch_normalization_41/beta", "shape": [192], "dtype": "float32"}, {"name": "batch_normalization_41/moving_mean", "shape": [192], "dtype": "float32"}, {"name": "batch_normalization_41/moving_variance", "shape": [192], "dtype": "float32"}]}, {"paths": ["group37-shard1of1"], "weights": [{"name": "batch_normalization_42/beta", "shape": [160], "dtype": "float32"}, {"name": "batch_normalization_42/moving_mean", "shape": [160], "dtype": "float32"}, {"name": "batch_normalization_42/moving_variance", "shape": [160], "dtype": "float32"}]}, {"paths": ["group38-shard1of1"], "weights": [{"name": "batch_normalization_43/beta", "shape": [160], "dtype": "float32"}, {"name": "batch_normalization_43/moving_mean", "shape": [160], "dtype": "float32"}, {"name": "batch_normalization_43/moving_variance", "shape": [160], "dtype": "float32"}]}, {"paths": ["group39-shard1of1"], "weights": [{"name": "batch_normalization_44/beta", "shape": [192], "dtype": "float32"}, {"name": "batch_normalization_44/moving_mean", "shape": [192], "dtype": "float32"}, {"name": "batch_normalization_44/moving_variance", "shape": [192], "dtype": "float32"}]}, {"paths": ["group40-shard1of1"], "weights": [{"name": "batch_normalization_45/beta", "shape": [160], "dtype": "float32"}, {"name": "batch_normalization_45/moving_mean", "shape": [160], "dtype": "float32"}, {"name": "batch_normalization_45/moving_variance", "shape": [160], "dtype": "float32"}]}, {"paths": ["group41-shard1of1"], "weights": [{"name": "batch_normalization_46/beta", "shape": [160], "dtype": "float32"}, {"name": "batch_normalization_46/moving_mean", "shape": [160], "dtype": "float32"}, {"name": "batch_normalization_46/moving_variance", "shape": [160], "dtype": "float32"}]}, {"paths": ["group42-shard1of1"], "weights": [{"name": "batch_normalization_47/beta", "shape": [160], "dtype": "float32"}, {"name": "batch_normalization_47/moving_mean", "shape": [160], "dtype": "float32"}, {"name": "batch_normalization_47/moving_variance", "shape": [160], "dtype": "float32"}]}, {"paths": ["group43-shard1of1"], "weights": [{"name": "batch_normalization_48/beta", "shape": [160], "dtype": "float32"}, {"name": "batch_normalization_48/moving_mean", "shape": [160], "dtype": "float32"}, {"name": "batch_normalization_48/moving_variance", "shape": [160], "dtype": "float32"}]}, {"paths": ["group44-shard1of1"], "weights": [{"name": "batch_normalization_49/beta", "shape": [192], "dtype": "float32"}, {"name": "batch_normalization_49/moving_mean", "shape": [192], "dtype": "float32"}, {"name": "batch_normalization_49/moving_variance", "shape": [192], "dtype": "float32"}]}, {"paths": ["group45-shard1of1"], "weights": [{"name": "batch_normalization_5/beta", "shape": [192], "dtype": "float32"}, {"name": "batch_normalization_5/moving_mean", "shape": [192], "dtype": "float32"}, {"name": "batch_normalization_5/moving_variance", "shape": [192], "dtype": "float32"}]}, {"paths": ["group46-shard1of1"], "weights": [{"name": "batch_normalization_50/beta", "shape": [192], "dtype": "float32"}, {"name": "batch_normalization_50/moving_mean", "shape": [192], "dtype": "float32"}, {"name": "batch_normalization_50/moving_variance", "shape": [192], "dtype": "float32"}]}, {"paths": ["group47-shard1of1"], "weights": [{"name": "batch_normalization_51/beta", "shape": [192], "dtype": "float32"}, {"name": "batch_normalization_51/moving_mean", "shape": [192], "dtype": "float32"}, {"name": "batch_normalization_51/moving_variance", "shape": [192], "dtype": "float32"}]}, {"paths": ["group48-shard1of1"], "weights": [{"name": "batch_normalization_52/beta", "shape": [160], "dtype": "float32"}, {"name": "batch_normalization_52/moving_mean", "shape": [160], "dtype": "float32"}, {"name": "batch_normalization_52/moving_variance", "shape": [160], "dtype": "float32"}]}, {"paths": ["group49-shard1of1"], "weights": [{"name": "batch_normalization_53/beta", "shape": [160], "dtype": "float32"}, {"name": "batch_normalization_53/moving_mean", "shape": [160], "dtype": "float32"}, {"name": "batch_normalization_53/moving_variance", "shape": [160], "dtype": "float32"}]}, {"paths": ["group50-shard1of1"], "weights": [{"name": "batch_normalization_54/beta", "shape": [192], "dtype": "float32"}, {"name": "batch_normalization_54/moving_mean", "shape": [192], "dtype": "float32"}, {"name": "batch_normalization_54/moving_variance", "shape": [192], "dtype": "float32"}]}, {"paths": ["group51-shard1of1"], "weights": [{"name": "batch_normalization_55/beta", "shape": [160], "dtype": "float32"}, {"name": "batch_normalization_55/moving_mean", "shape": [160], "dtype": "float32"}, {"name": "batch_normalization_55/moving_variance", "shape": [160], "dtype": "float32"}]}, {"paths": ["group52-shard1of1"], "weights": [{"name": "batch_normalization_56/beta", "shape": [160], "dtype": "float32"}, {"name": "batch_normalization_56/moving_mean", "shape": [160], "dtype": "float32"}, {"name": "batch_normalization_56/moving_variance", "shape": [160], "dtype": "float32"}]}, {"paths": ["group53-shard1of1"], "weights": [{"name": "batch_normalization_57/beta", "shape": [160], "dtype": "float32"}, {"name": "batch_normalization_57/moving_mean", "shape": [160], "dtype": "float32"}, {"name": "batch_normalization_57/moving_variance", "shape": [160], "dtype": "float32"}]}, {"paths": ["group54-shard1of1"], "weights": [{"name": "batch_normalization_58/beta", "shape": [160], "dtype": "float32"}, {"name": "batch_normalization_58/moving_mean", "shape": [160], "dtype": "float32"}, {"name": "batch_normalization_58/moving_variance", "shape": [160], "dtype": "float32"}]}, {"paths": ["group55-shard1of1"], "weights": [{"name": "batch_normalization_59/beta", "shape": [192], "dtype": "float32"}, {"name": "batch_normalization_59/moving_mean", "shape": [192], "dtype": "float32"}, {"name": "batch_normalization_59/moving_variance", "shape": [192], "dtype": "float32"}]}, {"paths": ["group56-shard1of1"], "weights": [{"name": "batch_normalization_6/beta", "shape": [64], "dtype": "float32"}, {"name": "batch_normalization_6/moving_mean", "shape": [64], "dtype": "float32"}, {"name": "batch_normalization_6/moving_variance", "shape": [64], "dtype": "float32"}]}, {"paths": ["group57-shard1of1"], "weights": [{"name": "batch_normalization_60/beta", "shape": [192], "dtype": "float32"}, {"name": "batch_normalization_60/moving_mean", "shape": [192], "dtype": "float32"}, {"name": "batch_normalization_60/moving_variance", "shape": [192], "dtype": "float32"}]}, {"paths": ["group58-shard1of1"], "weights": [{"name": "batch_normalization_61/beta", "shape": [192], "dtype": "float32"}, {"name": "batch_normalization_61/moving_mean", "shape": [192], "dtype": "float32"}, {"name": "batch_normalization_61/moving_variance", "shape": [192], "dtype": "float32"}]}, {"paths": ["group59-shard1of1"], "weights": [{"name": "batch_normalization_62/beta", "shape": [192], "dtype": "float32"}, {"name": "batch_normalization_62/moving_mean", "shape": [192], "dtype": "float32"}, {"name": "batch_normalization_62/moving_variance", "shape": [192], "dtype": "float32"}]}, {"paths": ["group60-shard1of1"], "weights": [{"name": "batch_normalization_63/beta", "shape": [192], "dtype": "float32"}, {"name": "batch_normalization_63/moving_mean", "shape": [192], "dtype": "float32"}, {"name": "batch_normalization_63/moving_variance", "shape": [192], "dtype": "float32"}]}, {"paths": ["group61-shard1of1"], "weights": [{"name": "batch_normalization_64/beta", "shape": [192], "dtype": "float32"}, {"name": "batch_normalization_64/moving_mean", "shape": [192], "dtype": "float32"}, {"name": "batch_normalization_64/moving_variance", "shape": [192], "dtype": "float32"}]}, {"paths": ["group62-shard1of1"], "weights": [{"name": "batch_normalization_65/beta", "shape": [192], "dtype": "float32"}, {"name": "batch_normalization_65/moving_mean", "shape": [192], "dtype": "float32"}, {"name": "batch_normalization_65/moving_variance", "shape": [192], "dtype": "float32"}]}, {"paths": ["group63-shard1of1"], "weights": [{"name": "batch_normalization_66/beta", "shape": [192], "dtype": "float32"}, {"name": "batch_normalization_66/moving_mean", "shape": [192], "dtype": "float32"}, {"name": "batch_normalization_66/moving_variance", "shape": [192], "dtype": "float32"}]}, {"paths": ["group64-shard1of1"], "weights": [{"name": "batch_normalization_67/beta", "shape": [192], "dtype": "float32"}, {"name": "batch_normalization_67/moving_mean", "shape": [192], "dtype": "float32"}, {"name": "batch_normalization_67/moving_variance", "shape": [192], "dtype": "float32"}]}, {"paths": ["group65-shard1of1"], "weights": [{"name": "batch_normalization_68/beta", "shape": [192], "dtype": "float32"}, {"name": "batch_normalization_68/moving_mean", "shape": [192], "dtype": "float32"}, {"name": "batch_normalization_68/moving_variance", "shape": [192], "dtype": "float32"}]}, {"paths": ["group66-shard1of1"], "weights": [{"name": "batch_normalization_69/beta", "shape": [192], "dtype": "float32"}, {"name": "batch_normalization_69/moving_mean", "shape": [192], "dtype": "float32"}, {"name": "batch_normalization_69/moving_variance", "shape": [192], "dtype": "float32"}]}, {"paths": ["group67-shard1of1"], "weights": [{"name": "batch_normalization_7/beta", "shape": [48], "dtype": "float32"}, {"name": "batch_normalization_7/moving_mean", "shape": [48], "dtype": "float32"}, {"name": "batch_normalization_7/moving_variance", "shape": [48], "dtype": "float32"}]}, {"paths": ["group68-shard1of1"], "weights": [{"name": "batch_normalization_70/beta", "shape": [192], "dtype": "float32"}, {"name": "batch_normalization_70/moving_mean", "shape": [192], "dtype": "float32"}, {"name": "batch_normalization_70/moving_variance", "shape": [192], "dtype": "float32"}]}, {"paths": ["group69-shard1of1"], "weights": [{"name": "batch_normalization_71/beta", "shape": [192], "dtype": "float32"}, {"name": "batch_normalization_71/moving_mean", "shape": [192], "dtype": "float32"}, {"name": "batch_normalization_71/moving_variance", "shape": [192], "dtype": "float32"}]}, {"paths": ["group70-shard1of1"], "weights": [{"name": "batch_normalization_72/beta", "shape": [320], "dtype": "float32"}, {"name": "batch_normalization_72/moving_mean", "shape": [320], "dtype": "float32"}, {"name": "batch_normalization_72/moving_variance", "shape": [320], "dtype": "float32"}]}, {"paths": ["group71-shard1of1"], "weights": [{"name": "batch_normalization_73/beta", "shape": [192], "dtype": "float32"}, {"name": "batch_normalization_73/moving_mean", "shape": [192], "dtype": "float32"}, {"name": "batch_normalization_73/moving_variance", "shape": [192], "dtype": "float32"}]}, {"paths": ["group72-shard1of1"], "weights": [{"name": "batch_normalization_74/beta", "shape": [192], "dtype": "float32"}, {"name": "batch_normalization_74/moving_mean", "shape": [192], "dtype": "float32"}, {"name": "batch_normalization_74/moving_variance", "shape": [192], "dtype": "float32"}]}, {"paths": ["group73-shard1of1"], "weights": [{"name": "batch_normalization_75/beta", "shape": [192], "dtype": "float32"}, {"name": "batch_normalization_75/moving_mean", "shape": [192], "dtype": "float32"}, {"name": "batch_normalization_75/moving_variance", "shape": [192], "dtype": "float32"}]}, {"paths": ["group74-shard1of1"], "weights": [{"name": "batch_normalization_76/beta", "shape": [192], "dtype": "float32"}, {"name": "batch_normalization_76/moving_mean", "shape": [192], "dtype": "float32"}, {"name": "batch_normalization_76/moving_variance", "shape": [192], "dtype": "float32"}]}, {"paths": ["group75-shard1of1"], "weights": [{"name": "batch_normalization_77/beta", "shape": [320], "dtype": "float32"}, {"name": "batch_normalization_77/moving_mean", "shape": [320], "dtype": "float32"}, {"name": "batch_normalization_77/moving_variance", "shape": [320], "dtype": "float32"}]}, {"paths": ["group76-shard1of1"], "weights": [{"name": "batch_normalization_78/beta", "shape": [384], "dtype": "float32"}, {"name": "batch_normalization_78/moving_mean", "shape": [384], "dtype": "float32"}, {"name": "batch_normalization_78/moving_variance", "shape": [384], "dtype": "float32"}]}, {"paths": ["group77-shard1of1"], "weights": [{"name": "batch_normalization_79/beta", "shape": [384], "dtype": "float32"}, {"name": "batch_normalization_79/moving_mean", "shape": [384], "dtype": "float32"}, {"name": "batch_normalization_79/moving_variance", "shape": [384], "dtype": "float32"}]}, {"paths": ["group78-shard1of1"], "weights": [{"name": "batch_normalization_8/beta", "shape": [64], "dtype": "float32"}, {"name": "batch_normalization_8/moving_mean", "shape": [64], "dtype": "float32"}, {"name": "batch_normalization_8/moving_variance", "shape": [64], "dtype": "float32"}]}, {"paths": ["group79-shard1of1"], "weights": [{"name": "batch_normalization_80/beta", "shape": [384], "dtype": "float32"}, {"name": "batch_normalization_80/moving_mean", "shape": [384], "dtype": "float32"}, {"name": "batch_normalization_80/moving_variance", "shape": [384], "dtype": "float32"}]}, {"paths": ["group80-shard1of1"], "weights": [{"name": "batch_normalization_81/beta", "shape": [448], "dtype": "float32"}, {"name": "batch_normalization_81/moving_mean", "shape": [448], "dtype": "float32"}, {"name": "batch_normalization_81/moving_variance", "shape": [448], "dtype": "float32"}]}, {"paths": ["group81-shard1of1"], "weights": [{"name": "batch_normalization_82/beta", "shape": [384], "dtype": "float32"}, {"name": "batch_normalization_82/moving_mean", "shape": [384], "dtype": "float32"}, {"name": "batch_normalization_82/moving_variance", "shape": [384], "dtype": "float32"}]}, {"paths": ["group82-shard1of1"], "weights": [{"name": "batch_normalization_83/beta", "shape": [384], "dtype": "float32"}, {"name": "batch_normalization_83/moving_mean", "shape": [384], "dtype": "float32"}, {"name": "batch_normalization_83/moving_variance", "shape": [384], "dtype": "float32"}]}, {"paths": ["group83-shard1of1"], "weights": [{"name": "batch_normalization_84/beta", "shape": [384], "dtype": "float32"}, {"name": "batch_normalization_84/moving_mean", "shape": [384], "dtype": "float32"}, {"name": "batch_normalization_84/moving_variance", "shape": [384], "dtype": "float32"}]}, {"paths": ["group84-shard1of1"], "weights": [{"name": "batch_normalization_85/beta", "shape": [192], "dtype": "float32"}, {"name": "batch_normalization_85/moving_mean", "shape": [192], "dtype": "float32"}, {"name": "batch_normalization_85/moving_variance", "shape": [192], "dtype": "float32"}]}, {"paths": ["group85-shard1of1"], "weights": [{"name": "batch_normalization_86/beta", "shape": [320], "dtype": "float32"}, {"name": "batch_normalization_86/moving_mean", "shape": [320], "dtype": "float32"}, {"name": "batch_normalization_86/moving_variance", "shape": [320], "dtype": "float32"}]}, {"paths": ["group86-shard1of1"], "weights": [{"name": "batch_normalization_87/beta", "shape": [384], "dtype": "float32"}, {"name": "batch_normalization_87/moving_mean", "shape": [384], "dtype": "float32"}, {"name": "batch_normalization_87/moving_variance", "shape": [384], "dtype": "float32"}]}, {"paths": ["group87-shard1of1"], "weights": [{"name": "batch_normalization_88/beta", "shape": [384], "dtype": "float32"}, {"name": "batch_normalization_88/moving_mean", "shape": [384], "dtype": "float32"}, {"name": "batch_normalization_88/moving_variance", "shape": [384], "dtype": "float32"}]}, {"paths": ["group88-shard1of1"], "weights": [{"name": "batch_normalization_89/beta", "shape": [384], "dtype": "float32"}, {"name": "batch_normalization_89/moving_mean", "shape": [384], "dtype": "float32"}, {"name": "batch_normalization_89/moving_variance", "shape": [384], "dtype": "float32"}]}, {"paths": ["group89-shard1of1"], "weights": [{"name": "batch_normalization_9/beta", "shape": [64], "dtype": "float32"}, {"name": "batch_normalization_9/moving_mean", "shape": [64], "dtype": "float32"}, {"name": "batch_normalization_9/moving_variance", "shape": [64], "dtype": "float32"}]}, {"paths": ["group90-shard1of1"], "weights": [{"name": "batch_normalization_90/beta", "shape": [448], "dtype": "float32"}, {"name": "batch_normalization_90/moving_mean", "shape": [448], "dtype": "float32"}, {"name": "batch_normalization_90/moving_variance", "shape": [448], "dtype": "float32"}]}, {"paths": ["group91-shard1of1"], "weights": [{"name": "batch_normalization_91/beta", "shape": [384], "dtype": "float32"}, {"name": "batch_normalization_91/moving_mean", "shape": [384], "dtype": "float32"}, {"name": "batch_normalization_91/moving_variance", "shape": [384], "dtype": "float32"}]}, {"paths": ["group92-shard1of1"], "weights": [{"name": "batch_normalization_92/beta", "shape": [384], "dtype": "float32"}, {"name": "batch_normalization_92/moving_mean", "shape": [384], "dtype": "float32"}, {"name": "batch_normalization_92/moving_variance", "shape": [384], "dtype": "float32"}]}, {"paths": ["group93-shard1of1"], "weights": [{"name": "batch_normalization_93/beta", "shape": [384], "dtype": "float32"}, {"name": "batch_normalization_93/moving_mean", "shape": [384], "dtype": "float32"}, {"name": "batch_normalization_93/moving_variance", "shape": [384], "dtype": "float32"}]}, {"paths": ["group94-shard1of1"], "weights": [{"name": "batch_normalization_94/beta", "shape": [192], "dtype": "float32"}, {"name": "batch_normalization_94/moving_mean", "shape": [192], "dtype": "float32"}, {"name": "batch_normalization_94/moving_variance", "shape": [192], "dtype": "float32"}]}, {"paths": ["group95-shard1of1"], "weights": [{"name": "conv2d_1/kernel", "shape": [3, 3, 3, 32], "dtype": "float32"}]}, {"paths": ["group96-shard1of1"], "weights": [{"name": "conv2d_10/kernel", "shape": [3, 3, 64, 96], "dtype": "float32"}]}, {"paths": ["group97-shard1of1"], "weights": [{"name": "conv2d_11/kernel", "shape": [3, 3, 96, 96], "dtype": "float32"}]}, {"paths": ["group98-shard1of1"], "weights": [{"name": "conv2d_12/kernel", "shape": [1, 1, 192, 32], "dtype": "float32"}]}, {"paths": ["group99-shard1of1"], "weights": [{"name": "conv2d_13/kernel", "shape": [1, 1, 256, 64], "dtype": "float32"}]}, {"paths": ["group100-shard1of1"], "weights": [{"name": "conv2d_14/kernel", "shape": [1, 1, 256, 48], "dtype": "float32"}]}, {"paths": ["group101-shard1of1"], "weights": [{"name": "conv2d_15/kernel", "shape": [5, 5, 48, 64], "dtype": "float32"}]}, {"paths": ["group102-shard1of1"], "weights": [{"name": "conv2d_16/kernel", "shape": [1, 1, 256, 64], "dtype": "float32"}]}, {"paths": ["group103-shard1of1"], "weights": [{"name": "conv2d_17/kernel", "shape": [3, 3, 64, 96], "dtype": "float32"}]}, {"paths": ["group104-shard1of1"], "weights": [{"name": "conv2d_18/kernel", "shape": [3, 3, 96, 96], "dtype": "float32"}]}, {"paths": ["group105-shard1of1"], "weights": [{"name": "conv2d_19/kernel", "shape": [1, 1, 256, 64], "dtype": "float32"}]}, {"paths": ["group106-shard1of1"], "weights": [{"name": "conv2d_2/kernel", "shape": [3, 3, 32, 32], "dtype": "float32"}]}, {"paths": ["group107-shard1of1"], "weights": [{"name": "conv2d_20/kernel", "shape": [1, 1, 288, 64], "dtype": "float32"}]}, {"paths": ["group108-shard1of1"], "weights": [{"name": "conv2d_21/kernel", "shape": [1, 1, 288, 48], "dtype": "float32"}]}, {"paths": ["group109-shard1of1"], "weights": [{"name": "conv2d_22/kernel", "shape": [5, 5, 48, 64], "dtype": "float32"}]}, {"paths": ["group110-shard1of1"], "weights": [{"name": "conv2d_23/kernel", "shape": [1, 1, 288, 64], "dtype": "float32"}]}, {"paths": ["group111-shard1of1"], "weights": [{"name": "conv2d_24/kernel", "shape": [3, 3, 64, 96], "dtype": "float32"}]}, {"paths": ["group112-shard1of1"], "weights": [{"name": "conv2d_25/kernel", "shape": [3, 3, 96, 96], "dtype": "float32"}]}, {"paths": ["group113-shard1of1"], "weights": [{"name": "conv2d_26/kernel", "shape": [1, 1, 288, 64], "dtype": "float32"}]}, {"paths": ["group114-shard1of1"], "weights": [{"name": "conv2d_27/kernel", "shape": [3, 3, 288, 384], "dtype": "float32"}]}, {"paths": ["group115-shard1of1"], "weights": [{"name": "conv2d_28/kernel", "shape": [1, 1, 288, 64], "dtype": "float32"}]}, {"paths": ["group116-shard1of1"], "weights": [{"name": "conv2d_29/kernel", "shape": [3, 3, 64, 96], "dtype": "float32"}]}, {"paths": ["group117-shard1of1"], "weights": [{"name": "conv2d_3/kernel", "shape": [3, 3, 32, 64], "dtype": "float32"}]}, {"paths": ["group118-shard1of1"], "weights": [{"name": "conv2d_30/kernel", "shape": [3, 3, 96, 96], "dtype": "float32"}]}, {"paths": ["group119-shard1of1"], "weights": [{"name": "conv2d_31/kernel", "shape": [1, 1, 768, 192], "dtype": "float32"}]}, {"paths": ["group120-shard1of1"], "weights": [{"name": "conv2d_32/kernel", "shape": [1, 1, 768, 128], "dtype": "float32"}]}, {"paths": ["group121-shard1of1"], "weights": [{"name": "conv2d_33/kernel", "shape": [1, 7, 128, 128], "dtype": "float32"}]}, {"paths": ["group122-shard1of1"], "weights": [{"name": "conv2d_34/kernel", "shape": [7, 1, 128, 192], "dtype": "float32"}]}, {"paths": ["group123-shard1of1"], "weights": [{"name": "conv2d_35/kernel", "shape": [1, 1, 768, 128], "dtype": "float32"}]}, {"paths": ["group124-shard1of1"], "weights": [{"name": "conv2d_36/kernel", "shape": [7, 1, 128, 128], "dtype": "float32"}]}, {"paths": ["group125-shard1of1"], "weights": [{"name": "conv2d_37/kernel", "shape": [1, 7, 128, 128], "dtype": "float32"}]}, {"paths": ["group126-shard1of1"], "weights": [{"name": "conv2d_38/kernel", "shape": [7, 1, 128, 128], "dtype": "float32"}]}, {"paths": ["group127-shard1of1"], "weights": [{"name": "conv2d_39/kernel", "shape": [1, 7, 128, 192], "dtype": "float32"}]}, {"paths": ["group128-shard1of1"], "weights": [{"name": "conv2d_4/kernel", "shape": [1, 1, 64, 80], "dtype": "float32"}]}, {"paths": ["group129-shard1of1"], "weights": [{"name": "conv2d_40/kernel", "shape": [1, 1, 768, 192], "dtype": "float32"}]}, {"paths": ["group130-shard1of1"], "weights": [{"name": "conv2d_41/kernel", "shape": [1, 1, 768, 192], "dtype": "float32"}]}, {"paths": ["group131-shard1of1"], "weights": [{"name": "conv2d_42/kernel", "shape": [1, 1, 768, 160], "dtype": "float32"}]}, {"paths": ["group132-shard1of1"], "weights": [{"name": "conv2d_43/kernel", "shape": [1, 7, 160, 160], "dtype": "float32"}]}, {"paths": ["group133-shard1of1"], "weights": [{"name": "conv2d_44/kernel", "shape": [7, 1, 160, 192], "dtype": "float32"}]}, {"paths": ["group134-shard1of1"], "weights": [{"name": "conv2d_45/kernel", "shape": [1, 1, 768, 160], "dtype": "float32"}]}, {"paths": ["group135-shard1of1"], "weights": [{"name": "conv2d_46/kernel", "shape": [7, 1, 160, 160], "dtype": "float32"}]}, {"paths": ["group136-shard1of1"], "weights": [{"name": "conv2d_47/kernel", "shape": [1, 7, 160, 160], "dtype": "float32"}]}, {"paths": ["group137-shard1of1"], "weights": [{"name": "conv2d_48/kernel", "shape": [7, 1, 160, 160], "dtype": "float32"}]}, {"paths": ["group138-shard1of1"], "weights": [{"name": "conv2d_49/kernel", "shape": [1, 7, 160, 192], "dtype": "float32"}]}, {"paths": ["group139-shard1of1"], "weights": [{"name": "conv2d_5/kernel", "shape": [3, 3, 80, 192], "dtype": "float32"}]}, {"paths": ["group140-shard1of1"], "weights": [{"name": "conv2d_50/kernel", "shape": [1, 1, 768, 192], "dtype": "float32"}]}, {"paths": ["group141-shard1of1"], "weights": [{"name": "conv2d_51/kernel", "shape": [1, 1, 768, 192], "dtype": "float32"}]}, {"paths": ["group142-shard1of1"], "weights": [{"name": "conv2d_52/kernel", "shape": [1, 1, 768, 160], "dtype": "float32"}]}, {"paths": ["group143-shard1of1"], "weights": [{"name": "conv2d_53/kernel", "shape": [1, 7, 160, 160], "dtype": "float32"}]}, {"paths": ["group144-shard1of1"], "weights": [{"name": "conv2d_54/kernel", "shape": [7, 1, 160, 192], "dtype": "float32"}]}, {"paths": ["group145-shard1of1"], "weights": [{"name": "conv2d_55/kernel", "shape": [1, 1, 768, 160], "dtype": "float32"}]}, {"paths": ["group146-shard1of1"], "weights": [{"name": "conv2d_56/kernel", "shape": [7, 1, 160, 160], "dtype": "float32"}]}, {"paths": ["group147-shard1of1"], "weights": [{"name": "conv2d_57/kernel", "shape": [1, 7, 160, 160], "dtype": "float32"}]}, {"paths": ["group148-shard1of1"], "weights": [{"name": "conv2d_58/kernel", "shape": [7, 1, 160, 160], "dtype": "float32"}]}, {"paths": ["group149-shard1of1"], "weights": [{"name": "conv2d_59/kernel", "shape": [1, 7, 160, 192], "dtype": "float32"}]}, {"paths": ["group150-shard1of1"], "weights": [{"name": "conv2d_6/kernel", "shape": [1, 1, 192, 64], "dtype": "float32"}]}, {"paths": ["group151-shard1of1"], "weights": [{"name": "conv2d_60/kernel", "shape": [1, 1, 768, 192], "dtype": "float32"}]}, {"paths": ["group152-shard1of1"], "weights": [{"name": "conv2d_61/kernel", "shape": [1, 1, 768, 192], "dtype": "float32"}]}, {"paths": ["group153-shard1of1"], "weights": [{"name": "conv2d_62/kernel", "shape": [1, 1, 768, 192], "dtype": "float32"}]}, {"paths": ["group154-shard1of1"], "weights": [{"name": "conv2d_63/kernel", "shape": [1, 7, 192, 192], "dtype": "float32"}]}, {"paths": ["group155-shard1of1"], "weights": [{"name": "conv2d_64/kernel", "shape": [7, 1, 192, 192], "dtype": "float32"}]}, {"paths": ["group156-shard1of1"], "weights": [{"name": "conv2d_65/kernel", "shape": [1, 1, 768, 192], "dtype": "float32"}]}, {"paths": ["group157-shard1of1"], "weights": [{"name": "conv2d_66/kernel", "shape": [7, 1, 192, 192], "dtype": "float32"}]}, {"paths": ["group158-shard1of1"], "weights": [{"name": "conv2d_67/kernel", "shape": [1, 7, 192, 192], "dtype": "float32"}]}, {"paths": ["group159-shard1of1"], "weights": [{"name": "conv2d_68/kernel", "shape": [7, 1, 192, 192], "dtype": "float32"}]}, {"paths": ["group160-shard1of1"], "weights": [{"name": "conv2d_69/kernel", "shape": [1, 7, 192, 192], "dtype": "float32"}]}, {"paths": ["group161-shard1of1"], "weights": [{"name": "conv2d_7/kernel", "shape": [1, 1, 192, 48], "dtype": "float32"}]}, {"paths": ["group162-shard1of1"], "weights": [{"name": "conv2d_70/kernel", "shape": [1, 1, 768, 192], "dtype": "float32"}]}, {"paths": ["group163-shard1of1"], "weights": [{"name": "conv2d_71/kernel", "shape": [1, 1, 768, 192], "dtype": "float32"}]}, {"paths": ["group164-shard1of1"], "weights": [{"name": "conv2d_72/kernel", "shape": [3, 3, 192, 320], "dtype": "float32"}]}, {"paths": ["group165-shard1of1"], "weights": [{"name": "conv2d_73/kernel", "shape": [1, 1, 768, 192], "dtype": "float32"}]}, {"paths": ["group166-shard1of1"], "weights": [{"name": "conv2d_74/kernel", "shape": [1, 7, 192, 192], "dtype": "float32"}]}, {"paths": ["group167-shard1of1"], "weights": [{"name": "conv2d_75/kernel", "shape": [7, 1, 192, 192], "dtype": "float32"}]}, {"paths": ["group168-shard1of1"], "weights": [{"name": "conv2d_76/kernel", "shape": [3, 3, 192, 192], "dtype": "float32"}]}, {"paths": ["group169-shard1of1"], "weights": [{"name": "conv2d_77/kernel", "shape": [1, 1, 1280, 320], "dtype": "float32"}]}, {"paths": ["group170-shard1of1"], "weights": [{"name": "conv2d_78/kernel", "shape": [1, 1, 1280, 384], "dtype": "float32"}]}, {"paths": ["group171-shard1of1"], "weights": [{"name": "conv2d_79/kernel", "shape": [1, 3, 384, 384], "dtype": "float32"}]}, {"paths": ["group172-shard1of1"], "weights": [{"name": "conv2d_8/kernel", "shape": [5, 5, 48, 64], "dtype": "float32"}]}, {"paths": ["group173-shard1of1"], "weights": [{"name": "conv2d_80/kernel", "shape": [3, 1, 384, 384], "dtype": "float32"}]}, {"paths": ["group174-shard1of1"], "weights": [{"name": "conv2d_81/kernel", "shape": [1, 1, 1280, 448], "dtype": "float32"}]}, {"paths": ["group175-shard1of2", "group175-shard2of2"], "weights": [{"name": "conv2d_82/kernel", "shape": [3, 3, 448, 384], "dtype": "float32"}]}, {"paths": ["group176-shard1of1"], "weights": [{"name": "conv2d_83/kernel", "shape": [1, 3, 384, 384], "dtype": "float32"}]}, {"paths": ["group177-shard1of1"], "weights": [{"name": "conv2d_84/kernel", "shape": [3, 1, 384, 384], "dtype": "float32"}]}, {"paths": ["group178-shard1of1"], "weights": [{"name": "conv2d_85/kernel", "shape": [1, 1, 1280, 192], "dtype": "float32"}]}, {"paths": ["group179-shard1of1"], "weights": [{"name": "conv2d_86/kernel", "shape": [1, 1, 2048, 320], "dtype": "float32"}]}, {"paths": ["group180-shard1of1"], "weights": [{"name": "conv2d_87/kernel", "shape": [1, 1, 2048, 384], "dtype": "float32"}]}, {"paths": ["group181-shard1of1"], "weights": [{"name": "conv2d_88/kernel", "shape": [1, 3, 384, 384], "dtype": "float32"}]}, {"paths": ["group182-shard1of1"], "weights": [{"name": "conv2d_89/kernel", "shape": [3, 1, 384, 384], "dtype": "float32"}]}, {"paths": ["group183-shard1of1"], "weights": [{"name": "conv2d_9/kernel", "shape": [1, 1, 192, 64], "dtype": "float32"}]}, {"paths": ["group184-shard1of1"], "weights": [{"name": "conv2d_90/kernel", "shape": [1, 1, 2048, 448], "dtype": "float32"}]}, {"paths": ["group185-shard1of2", "group185-shard2of2"], "weights": [{"name": "conv2d_91/kernel", "shape": [3, 3, 448, 384], "dtype": "float32"}]}, {"paths": ["group186-shard1of1"], "weights": [{"name": "conv2d_92/kernel", "shape": [1, 3, 384, 384], "dtype": "float32"}]}, {"paths": ["group187-shard1of1"], "weights": [{"name": "conv2d_93/kernel", "shape": [3, 1, 384, 384], "dtype": "float32"}]}, {"paths": ["group188-shard1of1"], "weights": [{"name": "conv2d_94/kernel", "shape": [1, 1, 2048, 192], "dtype": "float32"}]}, {"paths": ["group189-shard1of1"], "weights": [{"name": "dense_1/kernel", "shape": [2048, 5], "dtype": "float32"}, {"name": "dense_1/bias", "shape": [5], "dtype": "float32"}]}]}